saved/checkpoint_critic_agent_0.pth (torch_old, 324044 bytes, 9 tensors)

fc1.weight f4 [256, 52]
0.111590005 1.8838227 -0.0485662 0.6017178 0.21694238 -0.73266405 -0.0616614 0.6086545
0.398813 2.6198604 0.068318665 0.353056 0.01986584 -0.6634482 0.0056752157 0.3838166
0.509992 2.0585485 0.02534379 -0.82353437 -0.1266418 0.5302153 -0.026291477 -0.93348455
0.03936629 0.3957834 -0.02546607 0.31253165 -0.13986775 -0.723402 0.012661615 0.3014937
0.15714449 0.52517617 -0.01438559 0.09935 -0.0025943725 -0.6909828 -0.0756613 0.07107527
0.15519938 0.47796637 0.040209338 -0.103742875 0.22519438 0.50807637 0.04396542 -0.03338067
0.80726326 1.0348554 0.5890185 -0.14604563 0.17376997 -0.526873 0.12846984 -0.43780345
-0.036082257 -0.69969136 0.10439604 -0.44177604 0.033113964 -0.807704 -0.112251416 0.45514342
0.05554235 -0.7235322 -0.097818345 0.48534003 0.15735374 -0.62347686 0.083120555 0.50904614
0.025104163 -1.0736883 0.084043786 0.4735829 -0.015510069 0.0037598924 -0.3146491 0.39284986
0.03406289 -0.75834507 -0.32250828 0.3809805 -0.08007972 0.13708596 -0.10695986 0.13782729
-0.07623372 -0.67876506 -0.15025477 0.10999462 0.08333112 0.036978647 -0.0017720349 -0.61195767
-0.022705296 -0.995655 0.0147528695 -0.6430471 -0.7404196 0.2202065 0.25215486 -0.0017933411
0.6141887 -1.0618012 0.03925366 0.1994823 -0.67911357 -0.30593506 0.07256433 0.21544467
0.7671994 -0.824 -0.02682961 0.19261575 -0.47686 -0.24839456 -0.03894095 0.2211357
0.737321 -0.6010147 0.041705325 0.048251 -0.36522487 0.25270462 0.060047783 0.026777115
0.38478765 -0.5477938 -0.07231117 -0.023038106 0.69094735 -0.32690135 -0.03792576 0.071110085
0.5980339 -0.65377194 -0.026822735 -0.041232996 0.51943636 -0.23971407 -0.09314379 -0.10380501
0.81028545 -0.6101844 0.043473247 0.35073638 0.37466088 0.21368639 -0.019594753 0.4240411
1.2554141 0.894495 -0.25617763 0.7568756 0.8518954 0.47351804 0.01366458 -0.011068667
0.31899008 -0.69752985 -0.026972998 0.0070053446 1.0775925 0.6457468 -0.0346702 -0.04094896
0.24606253 -1.015078 -0.13365802 0.027068047 1.0789931 0.8123251 -0.0152683165 0.026040297
0.02443463 -0.88889825 -0.03608367 -0.054631602 -0.11174163 0.24793023 -0.050277565 -0.07719209
-0.3037291 -0.7581888 -0.118824616 -0.16002095 -0.15029883 0.1386405 0.038389474 -0.0017362734
-0.15227616 -0.96151054 -0.0013657435 0.09560681 0.105017446 0.3432779 0.06841961 0.078204334
0.011583874 -0.95031834 0.07488445 0.15035227 0.12380929 0.113882415 1.4011112 0.23028438
0.07939829 -0.8352282 0.06524374 -0.16990095 0.30130574 -0.36977032 0.012872375 -0.23571171
0.118920304 -0.8757312 0.026234785 0.14733277 0.1974156 -0.66523635 0.010871136 0.23277886
0.21975222 -0.7641849 0.16637857 0.45333168 0.108812205 -1.1036224 0.09205774 0.49662516
0.05241412 -0.35819653 0.051280994 -0.6493008 -0.29845008 -0.39830497 0.014396245 -0.5651575
0.3886514 -0.36472645 -0.03330493 -0.4695837 -0.22236888 -0.6016947 -0.031182293 -0.46863693
0.79285693 -0.1080097 0.12459949 0.56129766 -0.1375193 -1.0467348 0.08474042 0.57465065
00000000: 4d89 e43d 1a21 f13f 5aed 46bd 2e0a 1a3f
00000010: 2526 5e3e df8f 3bbf aa90 7cbd c8d0 1b3f
00000020: 3831 cc3e cbab 2740 a8ea 8b3d c2c3 b43e
00000030: b0bd a23c bed7 29bf 29f7 b93b 9c83 c43e
00000040: d68e 023f 42bf 0340 c89d cf3c 26d3 52bf
00000050: 63ae 01be 31bc 073f 3961 d7bc d8f8 6ebf
00000060: 8c3e 213d 1fa4 ca3e 389e d0bc 2604 a03e
00000070: 7e39 0fbe e030 39bf aa72 4f3c 625d 9a3e
00000080: 7cea 203e f271 063f 8ab1 6bbc 0378 cb3d
00000090: 5906 2abb 40e4 30bf 50f4 9abd e98f 913d
000000a0: 96ec 1e3e 02b8 f43e 8cb2 243d 2577 d4bd
000000b0: 5b99 663e 4b11 023f 1615 343d 2bba 08bd
000000c0: cea8 4e3f 2476 843f ebc9 163f fc8c 15be
000000d0: c1f0 313e 26e1 06bf 998d 033e c627 e0be
000000e0: fdca 13bd f91e 33bf 97cd d53d 7830 e2be
000000f0: 82a2 073d b0c5 4ebf 12e4 e5bd 8f08 e93e
00000100: 6080 633d 6839 39bf fc54 c8bd 7d7e f83e
00000110: 5721 213e 2e9c 1fbf 1c3b aa3d d950 023f
00000120: 3fa7 cd3c 9e6e 89bf 261f ac3d 7579 f23e
00000130: f21d 7ebc 8768 763b b019 a1be 9e23 c93e
00000140: 8785 0b3d e722 42bf ce1f a5be e00f c33e
00000150: d600 a4bd 4360 0c3e c50d dbbd 9922 0d3e
00000160: 6d20 9cbd 8cc3 2dbf 63dc 19be dc44 e13d
00000170: 82a9 aa3d ec76 173d a043 e8ba 42a9 1cbf
00000180: 7500 babc 3fe3 7ebf 05b6 713c bc9e 24bf
00000190: 248c 3dbf d07d 613e 711a 813e 8b0e ebba
000001a0: 783b 1d3f 1ae9 87bf 72c8 203d 1745 4c3e
000001b0: 63da 2dbf 85a3 9cbe 9c9c 943d 879d 5c3e
000001c0: 2e67 443f aaf1 52bf c5c9 dbbc 103d 453e
000001d0: fe26 f4be 255b 7ebe 8c80 1fbd 6671 623e
000001e0: 12c1 3c3f 19dc 19bf 34d3 2a3d d7a2 453d
000001f0: c1fe babe 8062 813e aaf4 753d ae5b db3c
00000200: e302 c53e 373c 0cbf e117 94bd 69ba bcbc
00000210: ede1 303f 9d5f a7be 0b58 1bbd 2aa2 913d
00000220: c018 193f 995d 27bf 5abb dbbc eee3 28bd
00000230: c8f9 043f 9b77 75be 2cc2 bebd b997 d4bd
00000240: de6e 4f3f 0b35 1cbf 0111 323d b893 b33e
00000250: 8dd3 bf3e 9bd0 5a3e 2d85 a0bc ea1b d93e
00000260: 69b1 a03f a0fd 643f b729 83be 99c2 413f
00000270: d115 5a3f f570 f23e 67e1 5f3c 5b59 35bc
00000280: ab52 a33e 5191 32bf 7af6 dcbc 178d e53b
00000290: 8dee 893f aa4f 253f 5702 0ebd 19ba 27bd
000002a0: d1f7 7b3e 13ee 81bf a6dd 08be cfbd dd3c
000002b0: 721c 8a3f 8af4 4f3f f627 7abc 7652 d53c
000002c0: 222b c83c d68e 63bf 78cc 13bd 63c5 5fbd
000002d0: ccd8 e4bd 6ce1 7d3e d9ef 4dbd e316 9ebd
000002e0: 6182 9bbe a918 42bf 525a f3bd 88dc 23be
000002f0: f0e7 19be c6f7 0d3e 483e 1d3d ab93 e3ba
00000300: 48ee 1bbe 8e25 76bf bf02 b3ba 81cd c33d
00000310: 6313 d73d 1fc2 af3e 951f 8c3d 9829 a03d
00000320: 4aca 3d3c 1048 73bf 055d 993d f2f5 193e
00000330: ba8f fd3d 2f3b e93d 9d57 b33f abcf 6b3e
00000340: 929b a23d 84d1 55bf 839e 853d 84fa 2dbe
00000350: bf44 9a3e 8952 bdbe a7e6 523c 695e 71be
00000360: 7d8c f33d ec2f 60bf 55ea d63c 67de 163e
00000370: 5127 4a3e ee4c 2abf d91c 323c 955d 6e3e
00000380: ba06 613e 9fa1 43bf 255f 2a3e 171b e83e
00000390: efd8 de3d 8043 8dbf c588 bc3d a745 fe3e
000003a0: 30b0 563d 8965 b7be 050c 523d 9438 26bf
000003b0: 73ce 98be a1ee cbbe 3ade 6b3c 29ae 10bf
000003c0: 51fd c63e 6dbd babe c06a 08bd 466d f0be
000003d0: abb4 63be aa08 1abf 0272 ffbc 2ef1 efbe
000003e0: acf8 4a3f 3134 ddbd 042e ff3d 34b1 0f3f
000003f0: dcd1 0cbe 68fb 85bf 638c ad3d 4e1c 133f

fc1.bias f4 [256]
-0.48858985 -0.29730564 -0.71880937 -0.44047612 -0.44724053 -0.7018903 -0.7017134 -1.5447675
-0.65596974 -0.6769992 -0.3210205 -0.67044544 -0.28936094 -0.3336599 -0.57034785 -0.18328993
-0.1550405 -0.65564346 -0.95466304 -0.618007 -0.16015676 0.001731432 -0.5043931 -0.33399165
-0.91935486 -0.66665995 -0.36141598 -1.1012434 -0.21824498 -0.46188593 -0.29974663 -0.4039567
-0.35020223 -0.52279925 -0.21578103 -0.8410148 -0.6102159 -0.7056835 -0.7891876 -0.1486683
-0.13525562 -0.18284012 0.05917649 -1.0344105 0.12534153 -0.6099979 -0.5735843 -0.23546547
-0.4816134 -0.3284757 -0.34401482 -0.30174005 -0.13753136 -0.6284836 0.03338671 0.083404094
-0.45984432 -0.38624138 -0.47940165 -0.55597645 -1.078458 -0.43694985 -0.19905655 -0.24818799
-0.21291497 -0.5593394 -0.38459498 -0.6635478 -0.38351873 -0.3368129 -0.37802348 -0.3849329
-0.36597732 -0.24960522 -0.5695763 -0.15519285 -0.5418516 -1.0633167 -0.31952038 -0.21066281
-0.34616917 0.28000504 -0.19991192 -0.2683244 -0.39359453 -1.5653566 -0.8472506 0.3848485
-0.33873674 -0.089814 -0.6402486 -0.9720376 -0.49445614 0.08110744 -0.2166658 -0.23216459
-0.52506113 -0.666285 -0.5316195 -0.057811003 -0.6830028 -0.79027504 -0.105871454 -0.84493154
-0.7165688 -0.41891217 0.037562978 -0.03882699 -0.64185506 -0.20545925 -0.3375475 -0.3071713
-0.3811542 -0.58261067 -0.41784143 -0.43837568 -0.8342491 -0.83461505 -0.1983414 0.23065238
-0.3863147 -0.21373114 -0.38498682 -0.4760582 -0.27066797 -0.6325729 -0.5018459 -0.58254135
-0.21864067 -0.60824734 -0.4392869 -0.27255568 -0.44792554 -0.4950422 0.33065942 -0.9787386
-0.69089323 -0.5467695 -0.24795341 -0.7331496 -0.6887533 -0.83814883 -0.45759547 -0.23573035
-0.5776255 -0.38326916 0.09286828 -0.13723026 -0.8998178 -0.524121 -0.21767361 -0.83856106
-0.50804317 -0.28829053 -0.74976873 -0.24173398 -0.43412358 -0.40080744 -0.23220946 -0.444401
-0.5687336 -0.5060368 -0.5476613 -0.49958298 -0.2978929 -0.47486535 -0.5390413 -0.2276218
0.000215422 -0.36267468 -0.1306172 -0.57662183 -0.44310743 -0.45741305 -0.6272986 -0.22627999
-0.49579313 -0.55027604 -0.36677653 -0.5544896 -0.23648472 -0.70395 -0.025172181 -2.4019978
-0.36214888 -0.35019028 0.2934944 -0.3047297 -0.13147193 -0.47804168 -0.23410238 -1.199384
-0.451191 -0.28985846 -0.21708061 0.044451658 -0.350965 -0.1263178 -0.3332376 -0.24072623
-0.5951053 -0.46522632 -0.6403062 -0.41236094 -0.11408599 0.63159835 -0.4741252 -0.24778357
0.043189954 -0.684153 -0.18802087 -0.47750437 -0.011337295 -0.7359554 -0.40032536 -0.35098788
-0.25815916 -0.65583986 -0.7002044 -0.009148611 -0.9382263 -0.71504635 -0.13053067 -0.10631767
0.108463645 0.22217321 -0.5016229 -0.19912907 -0.0063780183 -1.3363839 -0.6925097 -0.5832499
-0.04921382 -0.015564819 -0.81556296 -0.47295463 -0.40300533 -0.16199295 -0.81514984 -0.33322036
-0.61632866 -0.8193556 -0.33881754 -0.5044383 -0.43965822 -0.29254243 -0.78571206 -0.38061294
-1.3858907 -0.48360553 -0.53579843 -0.46368948 -0.15533984 -0.42330006 -0.7941656 -1.0632744
00000000: 7328 fabe 7238 98be e403 38bf 1686 e1be
00000010: b6fc e4be 15af 33bf 7da3 33bf f1ba c5bf
00000020: a2ed 27bf d24f 2dbf cd5c a4be 50a2 2bbf
00000030: 1e27 94be 78d5 aabe 5102 12bf 5bb0 3bbe
00000040: f0c2 1ebe 40d8 27bf cc64 74bf b535 1ebf
00000050: 2200 24be 38f1 e23a e81f 01bf f400 abbe
00000060: d75a 6bbf 3aaa 2abf 840b b9be 8bf5 8cbf
00000070: 9d7b 5fbe 507c ecbe 6478 99be 6ad3 cebe
00000080: b54d b3be 2cd6 05bf b4f5 5cbe bf4c 57bf
00000090: 1c37 1cbf ada7 34bf 3308 4abf 813c 18be
000000a0: 7380 0abe 713a 3bbe 0c63 723d 9067 84bf
000000b0: 8859 003e d328 1cbf 6cd6 12bf dc1d 71be
000000c0: 0896 f6be f82d a8be b622 b0be ac7d 9abe
000000d0: 05d5 0cbe 4de4 20bf 81c0 083d c4cf aa3d
000000e0: b770 ebbe 6ec1 c5be 2274 f5be 7954 0ebf
000000f0: e90a 8abf e4b7 dfbe 7bd5 4bbe fe24 7ebe
00000100: 6206 5abe de30 0fbf a2e9 c4be 45de 29bf
00000110: 915c c4be be72 acbe 4b8c c1be ed15 c5be
00000120: 6161 bbbe 8398 7fbe c1cf 11bf e0ea 1ebe
00000130: c9b6 0abf c31a 88bf 2d98 a3be feb7 57be
00000140: 163d b1be d25c 8f3e b6b5 4cbe d161 89be
00000150: 3985 c9be 9b5d c8bf 6ae5 58bf dd0a c53e
00000160: e76e adbe 67f0 b7bd 55e7 23bf 75d7 78bf
00000170: 5b29 fdbe a81b a63d a4dd 5dbe 8ebc 6dbe
00000180: 686a 06bf a791 2abf 3718 08bf 3bcb 6cbd
00000190: 46d9 2ebf 774f 4abf 22d3 d8bd 6f4d 58bf
000001a0: 0e71 37bf a87b d6be a3db 193d 0d09 1fbd
000001b0: 9d50 24bf e963 52be 07d3 acbe 8e45 9dbe
000001c0: a526 c3be f925 15bf 50ef d5be c772 e0be
000001d0: 5991 55bf 55a9 55bf 021a 4bbe 2330 6c3e
000001e0: 0acb c5be 56dc 5abe fe1c c5be e6bd f3be
000001f0: fe94 8abe 4cf0 21bf f978 00bf 6e21 15bf
00000200: 57e3 5fbe 19b6 1bbf 36ea e0be 6b8c 8bbe
00000210: 7f56 e5be 2c76 fdbe 314c a93e 9d8e 7abf
00000220: 61de 30bf 16f9 0bbf 80e7 7dbe b1af 3bbf
00000230: 2352 30bf ec90 56bf f449 eabe 4c63 71be
00000240: 44df 13bf db3b c4be ba31 be3d 1786 0cbe
00000250: 765a 66bf cb2c 06bf d5e5 5ebe f0ab 56bf
00000260: 1e0f 02bf d19a 93be d8f0 3fbf 1d89 77be
00000270: 7245 debe a236 cdbe 51c8 6dbe 8788 e3be
00000280: 8698 11bf a18b 01bf 8833 0cbf 57c9 ffbe
00000290: 6b85 98be 8d21 f3be 9cfe 09bf b015 69be
000002a0: e7e2 6139 7fb0 b9be 84c0 05be 7d9d 13bf
000002b0: fade e2be 0b32 eabe a496 20bf f1b5 67be
000002c0: 99d8 fdbe e4de 0cbf 22ca bbbe 08f3 0dbf
000002d0: 0d29 72be 1136 34bf e435 cebc 55ba 19c0
000002e0: 946b b9be 244c b3be e644 963e 8805 9cbe
000002f0: 94a0 06be e1c1 f4be 89b8 6fbe 6a85 99bf
00000300: 8202 e7be 5468 94be 614a 5ebe f112 363d
00000310: afb1 b3be 7459 01be 1e9e aabe f080 76be
00000320: d258 18bf 2532 eebe 1beb 23bf f920 d3be
00000330: eaa5 e9bd 6eb0 213f 8ac0 f2be faba 7dbe
00000340: f3e7 303d a724 2fbf 8b88 40be 747b f4be
00000350: 10c0 39bc 9367 3cbf 72f7 ccbe afb4 b3be
00000360: 702d 84be 1fe5 27bf 9840 33bf 0ee4 15bc
00000370: 992f 70bf 470d 37bf d5a9 05be 14bd d9bd
00000380: 3022 de3d 6081 633e 5c6a 00bf 7ee8 4bbe
00000390: b2fe d0bb a10e abbf 5148 31bf de4f 15bf
000003a0: 6e94 49bd 9503 7fbc bcc8 50bf 1c27 f2be
000003b0: b756 cebe 7be1 25be a9ad 50bf dc9b aabe
000003c0: b7c7 1dbf 4ac1 51bf 7e79 adbe de22 01bf
000003d0: e21a e1be 1fc8 95be 6d24 49bf b3df c2be
000003e0: de64 b1bf 259b f7be 162a 09bf b568 edbe
000003f0: 6811 1fbe c9ba d8be 704e 4bbf 6019 88bf

fc2.weight f4 [256, 256]
-0.09734109 0.0516178 0.0621122 -0.06760674 -0.03536312 0.019136848 -0.10898789 0.031627145
0.051561948 0.0073456857 -0.060770318 0.06472879 0.012864313 0.030792635 -0.055787697 0.061275277
-0.03191861 -0.14633292 -0.07697376 -0.08350447 -0.16973983 0.026896432 -0.067028314 0.056372892
-0.15372938 -0.05971004 -0.045483522 0.012121762 0.11844104 0.040847316 -0.04345965 -0.003568656
-0.16770232 -0.04796542 -0.17577071 -0.22176865 0.02659954 0.011590084 -0.03778345 -0.09449606
0.002176956 0.068379834 -0.040610347 -0.040824514 -0.021601282 -0.24292354 -0.018180037 0.18525337
0.13405849 0.027519597 0.20809422 -0.091897756 0.029334407 -0.12231228 0.16561724 -0.19909883
-0.01768025 -0.04421492 -0.030803116 -0.09917893 -0.072854444 0.04344885 0.0024509649 -0.040400118
0.22320513 0.022772053 0.043120723 -0.13467923 0.07860604 -0.18818223 -0.075687066 -0.040887933
-0.043543532 0.060684636 0.04472113 0.0105439 -0.11565687 0.08412748 -0.044463262 -0.06364321
0.028600702 -0.035338156 -0.0728637 -0.027229944 -0.022472931 -0.078740194 -0.0040595443 -0.12346959
0.061960444 -0.12975468 -0.048124474 0.086866796 -0.095856614 0.03219913 -0.14755233 -0.18731487
-0.007500396 -0.101964585 -0.009737185 0.007698493 -0.045721423 -0.025305977 0.008232231 -0.012882287
0.07407368 -0.020160021 -0.001979239 -0.30165395 -0.011061549 0.14908783 -0.008383379 0.026667403
0.05122709 -0.037313633 -0.09545845 -0.027578728 -0.1560378 0.06295527 0.051035233 0.0004461208
-0.0073629743 -0.0246208 -0.035161916 -0.048829712 -0.08944739 0.010225876 0.0031280983 -0.16245322
-0.12015723 -0.14873603 -0.06917845 0.06324337 -0.16941565 -0.095476605 -0.04533413 -0.23465547
0.05428465 -0.04836138 0.027011637 -0.024982298 -0.016059019 -0.052793182 -0.039642643 0.26096797
-0.111988954 -0.032102622 0.05398365 0.05170839 -0.025442922 -0.18104333 -0.124045186 -0.13624157
0.038687002 -0.18897279 -0.023451554 -0.15783434 0.026176227 -0.27188694 0.010164499 0.22617593
0.11439105 -0.06486691 0.026044285 0.0466932 -0.17297274 0.1317425 -0.04145381 -0.1429323
0.07729378 -0.061600573 0.0050011952 0.14252056 -0.07784663 -0.040883604 -0.011156702 0.02246647
0.1337839 -0.17884755 -0.16426711 -0.13754533 -0.1196868 0.031112958 -0.056595918 0.024693698
-0.16006422 0.010688727 -0.09721545 -0.029607583 0.040990144 0.006547348 -0.18486786 -0.052468725
0.014896532 -0.026230346 -0.061632704 -0.1282644 -0.103072666 0.043426543 -0.04777101 0.06062914
0.04076284 0.0045656497 -0.14314075 0.10471522 0.035114266 -0.15476023 -0.038372986 -0.15103982
-0.04792605 -0.04981222 -0.027472071 -0.17469954 0.08969505 -0.13348128 0.089533955 0.122277275
-0.044479728 0.019574957 -0.08622409 -0.080670156 -0.013987597 0.14387281 0.012137407 -0.018453429
-0.026950829 0.042720065 0.0086887935 -0.15958118 -0.095908046 -0.17895518 0.039419703 -0.0076428903
-0.14994308 0.09134481 -0.14329068 -0.38851058 0.073430024 0.09583321 0.10398088 -0.12622616
0.0685471 0.113622345 -0.12325383 -0.09478611 -0.04969111 -0.23493057 0.07607488 0.004438644
-0.13542376 -0.122275636 -0.017063322 0.12830546 -0.021931961 0.03811102 0.054744445 -0.018645192
00000000: c45a c7bd 306d 533d 5d69 7e3d 6775 8abd
00000010: ebd8 10bd e1c4 9c3c 0b35 dfbd 778b 013d
00000020: 9f32 533d 14b4 f03b 4cea 78bd 8790 843d
00000030: d7c4 523c d640 fc3c a481 64bd c9fb 7a3d
00000040: 17bd 02bd 4cd8 15be 6ba4 9dbd 6404 abbd
00000050: 47d0 2dbe e855 dc3c 2446 89bd 43e7 663d
00000060: 3c6b 1dbe 8492 74bd ee4c 3abd 5b9a 463c
00000070: 3791 f23d 844f 273d bf02 32bd 1de0 69bb
00000080: 28ba 2bbe 6377 44bd 3dfd 33be 5217 63be
00000090: 47e7 d93c 56e4 3d3c d2c2 1abd 2687 c1bd
000000a0: 43ab 0e3b ba0a 8c3d 0957 26bd 9b37 27bd
000000b0: 2cf5 b0bc f3c0 78be 4dee 94bc 0fb3 3d3e
000000c0: a146 093e c770 e13c a716 553e e434 bcbd
000000d0: b64e f03c dc7e fabd 9197 293e 90e0 4bbe
000000e0: 2cd6 90bc b41a 35bd d156 fcbc 531e cbbd
000000f0: b634 95bd 6cf7 313d 5ea0 203b 987a 25bd
00000100: e38f 643e 758c ba3c 5b9f 303d 5ae9 09be
00000110: 34fc a03d d8b2 40be d201 9bbd 1b7a 27bd
00000120: b45a 32bd 7490 783d 812d 373d 52c0 2c3c
00000130: 82dd ecbd 074b ac3d 1c1f 36bd 5f57 82bd
00000140: 054c ea3c bebe 10bd 9039 95bd 5511 dfbc
00000150: 2719 b8bc 8a42 a1bd ed05 85bb a0dd fcbd
00000160: 3cca 7d3d 69de 04be 2b1e 45bd 38e7 b13d
00000170: 7950 c4bd 3ce3 033d f517 17be 78cf 3fbe
00000180: e2c5 f5bb cfd2 d0bd b788 1fbc a443 fc3b
00000190: 6346 3bbd 7b4e cfbc 7be0 063c 3a10 53bc
000001a0: f1b3 973d a126 a5bc 1fb6 01bb 6372 9abe
000001b0: 803b 35bc 7baa 183e 715a 09bc 9975 da3c
000001c0: 7fd3 513d 2ed6 18bd b87f c3bd c9ec e1bc
000001d0: 5fc8 1fbe b1ee 803d 520a 513d 52e5 e939
000001e0: 1b45 f1bb 8fb1 c9bc f105 10bd aa01 48bd
000001f0: 3130 b7bd 6f8a 273c c800 4d3b 235a 26be
00000200: fe14 f6bd 424e 18be 6ead 8dbd bd85 813d
00000210: 4c7b 2dbe 3d89 c3bd 48b0 39bd 8649 70be
00000220: 9559 5e3d 9516 46bd 8247 dd3c ada7 ccbc
00000230: 348e 83bc aa3d 58bd 5360 22bd 989d 853e
00000240: 775a e5bd 0a7e 03bd f61d 5d3d 2dcc 533d
00000250: ad6d d0bc 6c63 39be 670b febd e982 0bbe
00000260: 4376 1e3d 1582 41be 791d c0bc 539f 21be
00000270: 876f d63c c434 8bbe 0089 263c aa9a 673e
00000280: db45 ea3d f1d8 84bd d35a d53c 5e41 3f3d
00000290: c41f 31be 82e7 063e 78cb 29bd d85c 12be
000002a0: 344c 9e3d e250 7cbd 11e1 a33b e9f0 113e
000002b0: 0e6e 9fbd 9175 27bd 9aca 36bc 9a0b b83c
000002c0: a6fe 083e d023 37be a335 28be afd8 0cbe
000002d0: 5a1e f5bd 9ae0 fe3c 1fd1 67bd 704a ca3c
000002e0: e0e7 23be c51f 2f3c e518 c7bd 9a8b f2bc
000002f0: 48e5 273d 238b d63b 004e 3dbe 72e9 56bd
00000300: 9510 743c 06e1 d6bc 9372 7cbd be57 03be
00000310: c317 d3bd 08e0 313d 89ab 43bd 4356 783d
00000320: f0f6 263d 729b 953b 7d93 12be ef74 d63d
00000330: fad3 0f3d 7779 1ebe fe2c 1dbd 2faa 1abe
00000340: 1b4e 44bd e607 4cbd 1c0d e1bc 70e4 32be
00000350: 0ab2 b73d 51af 08be 945d b73d 826c fa3d
00000360: 6030 36bd a95b a03c 4196 b0bd 6536 a5bd
00000370: 3c2c 65bc 6553 133e fadb 463c a52b 97bc
00000380: fcc7 dcbc 3cfb 2e3d 715b 0e3c 4069 23be
00000390: 706b c4bd 0740 37be 8e76 213d 3671 fabb
000003a0: ae8a 19be fd12 bb3d cbba 12be dcea c6be
000003b0: 7b62 963d 3444 c43d edf3 d43d 6e41 01be
000003c0: 6c62 8c3d d5b2 e83d 816c fcbd 381f c2bd
000003d0: e888 4bbd a491 70be 26cd 9b3d 0b72 913b
000003e0: 87ac 0abe a66b fabd 61c8 8bbc 8262 033e
000003f0: a8aa b3bc 4d1a 1c3d b63b 603d cdbd 98bc

fc2.bias f4 [256]
-0.18494615 -0.19141975 -0.105685405 -0.18816406 -0.16613592 -0.11990999 -0.2419204 -0.1420609
0.10429334 -0.12167644 -0.15812168 -0.15529867 -0.14869732 -0.1532009 -0.16277753 -0.10043487
-0.18209681 -0.122582935 -0.14473298 -0.1306619 -0.29878014 -0.18185163 -0.24854775 -0.101776265
-0.26822263 -0.22206745 -0.22616078 -0.24251662 -0.3099442 -0.21806166 -0.19859548 -0.19515441
-0.09837281 -0.1557273 -0.14468808 -0.19552457 -0.16413727 -0.18800633 -0.13892357 -0.04123696
-0.18299215 -0.082238555 -0.27893183 -0.12863782 -0.17705521 -0.18098457 -0.18776686 -0.25973994
-0.19358695 -0.22549427 -0.119302645 -0.1360057 -0.20284243 -0.19384682 -0.12851793 -0.32471555
-0.13535902 -0.14545181 -0.2299805 -0.18593328 -0.22164442 0.021559644 -0.11860479 -0.1478389
-0.19792414 -0.27665153 -0.114063345 -0.1120553 -0.10942229 -0.2558726 -0.17506887 -0.12267962
-0.1265279 -0.081445895 -0.1477544 -0.1652878 -0.15487601 -0.23944071 -0.15506402 -0.22779506
-0.16916063 -0.13190739 -0.21495096 -0.20518976 -0.27971485 -0.15553693 -0.114384584 -0.21244873
-0.15949893 -0.11588849 -0.13423224 -0.18669768 -0.19432561 -0.30620846 -0.25391078 -0.1664653
-0.17232881 -0.17073518 -0.17335936 -0.27879313 -0.16128045 -0.14971144 -0.25569388 -0.10027009
-0.29529747 -0.20773378 -0.2195103 -0.2595894 -0.12114441 -0.08666861 -0.23627707 -0.18358882
-0.25113168 0.015753038 -0.047927152 -0.28297514 -0.11162756 -0.26287422 -0.13608141 -0.1174404
-0.13892727 -0.24499914 -0.15293752 -0.14716838 -0.07969468 -0.2868759 -0.20999388 -0.19764361
-0.16522281 -0.09125557 -0.27289167 -0.12832625 -0.19923319 -0.18841162 -0.15587811 -0.18241827
-0.24373932 -0.22259323 -0.16152345 -0.12890802 -0.15479627 -0.17548932 -0.09527008 -0.2301694
-0.18721406 -0.09826942 -0.27875057 -0.11328871 -0.16164033 -0.19753124 -0.20819795 -0.19514081
-0.12763469 -0.43945596 -0.17769468 -0.13353266 -0.08476101 -0.2779555 -0.22166075 -0.1741133
-0.2763554 -0.10238845 -0.09861369 -0.14819625 -0.16400602 -0.07289889 -0.227741 -0.22322024
-0.19426382 -0.25566757 -0.1493613 -0.1551223 -0.07476039 -0.10821902 -0.09947035 -0.19150457
-0.23267372 -0.07498861 -0.17051518 -0.087828085 -0.12800288 -0.19468571 -0.25463727 -0.08078752
-0.17588231 -0.13481937 -0.212834 -0.19904451 -0.15073818 -0.222222 -0.18967137 -0.25371328
-0.12057178 -0.24492922 -0.09535258 -0.13062242 -0.19490883 -0.13484456 -0.35050562 -0.16024594
-0.24592723 -0.19424026 -0.16156207 -0.2310199 -0.27751747 -0.1710284 -0.10233718 -0.18711253
-0.2399933 -0.3058617 -0.19841388 -0.18034673 -0.10769802 -0.19028826 -0.22085409 -0.14174142
-0.17506216 -0.13561234 -0.15792936 -0.19927502 -0.18390936 -0.27347878 -0.15305394 -0.2558798
-0.06511937 -0.21885376 -0.24483436 -0.19123536 -0.100259274 -0.16838081 -0.13247946 -0.18342066
-0.10094012 -0.17647468 -0.21261728 -0.15216844 -0.2850202 -0.26572585 -0.21178326 -0.27789947
-0.103598304 -0.11801045 -0.14810102 -0.15236934 -0.16826236 -0.12149393 -0.12369183 -0.23093429
-0.29290766 -0.054123342 -0.21388482 0.00082203944 -0.08645106 -0.09581683 -0.19022118 -0.09806519
00000000: 8662 3dbe 8a03 44be 9771 d8bd 14ae 40be
00000010: 891f 2abe 5e93 f5bd fbb9 77be 6a78 11be
00000020: bf97 d53d 7f31 f9bd a6ea 21be 9d06 1fbe
00000030: 1c44 18be b2e0 1cbe 27af 26be ccb0 cdbd
00000040: 9677 3abe c30c fbbd e234 14be 3ccc 05be
00000050: b6f9 98be 5037 3abe 4d83 7ebe 1370 d0bd
00000060: 7a54 89be a665 63be b196 67be 4756 78be
00000070: 02b1 9ebe 8e4b 5fbe 9d5c 4bbe 8fd6 47be
00000080: af77 c9bd fa76 1fbe 1d29 14be 9837 48be
00000090: 9a13 28be bb84 40be fb41 0ebe 16e8 28bd
000000a0: 4b62 3bbe b06c a8bd 27d0 8ebe a2b9 03be
000000b0: f64d 35be 0554 39be f545 40be a2fc 84be
000000c0: a83b 46be f8e7 66be f254 f4bd 1445 0bbe
000000d0: edb5 4fbe c87f 46be 349a 03be 1e41 a6be
000000e0: 8e9b 0abe 52f1 14be 0280 6bbe 4b65 3ebe
000000f0: c1f6 62be da9d b03c 11e7 f2bd 1563 17be
00000100: a0ac 4abe 45a5 8dbe 0b9a e9bd 407d e5bd
00000110: cb18 e0bd bc01 83be 4145 33be 743f fbbd
00000120: 8890 01be 1bcd a6bd ee4c 17be 3441 29be
00000130: d197 1ebe f22f 75be 1ac9 1ebe 1c43 69be
00000140: 7238 2dbe bb12 07be 1b1c 5cbe 441d 52be
00000150: c936 8fbe 1345 1fbe 7742 eabd 298c 59be
00000160: b053 23be f256 edbd 2d74 09be ad2d 3fbe
00000170: 4bfd 46be 5bc7 9cbe 9800 82be e175 2abe
00000180: f776 30be 34d5 2ebe 1e85 31be f9bd 8ebe
00000190: b426 25be f54d 19be 4fea 82be 685a cdbd
000001a0: 3b31 97be 2ab8 54be 4fc7 60be e7e8 84be
000001b0: 8f1a f8bd 507f b1bd 9ef2 71be b5fe 3bbe
000001c0: 5594 80be 840c 813c 434f 44bd 1ee2 90be
000001d0: fd9c e4bd 7397 86be ed58 0bbe 9884 f0bd
000001e0: f342 0ebe 0ee1 7abe a79b 1cbe 4fb3 16be
000001f0: f736 a3bd 66e1 92be a308 57be 1663 4abe
00000200: 2b30 29be 33e4 babd 75b8 8bbe f567 03be
00000210: c903 4cbe faee 40be 839e 1fbe dbcb 3abe
00000220: cd96 79be 7bef 63be 6766 25be 7700 04be
00000230: ea82 1ebe 79b3 33be f61c c3bd 87b1 6bbe
00000240: 0bb5 3fbe 7a41 c9bd 65b8 8ebe e903 e8bd
00000250: 0b85 25be a145 4abe d831 55be fed2 47be
00000260: abb2 02be 5f00 e1be 98f5 35be c9bc 08be
00000270: 2e97 adbd 2f50 8ebe 09fb 62be c24a 32be
00000280: 747e 8dbe 09b1 d1bd f9f5 c9bd c2c0 17be
00000290: 32f1 27be 034c 95bd f034 69be d993 64be
000002a0: 18ed 46be dce6 82be 2bf2 18be 61d8 1ebe
000002b0: fa1b 99bd efa1 ddbd 1cb7 cbbd c619 44be
000002c0: 0542 6ebe a193 99bd 889b 2ebe 36df b3bd
000002d0: 3013 03be b15b 47be d15f 82be ed73 a5bd
000002e0: 7e1a 34be 170e 0abe 28f1 59be 53d2 4bbe
000002f0: 1c5b 1abe 2a8e 63be 3639 42be b5e6 81be
00000300: 56ee f6bd bace 7abe 3748 c3bd e2c1 05be
00000310: 2e96 47be b114 0abe 7975 b3be 8317 24be
00000320: 59d4 7bbe ebe6 46be 8770 25be 7b90 6cbe
00000330: c516 8ebe 1222 2fbe 2896 d1bd 6d9a 3fbe
00000340: cec0 75be e899 9cbe 022d 4bbe d0ac 38be
00000350: c890 dcbd edda 42be 9327 62be aa24 11be
00000360: 7f43 33be f6dd 0abe 3cb8 21be c00e 4cbe
00000370: bc52 3cbe 6905 8cbe 2cba 1cbe ad02 83be
00000380: 4e5d 85bd 331b 60be dcb5 7abe 34d3 43be
00000390: bc54 cdbd 056c 2cbe b2a8 07be a0d2 3bbe
000003a0: b2b9 cebd c7b5 34be 58b8 59be 0bd2 1bbe
000003b0: 2bee 91be 380d 88be b6dd 58be d748 8ebe
000003c0: 592b d4bd 76af f1bd cba7 17be b506 1cbe
000003d0: f84c 2cbe cfd1 f8bd 2452 fdbd 0a7a 6cbe
000003e0: fef7 95be 70b0 5dbd 9f04 5bbe 227e 573a
000003f0: 410d b1bd 9d3b c4bd 57c9 42be 67d6 c8bd

fc3.weight f4 [1, 256]
0.013541081 -0.0060703717 -0.0135850785 0.002856203 0.0017339011 0.017480856 0.019341614 0.003950755
0.030543633 -0.01809797 0.010082584 0.0023234852 0.007042726 0.022853328 -0.0011795913 0.0032336807
0.012725213 -0.014471027 0.014772903 0.005552504 0.015468048 0.0060120923 -0.018586092 0.013781006
0.004049236 0.024097266 -0.05753728 0.0052008894 -0.027410457 -0.0023070017 -0.0015968757 -0.006059171
-0.010334702 -0.02075127 0.0035464917 -0.022417527 -0.00053791323 -0.013405416 -0.008104855 0.016111141
0.023655195 -0.01987198 -0.002110617 0.01796195 0.0030582657 -0.0022713724 0.015175988 -0.027264275
0.005158815 0.019845147 -0.08310275 0.061620947 0.023328656 -0.024095967 -0.0038096253 -0.06670828
-0.07246418 0.017196892 -0.021421108 0.02323844 0.008151925 -0.06252453 -0.0030322282 0.0021196872
0.05225454 0.019870583 0.0031742027 0.00030982454 -0.0042162878 -0.019654566 0.017696073 -0.018472018
0.020405553 -0.009125534 -0.003407806 -0.0029918482 -0.0045795124 -0.009558947 -0.021529196 0.022121446
-0.011422838 0.011976504 0.02041171 -0.0082748905 -0.06599559 -0.048680507 0.0052466937 0.022679444
0.028841991 0.009103592 -0.0140122315 0.0078093675 0.009488835 0.00679006 -0.041753236 -0.027123235
-0.0064984644 0.014249729 0.01974526 -0.003021927 -0.012921322 0.007279478 0.01701392 0.019673798
0.014803545 -0.013862692 -0.07671656 -0.047952246 0.0052787974 0.00060575985 0.087643445 0.009103616
-0.016090123 0.02856891 0.017582461 -0.026651336 0.015858747 -0.016288288 0.013421114 0.01834276
-0.028350236 -0.008987125 0.015436165 0.02593467 0.015142281 -0.010485155 0.026571715 -0.029840494
-0.01915104 -0.023783434 0.0053198226 -0.01643237 -0.05111398 0.0067988606 -0.0026829427 -0.025569284
-0.015855817 0.028364476 0.018045317 -0.009968554 -0.010245306 0.0067903996 0.063855104 0.23541196
-0.0009929886 0.0030191757 -0.022279318 -0.021320203 -0.004575537 0.02662163 -0.051908795 -0.014871764
0.0034263518 0.020834548 0.0060691996 -0.009171255 0.0034393368 -0.06356368 0.0032118743 -0.01091758
0.0055499286 0.020688124 0.03736523 -0.0024838587 -0.022878269 0.00047350067 0.008405861 0.02557709
0.011916491 -0.0030031658 -0.027163565 0.0142293535 0.017202914 0.0039495216 0.026056096 0.003138446
-0.01030554 -0.0009808735 -0.010844788 0.021984855 0.0034936422 -0.023464026 -0.007312264 -0.012783247
-9.542414e-05 0.015596688 -0.013572064 -0.0055673015 -0.038289078 0.012410893 0.02097054 -0.008509957
-0.02226776 -0.009108017 0.009015512 0.06926037 -0.011950388 -0.011362789 -0.056971923 0.013112551
-0.051881008 0.004863818 0.011749207 -0.013401578 0.0073146215 0.0035447632 0.021530135 0.005054016
0.0016440153 -0.09165479 0.012606252 0.028491974 0.03405114 0.058470916 -0.023330608 0.016490113
-0.0022197946 0.0256571 0.022006273 -0.014557744 0.016031504 -0.006131636 -0.0062178685 -0.01827498
0.008855305 0.030026335 -0.097151004 -0.018624185 0.07276099 -0.006560758 0.0029506963 -0.0068211854
0.018827224 -0.0012461804 -0.011472257 -7.4620343e-06 0.020971287 0.0037198244 -0.0116474535 -0.084656574
0.008863432 0.04274951 0.0075242263 0.022258382 0.017891873 0.014518728 -0.08041763 0.018472558
0.019005708 -0.0070484024 -0.013254901 0.06925635 0.002973491 -0.14891063 0.018252095 -0.0071857655
00000000: 69db 5d3c f8e9 c6bb f393 5ebc 222f 3b3b
00000010: 1144 e33a 0334 8f3c 4e72 9e3c 5675 813b
00000020: a436 fa3c 3242 94bc 6c31 253c 9d45 183b
00000030: abc6 e63b e736 bb3c 849c 9aba 29ec 533b
00000040: 697d 503c e317 6dbc 0c0a 723c c8f1 b53b
00000050: b26d 7d3c 1601 c53b dc41 98bc bbc9 613c
00000060: 74af 843b a167 c53c 36ac 6bbd 396c aa3b
00000070: e58b e0bc 1131 17bb 424e d1ba 038c c6bb
00000080: e252 29bc 91fe a9bc 426c 683b f6a4 b7bc
00000090: bf02 0dba 64a2 5bbc 3aca 04bc 83fb 833c
000000a0: 8ac8 c13c 90ca a2bc 4752 0abb f024 933c
000000b0: 2f6d 483b 4edb 14bb b5a4 783c 5459 dfbc
000000c0: 470b a93b 4a92 a23c c631 aabd 3f66 7c3d
000000d0: bd1b bf3c e864 c5bc e8aa 79bb 5a9e 88bd
000000e0: 1a68 94bd 7fe0 8c3c 527b afbc 8a5e be3c
000000f0: a78f 053c dc0c 80bd 59b8 46bb 73ea 0a3b
00000100: db08 563d a2c7 a23c 4906 503b f26f a239
00000110: c928 8abb 9d02 a1bc 5bf7 903c a152 97bc
00000120: 8c29 a73c 4483 15bc 7f55 5fbb e212 44bb
00000130: bc0f 96bb 219d 1cbc ff5d b0bc 0938 b53c
00000140: db26 3bbc 1939 443c 7536 a73c 6893 07bc
00000150: b228 87bd 3665 47bd 75ec ab3b 3eca b93c
00000160: 0a46 ec3c 3b27 153c 8f93 65bc b9e5 ff3b
00000170: 0f77 1b3c 277f de3b 7105 2bbd 8c31 debc
00000180: 12f1 d4bb b277 693c d0c0 a13c 860b 46bb
00000190: f4b3 53bc b088 ee3b c760 8b3c f22a a13c
000001a0: 918a 723c 5820 63bc 921d 9dbd 9369 44bd
000001b0: c3f9 ac3b dbcb 1e3a 687e b33d 5527 153c
000001c0: 6fcf 83bc 5909 ea3c 1809 903c e753 dabc
000001d0: 34ea 813c 046f 85bc 3be4 5b3c 8e43 963c
000001e0: c13e e8bc bc3e 13bc f8e7 7c3c f274 d43c
000001f0: 5417 783c edc9 2bbc edac d93c 0d74 f4bc
00000200: a4e2 9cbc 7ad5 c2bc e851 ae3b 2d9d 86bc
00000210: e55c 51bd fac8 de3b 4fd4 2fbb ad76 d1bc
00000220: 0fe4 81bc 9e5c e83c c6d3 933c 2553 23bc
00000230: eedb 27bc 0082 de3b 77c6 823d d50f 713e
00000240: 2b27 82ba 5ddd 453b 1e83 b6bc b5a7 aebc
00000250: 63ee 95bb 9b15 da3c 519e 54bd b3a8 73bc
00000260: a58c 603b 37ad aa3c 23e0 c63b 0843 16bc
00000270: 7f66 613b ad2d 82bd 4f7e 523b a6df 32bc
00000280: 2ddc b53b 247a a93c 490c 193d 3cc8 22bb
00000290: 356b bbbc 2f40 f839 bdb8 093c 0c87 d13c
000002a0: 633d 433c c3d0 44bb 2086 debc 3c22 693c
000002b0: 20ed 8c3c fd6a 813b 9873 d53c 63ae 4d3b
000002c0: 91d8 28bc a790 80ba 56ae 31bc 9519 b43c
000002d0: 97f5 643b a137 c0bc b79b efbb d370 51bc
000002e0: 721e c8b8 4089 7f3c 5d5d 5ebc e96d b6bb
000002f0: 02d5 1cbd 0f57 4b3c 69ca ab3c 596d 0bbc
00000300: e16a b6bc cb39 15bc ccb5 133c 62d8 8d3d
00000310: 8fcb 43bc fe2a 3abc 645b 69bd 06d6 563c
00000320: 2e81 54bd aa60 9f3b bf7f 403c 4b92 5bbc
00000330: 7eaf ef3b 424f 683b f75f b03c 299c a53b
00000340: 007c d73a 82b5 bbbd 748a 4e3c 0068 e93c
00000350: 3579 0b3d 337f 6f3d d51f bfbc 4616 873c
00000360: f979 11bb d72e d23c 8046 b43c 9b83 6ebc
00000370: 8054 833c e4eb c8bb 43bf cbbb 69b5 95bc
00000380: d715 113c caf9 f53c 1bf7 c6bd bf91 98bc
00000390: b703 953d a1fb d6bb 7860 413b 4084 dfbb
000003a0: 8d3b 9a3c e056 a3ba 22f6 3bbc 6362 fab6
000003b0: facb ab3c 4cc8 733b f6d4 3ebc 6d60 adbd
000003c0: ee37 113c 1c1a 2f3d c98d f63b 3657 b63c
000003d0: fa91 923c f5df 6d3c 00b2 a4bd c353 973c
000003e0: dcb1 9b3c 49f6 e6bb 162b 59bc 46d6 8d3d
000003f0: e7de 423b 077c 18be 6b85 953c 9276 ebbb

bn1.weight f4 [256]
0.36777303 0.098999105 0.4401573 -0.23915917 0.08743857 0.28283098 0.16949378 0.5685335
0.10482187 0.2574161 0.06502779 0.19137734 0.033144496 0.1595872 -0.014414811 0.3065881
0.07256289 0.096068114 0.21961397 0.2571365 0.30293602 0.20803276 0.18969098 0.30720773
0.12008737 0.3150561 0.20182161 0.5078152 0.009628519 0.20998636 0.20742728 -0.04366733
0.18088473 0.17958131 0.13679795 -0.09722073 0.27587172 0.1634771 0.59654826 0.32611772
0.181386 0.5036463 0.37354478 0.48916104 0.179123 0.19572958 -0.12602535 0.16149564
-0.024042506 0.029571481 0.32353953 0.27761626 0.23511519 0.2550591 0.709882 0.05476891
0.5150161 0.17614108 0.1750516 0.064511165 0.19003944 0.11599062 0.17508847 0.10839674
-0.11781939 -0.07986123 0.078393444 0.16334268 0.12902564 0.11703216 0.3113315 0.08660466
0.19063398 0.19436726 0.10545356 0.099264845 0.13786273 0.1641309 -0.123221725 0.30375946
0.25395763 0.54927665 0.17762367 0.21333638 0.5033234 0.17726734 0.32135993 0.43707523
0.17088139 0.34496737 0.097975336 0.1298882 0.123178616 0.15084878 0.112778865 0.071749166
0.08865662 0.10095209 0.061766922 0.29951584 0.14750803 0.24119847 0.07724932 0.054044545
0.099770844 0.06372034 0.24504893 0.053280674 0.1636096 0.17672049 0.2282406 0.035880398
0.12255875 0.29084817 0.1356419 0.4331258 0.13478285 0.35807115 0.33537495 0.7306109
0.11996294 0.24716736 0.03519906 0.010039338 0.1808842 0.32642934 0.05911009 0.46568802
0.08127732 0.23090008 0.13368918 -0.13260621 0.10777835 0.43712762 0.17042968 0.17473698
-0.0023579232 0.073824175 0.31398168 0.4130426 0.21182764 0.26644626 0.16497271 0.09349368
0.23473783 0.1574089 0.83404 0.14185636 0.53361875 0.16572224 -0.0008445168 0.12185194
0.14254586 -0.072224475 0.10396397 0.39741856 0.026385019 0.18771647 0.12996848 0.053697962
0.1381708 0.11376541 0.08725204 0.30321574 0.67476416 0.16948763 0.051336244 1.2692527
0.5292846 -0.16108109 0.25484973 0.077308275 0.028060792 0.09666208 0.014912947 0.19395806
0.1703116 0.26123303 0.24722752 -0.020651741 0.15154423 0.22066425 0.14797868 0.47166774
0.49867624 0.23733109 0.21329352 0.095792815 0.2832193 0.16773528 -0.16074197 0.3994671
0.21623424 0.09979959 0.1459918 0.30018827 -0.14683434 0.5355025 0.21774401 -0.28314424
0.12052315 0.2144995 0.16268316 0.10598983 0.3980791 0.22502667 0.14316718 0.664938
0.0006407818 0.050095867 0.1952442 0.080535136 0.78719354 0.07549754 0.16791674 0.09625628
0.15600866 0.22791533 0.07216292 0.18410838 0.13112406 0.24615964 0.20177525 0.08230192
0.17140554 0.33727044 0.16184266 0.09009053 0.49190828 0.5064903 0.15277578 0.31688297
0.33240423 0.16038106 0.40444162 1.002691 0.17322962 -0.13870001 0.31713977 0.22534853
0.060693275 0.2028595 0.008744838 0.21097445 0.12226331 0.10544966 0.037394337 0.26613206
0.3681978 0.15603699 0.14246471 0.33735105 0.16284448 0.15609367 0.17204699 0.19474542
00000000: bf4c bc3e 0bc0 ca3d 4c5c e13e 24e6 74be
00000010: fe12 b33d 39cf 903e c78f 2d3e 698b 113f
00000020: d9ac d63d 0bcc 833e 4a2d 853d 6cf8 433e
00000030: 86c2 073d d46a 233e 192c 6cbc 1ef9 9c3e
00000040: da9b 943d 5cbf c43d 7ce2 603e 65a7 833e
00000050: 6e1a 9b3e 8a06 553e 5a3e 423e 554a 9d3e
00000060: 5ef0 f53d 084f a13e 53aa 4e3e 2d00 023f
00000070: f0c0 1d3c aa06 573e d167 543e 84dc 32bd
00000080: d939 393e 2ae4 373e c314 0c3e a91b c7bd
00000090: 0f3f 8d3e 8a66 273e 63b7 183f e7f8 a63e
000000a0: 40bd 393e f7ee 003f 4341 bf3e 5173 fa3e
000000b0: 056c 373e 566d 483e ca0c 01be 1d5f 253e
000000c0: caf4 c4bc e43f f23c f9a6 a53e b823 8e3e
000000d0: 09c2 703e 1b97 823e d4ba 353f 5d55 603d
000000e0: 18d8 033f 545e 343e ba40 333e 6e1e 843d
000000f0: b399 423e 7d8c ed3d 644a 333e 1cff dd3d
00000100: 4b4b f1bd 498e a3bd be8c a03d 4e43 273e
00000110: 4c1f 043e 8fae ef3d d866 9f3e c95d b13d
00000120: 8e35 433e 3608 473e 09f8 d73d 5e4b cb3d
00000130: e32b 0d3e ee11 283e ac5b fcbd 5c86 9b3e
00000140: bc06 823e 659d 0c3f fbe2 353e da74 5a3e
00000150: cdd9 003f 9285 353e 4a89 a43e 53c8 df3e
00000160: 88fb 2e3e 909f b03e 4ba7 c83d 6a01 053e
00000170: 1245 fc3d 1a78 1a3e 9bf8 e63d 3af1 923d
00000180: 9a91 b53d f8bf ce3d 50ff 7c3d 245a 993e
00000190: 580c 173e bbfc 763e e434 9e3d d05d 5d3d
000001a0: a854 cc3d cf7f 823d 1bee 7a3e d63c 5a3d
000001b0: 4689 273e 37f6 343e e7b7 693e 53f7 123d
000001c0: 1500 fb3d 0dea 943e b6e5 0a3e aac2 dd3e
000001d0: 8404 0a3e 1a55 b73e 44b6 ab3e 5109 3b3f
000001e0: 21af f53d 7119 7d3e e42c 103d 097c 243c
000001f0: b539 393e bf21 a73e 6c1d 723d a96e ee3e
00000200: b974 a63d 1271 6c3e d1e5 083e ecc9 07be
00000210: e5ba dc3d 31cf df3e 1e85 2e3e 40ee 323e
00000220: 6387 1abb 2131 973d 35c2 a03e 527a d33e
00000230: 58e9 583e a56b 883e 9bee 283e 9d79 bf3d
00000240: 1d5f 703e cc2f 213e a583 553f cb42 113e
00000250: 3d9b 083f 17b3 293e 9062 5dba 838d f93d
00000260: 8bf7 113e 6dea 93bd 10eb d43d 727a cb3e
00000270: 6525 d83c bf38 403e 7516 053e 65f2 5b3d
00000280: a57c 0d3e d7fd e83d 33b1 b23d 183f 9b3e
00000290: 58bd 2c3f 2a8e 2d3e f445 523d df76 a23f
000002a0: 327f 073f 71f2 24be aa7b 823e cd53 9e3d
000002b0: bfdf e53c c5f6 c53d 6f55 743c f19c 463e
000002c0: 2a66 2e3e 56c0 853e 3629 7d3e d72d a9bc
000002d0: 692e 1b3e cff5 613e b987 173e 6f7e f13e
000002e0: 7e52 ff3e ec06 733e 9e69 5a3e 062f c43d
000002f0: 1f02 913e ccc2 2b3e 8b99 24be f486 cc3e
00000300: 826c 5d3e ba63 cc3d e07e 153e 47b2 993e
00000310: be5b 16be b116 093f 49f8 5e3e 48f8 90be
00000320: d7d4 f63d c2a5 5b3e 6a96 263e 3211 d93d
00000330: 06d1 cb3e 646d 663e 6b9a 123e 6039 2a3f
00000340: 23fa 273a 5331 4d3d 18ee 473e 9bef a43d
00000350: 8485 493f 749e 9a3d 5ef2 2b3e 0322 c53d
00000360: bcc0 1f3e a362 693e 27ca 933d e886 3c3e
00000370: 6345 063e 4611 7c3e 2c9e 4e3e e98d a83d
00000380: ef84 2f3e b6ae ac3e 15ba 253e 6281 b83d
00000390: 67db fb3e 59a9 013f 4171 1c3e 7c3e a23e
000003a0: e330 aa3e ef3a 243e f912 cf3e 2e58 803f
000003b0: 1b63 313e 6007 0ebe 2560 a23e c4c1 663e
000003c0: 8399 783d 67ba 4f3e 8246 0f3c b009 583e
000003d0: 3065 fa3d fef5 d73d ce2a 193d 7642 883e
000003e0: 6c84 bc3e 29c8 1f3e 45e2 113e 47b9 ac3e
000003f0: b4c0 263e 05d7 1f3e 162d 303e 586b 473e

bn1.bias f4 [256]
0.16343227 0.0067369086 0.15844066 -0.030254519 0.052438553 0.10011669 0.043308474 0.022637252
0.03238816 -0.005207197 0.007257898 0.07173324 0.044055462 0.06092417 0.004079662 0.1068797
0.019745922 0.031529233 0.10126647 0.058891103 0.26314917 0.13303426 0.03353404 0.13604431
0.119867764 0.07929555 0.1587717 0.17073162 -0.0050095534 0.0010437157 0.028234283 0.0009479249
0.06936607 -0.0012680363 0.14424287 0.16529532 0.05619916 0.057534423 0.19320846 0.1639502
0.088104635 0.15823577 0.14934297 0.1038384 0.05918883 0.19396935 -0.010124105 0.038709078
-0.1419552 0.018078428 -0.12913856 0.111067414 0.17624374 0.1246623 -0.07748188 0.100287154
0.31451944 0.06306798 -0.042911034 0.017743532 0.0016065337 -0.011850682 0.099243626 -0.002374236
-0.07871634 -0.033891536 0.051865116 0.030184427 0.05560648 0.061662216 0.20372917 -0.017251965
0.023299195 0.019571831 0.079369344 0.03537775 0.03841526 0.03775367 0.00030004562 0.03504707
0.19328764 0.1821929 -0.01748885 0.04640144 0.31469706 0.065772966 0.059265047 0.11779095
0.025696198 0.1974895 0.01469446 0.059934407 0.028140305 0.06773201 0.10197846 0.06017081
0.011262004 0.030076358 -0.018706074 0.05398932 0.09089849 0.11486626 0.02987362 0.016767977
-0.0012680636 0.00054401834 0.065890335 0.041034438 0.062348716 0.0123703275 0.05050962 0.018478455
-0.010017442 0.07178133 0.009775755 0.18734017 0.05700037 0.07952094 0.041994274 0.35476258
0.030348806 0.08570636 0.024394335 0.011769684 0.036463078 0.21283495 0.016107291 0.17413345
0.026363013 0.026386939 0.017609272 -0.019813847 0.06047291 0.27031618 0.062315878 0.03416479
-0.0028933836 0.005084564 0.07777961 0.101311825 0.07743204 0.0660768 0.021729229 -0.21623519
0.124073945 0.051656824 0.40140286 0.062407516 0.19317435 0.075235896 0.0016159698 0.055290833
0.006352023 0.17632917 -0.029632695 0.08104474 0.0030948927 0.1347812 0.091648854 -0.13662237
0.03621908 0.0016886553 0.046144515 0.085007735 0.42297584 0.09799678 0.006530526 0.24306624
0.13106216 -0.015783582 0.19464946 0.030976987 0.018531304 0.032887466 0.048387762 0.061804503
0.04402898 0.061698288 0.1074546 0.11612578 0.027094152 0.03123208 0.10526797 -0.16222934
0.056426965 0.06861854 0.26186293 0.015773704 0.061934646 0.07926335 -0.003762146 0.101531275
0.058167424 0.041396223 0.0696614 0.11222011 -0.029766874 0.069215216 0.082616866 -0.07583965
0.070342675 0.039994966 0.023906821 0.03391545 0.21527629 0.11676146 0.028686928 0.362585
0.002912047 0.015472258 0.100694194 0.021317443 0.0039095585 0.02922413 0.03662562 0.014514266
0.023516996 0.07005959 0.0075436956 0.023720725 0.04887448 0.085850745 0.08686751 0.0026894098
0.06974037 -0.0016405417 0.11666839 0.07345414 0.35911518 0.16095632 0.11873835 0.08394652
0.12845299 0.07294965 0.09290479 0.31396994 0.03858871 -0.04145573 0.08217784 0.036843333
0.019672032 0.079432756 0.023030112 0.026387027 0.012858553 0.13044472 0.0045904093 -0.051709544
0.24272014 0.04468821 -0.05237137 -0.010607394 0.038527656 0.05584262 0.12475914 0.020177187
00000000: ca5a 273e 49c1 dc3b 453e 223e 53d8 f7bc
00000010: cfc9 563d fb09 cd3d 3a64 313d c271 b93c
00000020: 72a9 043d 22a1 aabb a9d3 ed3b e0e8 923d
00000030: 8073 343d 9f8b 793d afae 853b bfe3 da3d
00000040: 33c2 a13c cc24 013d cc64 cf3d cc37 713d
00000050: 7dbb 863e 223a 083e fd5a 093d 334f 0b3e
00000060: 3b7d f53d b565 a23d 0c95 223e 45d4 2e3e
00000070: 2e27 a4bb 4acd 883a 954b e73c 2a7e 783a
00000080: cc0f 8e3d 3d34 a6ba 67b4 133e 2d43 293e
00000090: 1731 663d 37a9 6b3d 70d8 453e 90e2 273e
000000a0: 3470 b43d 8f08 223e 5ded 183e 3aa9 d43d
000000b0: fd6f 723d e79f 463e 93df 25bc 698d 1e3d
000000c0: b45c 11be 3619 943c e63c 04be 5077 e33d
000000d0: 3d79 343e f34e ff3d d2ae 9ebd 5a63 cd3d
000000e0: b108 a13e c929 813d 7bc3 2fbd e25a 913c
000000f0: 5392 d23a 5d29 42bc 3e40 cb3d 1299 1bbb
00000100: 0836 a1bd dad1 0abd 8470 543d 5545 f73c
00000110: 9fc3 633d 8591 7c3d 619e 503e fe53 8dbc
00000120: f4dd be3c 1b55 a03c 658c a23d 42e8 103d
00000130: 5259 1d3d 98a3 1a3d 714f 9d39 848d 0f3d
00000140: 32ed 453e c790 3a3e c744 8fbc 700f 3e3d
00000150: f91f a13e fab3 863d e8bf 723d 623c f13d
00000160: d580 d23c b03a 4a3e 08c1 703c c87d 753d
00000170: 7f86 e63c 14b7 8a3d 15da d03d ab75 763d
00000180: 4584 383c b262 f63c 7b3d 99bc e823 5d3d
00000190: fd28 ba3d 003f eb3d 86b9 f43c ff5c 893c
000001a0: 2735 a6ba 749c 0e3a 83f1 863d ba13 283d
000001b0: 5e61 7f3d eaac 4a3c 2de3 4e3d 2160 973c
000001c0: 3220 24bc 1702 933d 7d2a 203c 1ad6 3f3e
000001d0: 3879 693d e0db a23d 3002 2c3d 71a3 b53e
000001e0: 0f9e f83c d186 af3d a1d6 c73c a2d5 403c
000001f0: 4f5a 153d 68f1 593e 70f3 833c 0a50 323e
00000200: 3ff7 d73c 6c29 d83c 5241 903c a650 a2bc
00000210: 71b2 773d e266 8a3e ef3e 7f3d 61f0 0b3d
00000220: ec9e 3dbb 6a9c a63b eb4a 9f3d 937c cf3d
00000230: b094 9e3d 4653 873d 7f01 b23c c26c 5dbe
00000240: 7b1a fe3d 1b96 533d ad84 cd3e 069f 7f3d
00000250: 7fcf 453e 4715 9a3d f3ce d33a a478 623d
00000260: a224 d03b a28f 343e 44c0 f2bc c9fa a53d
00000270: afd3 4a3b 1504 0a3e 65b2 bb3d bce6 0bbe
00000280: 755a 143d df55 dd3a 0802 3d3d 8918 ae3d
00000290: 4a90 d83e 89b2 c83d 06fe d53b 5be6 783e
000002a0: 2935 063e 924c 81bc 3052 473e 73c3 fd3c
000002b0: f6ce 973c 02b5 063d 3f32 463d b826 7d3d
000002c0: bb57 343d 58b7 7c3d 2811 dc3d 5ad3 ed3d
000002d0: 8ef4 dd3c 6bda ff3c bc96 d73d 731f 26be
000002e0: f61f 673d e187 8c3d e612 863e db37 813c
000002f0: 2faf 7d3d d354 a23d 568e 76bb a1ef cf3d
00000300: f740 6e3d 168f 293d a3aa 8e3d a8d3 e53d
00000310: a9d9 f3bc b5c0 8d3d 0833 a93d d251 9bbd
00000320: d20f 903d c3d1 233d 3dd8 c33c edea 0a3d
00000330: 6371 5c3e a220 ef3d d900 eb3c bea4 b93e
00000340: 0bd8 3e3b 5b7f 7d3c c238 ce3d eba1 ae3c
00000350: c11b 803b 7167 ef3c bf04 163d 3ecd 6d3c
00000360: b7a6 c03c 677b 8f3d 1b31 f73b f751 c23c
00000370: 9b30 483d 84d2 af3d 98e7 b13d cf40 303b
00000380: 0ad4 8e3d 7207 d7ba d6ef ee3d 206f 963d
00000390: f2dd b73e bcd1 243e 182d f33d 27ec ab3d
000003a0: 2e89 033e a066 953d de44 be3d abc0 a03e
000003b0: 320f 1e3d 7ccd 29bd db4c a83d 09e9 163d
000003c0: 3e27 a13c a4ad a23d a5a9 bc3c 9b29 d83c
000003d0: aeac 523c 4d93 053e 256b 963b 63cd 53bd
000003e0: a18b 783e fc0a 373d 5d83 56bd a3ca 2dbc
000003f0: 2dcf 1d3d 3bbb 643d b881 ff3d a14a a53c

bn1.running_mean f4 [256]
0.46051097 1.7335389 0.6680493 0.0015359729 0.54350185 1.216938 1.0655388 28.252691
0.7371418 0.70873106 17.273998 1.0908343 7.5099297 4.438051 0.51255065 1.5345964
3.5716434 0.8101458 1.6609972 0.5233201 9.723484 9.6129465 1.8999254 4.8196917
3.2268503 0.5883609 18.683506 4.077846 2.4178517 0.9373887 0.4454727 6e-45
3.1540456 0.047745403 22.582378 0.21880023 0.21212725 0.7396073 0.7385686 5.31664
2.521655 13.80768 15.930869 0.24741918 0.40261927 18.26462 0.14183083 0.44646186
1.0172193 0.3467912 16.594803 0.7359562 8.313726 2.4838772 25.454035 18.156254
17.602676 2.008515 6.554876 0.37014806 0.41387096 4.9343557 3.6776607 6e-45
3.042351 2.5487902 5.4053855 1.6403486 7.1567245 3.0808716 9.577431 0.42351145
8.190978 0.47508892 5.1403537 3.7423491 0.97977865 1.8594143 1.2983804 0.02407213
11.835229 1.5319935 4.2689476 0.80077845 15.89369 9.960123 0.74001473 0.92250824
0.10132383 8.708453 0.35779288 3.4528346 0.55718297 0.52416134 0.63273793 13.197576
0.5755411 0.3034758 0.8533087 0.406949 1.2169821 0.96397585 2.8029885 1.4729087
0.1302437 6e-45 2.046578 21.105286 0.7902617 1.0299598 1.5770183 6.481155
0.69617885 0.770107 2.051192 1.4827117 1.9654708 0.25580853 0.3887869 37.950497
0.8558272 0.14906402 1.8761656 0.21070291 1.0868402 4.719227 0.12282393 0.9826061
2.216474 0.0062934724 0.19928522 1.168277 5.9862394 21.880299 7.3156095 7.951514
0.0033514895 0.6903212 0.9453843 0.49056882 2.357947 1.4098363 0.382352 5.0823803
7.122941 4.910379 20.47222 3.1550894 1.6848643 5.1437674 9.220698 0.9174355
1.155207 0.83684975 2.421226 0.3944621 0.0011674488 6.222899 12.532121 0.00026726694
1.0434114 6e-45 0.38304353 1.3267447 3.5238745 3.5207877 0.5277003 29.216991
19.720203 1.5763168 1.0100937 3.4421663 1.3065238 1.8362604 0.08344771 0.7580194
0.7944063 1.1324039 2.2399898 6.705831 0.24858898 2.2615418 17.96953 19.679161
21.84922 1.5911074 5.6730456 2.3709123 0.2516539 6.674895 1.3255036 0.46146175
0.8145531 3.1792433 4.4583654 1.2508457 0.6024791 0.23778434 1.9745375 0.9025444
1.1929467 4.5217543 0.9268726 3.8117335 5.0342813 9.5704 0.7355954 16.360432
4.4373026 3.4155304 0.27415407 6.676048 24.48012 1.0091958 2.13897 0.68273723
0.8816072 1.1748906 0.2166283 2.1582115 0.48740658 4.848559 5.465967 10.284183
5.4846554 1.9076087 6.7161317 16.265228 23.014065 1.784718 4.790299 2.9108944
0.6014839 1.4735627 9.423233 24.862225 1.2474642 0.68642396 3.2472358 1.8798735
2.193496 7.097408 7.693276 0.005378017 0.71852773 13.240757 3.2332013 2.4732325
5.7209315 1.300626 13.791649 0.54432714 7.011295 1.9264088 8.068247 1.9374635
00000000: 18c8 eb3e 9ae4 dd3f 4705 2b3f b352 c93a
00000010: f022 0b3f a0c4 9b3f 9363 883f 8305 e241
00000020: 53b5 3c3f 666f 353f 2631 8a41 75a0 8b3f
00000030: 5851 f040 8404 8e40 8536 033f a86d c43f
00000040: ce95 6440 b765 4f3f 8e9b d43f 4ef8 053f
00000050: 6493 1b41 a1ce 1941 c130 f33f ea3a 9a40
00000060: b784 4e40 d29e 163f d277 9541 b77d 8240
00000070: 15be 1a40 b5f8 6f3f ff14 e43e 0400 0000
00000080: e2db 4940 af90 433d b6a8 b441 2b0d 603e
00000090: e337 593e e756 3d3f d512 3d3f ea21 aa40
000000a0: cc62 2140 42ec 5c41 d7e4 7e41 745b 7d3e
000000b0: 1d24 ce3e f11d 9241 1a3c 113e a696 e43e
000000c0: 3e34 823f 9e8e b13e 28c2 8441 a067 3c3f
000000d0: 0605 0541 d8f7 1e40 dda1 cb41 0240 9141
000000e0: 48d2 8c41 828b 0040 8bc1 d140 0c84 bd3e
000000f0: e5e6 d33e 3ee6 9d40 cb5e 6b40 0400 0000
00000100: e1b5 4240 611f 2340 ebf8 ac40 f1f6 d13f
00000110: e303 e540 002d 4540 283d 1941 7ed6 d83e
00000120: 3f0e 0341 db3e f33e c77d a440 a682 6f40
00000130: c6d2 7a3f 4a01 ee3f 5431 a63f ea32 c53c
00000140: 195d 3d41 5d18 c43f 389b 8840 d1ff 4c3f
00000150: 8e4c 7e41 aa5c 1f41 9b71 3d3f 8029 6c3f
00000160: de82 cf3d d355 0b41 a130 b73e 3efb 5c40
00000170: 8ba3 0e3f 702f 063f 1dfb 213f 4529 5341
00000180: a956 133f 2e61 9b3e 7072 5a3f 9f5b d03e
00000190: 12c6 9b3f 1fc7 763f 2a64 3340 4688 bc3f
000001a0: 9b5e 053e 0400 0000 22fb 0240 a0d7 a841
000001b0: 974e 4a3f b9d5 833f bcdb c93f 9f65 cf40
000001c0: c738 323f bb25 453f bb46 0340 7fc9 bd3f
000001d0: 8c94 fb3f 56f9 823e 140f c73e 4fcd 1742
000001e0: 7e17 5b3f 3da4 183e 3226 f03f 81c2 573e
000001f0: 941d 8b3f e803 9740 1d8b fb3d 138c 7b3f
00000200: b6da 0d40 7939 ce3b 6d11 4c3e 1a8a 953f
00000210: 468f bf40 da0a af41 7919 ea40 cd72 fe40
00000220: aaa4 5b3b e4b8 303f b504 723f d62b fb3e
00000230: 9be8 1640 8475 b43f a4c3 c33e dca2 a240
00000240: 22ef e340 d321 9d40 1bc7 a341 fcec 4940
00000250: a2a9 d73f be99 a440 fb87 1341 0edd 6a3f
00000260: d3dd 933f c93b 563f 5ef5 1a40 f0f6 c93e
00000270: 1505 993a fd21 c740 9183 4841 f61f 8c39
00000280: 818e 853f 0400 0000 481e c43e c5d2 a93f
00000290: 2987 6140 9654 6140 5e17 073f 66bc e941
000002a0: fac2 9d41 c0c4 c93f c04a 813f 744c 5c40
000002b0: 2c3c a73f 950a eb3f a2e6 aa3d 8f0d 423f
000002c0: 365e 4b3f 9cf2 903f fe5b 0f40 2b96 d640
000002d0: 1c8e 7e3e 1abd 1040 99c1 8f41 ec6e 9d41
000002e0: 34cb ae41 68a9 cb3f 9789 b540 07bd 1740
000002f0: c8d8 803e bd98 d540 1aaa a93f b744 ec3e
00000300: 8d86 503f b978 4b40 eeaa 8e40 b61b a03f
00000310: 123c 1a3f bd7d 733e a5bd fc3f 260d 673f
00000320: 7ab2 983f 36b2 9040 8647 6d3f 71f3 7340
00000330: d518 a140 5c20 1941 fb4f 3c3f 2ae2 8241
00000340: 62fe 8d40 0d98 5a40 ec5d 8c3e 2fa2 d540
00000350: 49d7 c341 542d 813f e2e4 0840 dec7 2e3f
00000360: 02b1 613f d162 963f cfd3 5d3e 2320 0a40
00000370: 5b8d f93e 6527 9b40 34e9 ae40 038c 2441
00000380: 4c82 af40 862c f43f 8dea d640 301f 8241
00000390: ce1c b841 a471 e43f 214a 9940 184c 3a40
000003a0: d9fa 193f b49d bc3f 90c5 1641 d6e5 c641
000003b0: e8ac 9f3f 7bb9 2f3f b6d2 4f40 b29f f03f
000003c0: 3d62 0c40 f71d e340 512f f640 143a b03b
000003d0: 6ff1 373f 24da 5341 c5ec 4e40 7149 1e40
000003e0: df11 b740 ea7a a63f 98aa 5c41 0659 0b3f
000003f0: 875c e040 9094 f63f 8a17 0141 cefe f73f
