saved/checkpoint_actor_agent_1.pth (torch_old, 296395 bytes, 10 tensors)

fc1.weight f4 [256, 24]
0.0353848 0.02809981 -0.03600882 0.00696056 0.033510152 -0.09272358 0.00037262723 -0.026462123
0.0012313726 -0.012113434 0.02777335 0.0044986457 0.09008273 -0.04752566 0.036353298 0.027178727
-0.05745582 -0.06904283 -0.032714035 0.017109726 0.12725641 0.061755244 0.017045692 0.02023007
0.09105838 0.06727664 -0.0071507576 -0.033717632 -0.003352829 -0.09358997 -0.093908764 0.049550943
0.053253505 0.13937837 0.02107608 0.013855528 0.0039137723 -0.022252154 0.018365277 0.06597748
0.008500615 0.12868075 0.01295031 0.04305237 -0.0065436107 -0.02956374 0.04004517 0.032549147
-0.040357076 0.03537914 -0.023905544 0.11722116 0.16726266 0.011979902 0.019349227 0.054896735
-0.028457033 0.037446186 0.018447055 0.0013866823 0.1332204 0.058942243 -0.01746011 -0.009540472
-0.05082245 -0.0035944332 -0.030810725 -0.06144993 0.03177788 0.03094682 0.021454856 -0.025783518
0.016489238 0.11137291 -0.0255311 -0.0052915984 -0.046727486 0.049971372 -0.024168136 0.08226251
0.026381886 0.06289938 0.018915368 -0.028479418 -0.118299946 -0.029856464 -0.04587961 0.044741314
0.11363733 0.16320805 0.0071187154 0.071975276 -0.03227805 0.03090274 -0.038580403 0.03827046
0.0917845 0.01811154 0.008014249 0.07074174 0.09129131 -0.07766538 0.047171053 0.048030253
0.100639135 0.04533654 -0.008380226 0.07129998 -0.016463416 -0.09488167 -0.06429972 0.04654149
-0.001754179 0.13956548 0.016969807 0.013104844 -0.004268545 0.004510729 0.0014571295 -0.00711189
0.097615115 -0.08027295 -0.030750781 -0.02459756 0.01571959 0.030402286 0.031830106 0.0077688415
0.14061613 0.037114616 -0.002475545 0.058353726 0.103744954 0.016751004 0.0018374951 0.0016356986
0.16852447 0.061582483 0.033721693 0.05056274 0.09213165 0.044609312 -0.037330635 -0.018926058
0.04892296 -0.070155375 -0.009332404 0.03727816 0.0058528795 0.008853847 0.051771052 0.019083153
0.03204518 -0.04231101 0.011614405 0.06780249 0.06756914 -0.15418313 0.0026567276 0.026577195
0.07425375 0.07075915 0.050678447 0.09014208 -0.0027600448 -0.17546216 -0.033129953 0.039027315
-0.005155363 0.018241119 0.022667147 0.01950124 0.0016000135 -0.018542813 0.03590145 -0.047058254
0.024210773 -0.05349405 0.02182936 -0.034178533 -0.019008437 -0.01107221 -0.02551518 -0.027491033
0.002136142 -0.05972825 0.027737781 -0.026322022 -0.035883315 -0.052432075 0.13273644 0.030368913
-0.066661924 -0.10836973 0.0060343756 -0.047569606 -0.014144815 -0.013535542 0.10464292 -0.01898443
-0.011361529 -0.10382927 -0.014786972 -0.046148747 -0.025556013 -0.032948636 0.050828703 -0.055246577
0.043593794 -0.05922261 0.02292105 0.047777675 -0.032370467 0.045994032 0.012166632 0.05217862
0.013841693 0.018664626 -0.0003528341 -0.006105779 0.15906233 -0.0044112913 -0.050641667 0.017339354
0.05719329 -0.048982225 0.0055588987 0.04366694 0.05625195 -0.048146773 -0.03704874 -0.041481167
0.08998745 0.032910887 0.018058574 0.010362769 -0.07279983 -0.00022014175 -0.021887058 -0.023279872
0.071516454 0.053427465 0.010463215 0.06405669 -0.04246802 0.0076654414 0.0038768845 0.09046475
0.013200698 0.08411982 -0.027175298 0.012067662 -0.081024505 -0.110094436 0.054484446 -0.008194376
00000000: a7ef 103d 9331 e63c fc7d 13bd 6915 e43b
00000010: f141 093d dce5 bdbd 2e5d c339 18c7 d8bc
00000020: 0266 a13a 6d77 46bc f084 e33c 6069 933b
00000030: 4b7d b83d 44aa 42bd 32e7 143d eca5 de3c
00000040: cb56 6bbd 5466 8dbd 27ff 05bd b229 8c3c
00000050: 814f 023e 11f3 7c3d 68a3 8b3c 88b9 a53c
00000060: d17c ba3d 56c8 893d e750 eabb 801b 0abd
00000070: 23bb 5bbb 19ac bfbd 3d53 c0bd eef5 4a3d
00000080: 5920 5a3d 34b9 0e3e bea7 ac3c 4c02 633c
00000090: 1a3f 803b 264a b6bc c772 963c 331f 873d
000000a0: 2a46 0b3c e3c4 033e 892d 543c af57 303d
000000b0: c96b d6bb a82f f2bc 6706 243d 4152 053d
000000c0: 764d 25bd b8e9 103d 8fd5 c3bc a611 f03d
000000d0: e746 2b3e 5a47 443c 4582 9e3c 66db 603d
000000e0: b91e e9bc 2c61 193d 471e 973c 56c1 b53a
000000f0: ee6a 083e 6c6d 713d 8108 8fbc a44f 1cbc
00000100: 342b 50bd 9590 6bbb c666 fcbc ecb2 7bbd
00000110: 8629 023d 2f84 fd3c 18c2 af3c f537 d3bc
00000120: 7014 873c 7b17 e43d 9926 d1bc 2565 adbb
00000130: 5265 3fbd c8ae 4c3d 41fc c5bc 3f79 a83d
00000140: d31e d83c 64d1 803d 67f4 9a3c ab4d e9bc
00000150: 3e47 f2bd 8b95 f4bc 42ec 3bbd ab42 373d
00000160: b0ba e83d 0320 273e 1d44 e93b c667 933d
00000170: fd35 04bd be27 fd3c 7c06 1ebd 7cc1 1c3d
00000180: 83f9 bb3d a75e 943c 324e 033c 0ce1 903d
00000190: f0f6 ba3d 070f 9fbd 6f36 413d 5fbb 443d
000001a0: e41b ce3d cfb2 393d 374d 09bc b905 923d
000001b0: 49de 86bc 5251 c2bd 92af 83bd 4aa2 3e3d
000001c0: 7bec e5ba 41ea 0e3e 4404 8b3c b3b5 563c
000001d0: 27df 8bbb bdce 933b 27fd be3a db0a e9bb
000001e0: 6fea c73d 2566 a4bd 10e9 fbbc d280 c9bc
000001f0: 5fc6 803c 370e f93c 4960 023d c491 fe3b
00000200: adfd 0f3e 7f05 183d c13c 22bb 5104 6f3d
00000210: 3c78 d43d 6739 893c 1bd8 f03a f064 d63a
00000220: ae91 2c3e ea3d 7c3d c21f 0a3d e01a 4f3d
00000230: 85af bc3d 41b8 363d 02e8 18bd d20a 9bbc
00000240: 7163 483d 9fad 8fbd f0e6 18bc fcb0 183d
00000250: 83c9 bf3b ba0f 113c e20d 543d 4654 9c3c
00000260: cf41 033d 4f4e 2dbd 584a 3e3c 08dc 8a3d
00000270: b061 8a3d 2fe2 1dbe 7e1c 2e3b 6bb8 d93c
00000280: 5a12 983d 2cea 903d 3494 4f3d 699c b83d
00000290: dee1 34bb 5aac 33be 46b3 07bd 1bdb 1f3d
000002a0: 52ee a8bb 666e 953c 74b0 b93c 11c1 9f3c
000002b0: 8bb7 d13a 19e7 97bc 660d 133d 28c0 40bd
000002c0: ac55 c63c 941c 5bbd 7cd3 b23c cafe 0bbd
000002d0: 95b7 9bbc 3768 35bc 3605 d1bc e034 e1bc
000002e0: 84fe 0b3b 9ca5 74bd 583a e33c 48a1 d7bc
000002f0: 62fa 12bd 04c3 56bd 10ec 073e 3ac8 f83c
00000300: 0c86 88bd f3f0 ddbd 03bc c53b 59d8 42bd
00000310: a7bf 67bc 2ec4 5dbc 074f d63d 3c85 9bbc
00000320: b525 3abc 71a4 d4bd 0e45 72bc 7806 3dbd
00000330: d85a d1bc 26f5 06bd c231 503d 3c4a 62bd
00000340: 688f 323d 6893 72bd edc4 bb3c 86b2 433d
00000350: e596 04bd 3d64 3c3d 8e56 473c 40b9 553d
00000360: 45c8 623c 8fe6 983c 97fc b8b9 fd12 c8bb
00000370: 3ce1 223e 988c 90bb a36d 4fbd 430b 8e3c
00000380: 8343 6a3d 96a1 48bd 6c27 b63b 1bdc 323d
00000390: 7268 663d 8d35 45bd 6bc0 17bd 28e8 29bd
000003a0: 574b b83d 91cd 063d 93ef 933c 9ac8 293c
000003b0: 1418 95bd dad5 66b9 7d4c b3bc 6eb5 bebc
000003c0: 3877 923d c2d6 5a3d e86d 2b3c 2730 833d
000003d0: f2f2 2dbd 622e fb3b 5413 7e3b 9545 b93d
000003e0: be47 583c 0347 ac3d bb9e debc 71b7 453c
000003f0: 2df0 a5bd 3179 e1bd 152b 5f3d b441 06bc

fc1.bias f4 [256]
-0.10378538 0.10775421 0.09344159 -0.03421759 -0.08920703 -0.3403237 -0.21964534 0.023773912
-0.17729297 -0.16323522 0.05544629 -0.12700677 -0.015420417 -0.32215592 0.028624529 0.086728424
-0.034465242 -0.09925503 -0.101733536 -0.25576836 0.072312094 -0.2302925 -0.03864441 -0.21663253
-0.0808435 -0.27903646 0.07014579 -0.0609214 -0.29259336 -0.14228399 -0.1031543 -0.18045585
-0.15395485 -0.060290873 -0.16677012 0.0051280768 -0.18323678 0.10372065 -0.246183 0.05150018
-0.19874729 -0.28934696 -0.09271211 -0.1527086 -0.01796172 -0.23777975 -0.048655953 -0.17792371
0.1141201 -0.013197599 -0.0604307 0.11289719 -0.13477194 -0.23240821 0.049607735 -0.11732465
0.13093698 -0.04413743 -0.24022533 0.22755413 0.05192665 0.020212073 -0.009512466 -0.16604927
0.03394348 -0.1380323 -0.14258666 0.084035985 -0.26470175 -0.07503023 -0.04240035 -0.2543281
-0.20461805 -0.1843829 -0.13342127 0.071414135 0.10687868 0.08162819 0.060160752 -0.10013512
-0.09717784 -0.19065095 -0.24311504 -0.29557538 0.054276645 -0.18975033 -0.1260732 -0.013247422
-0.07762001 -0.050277203 -0.008094792 0.054627523 -0.09014263 0.1151922 -0.21029378 -0.24915336
0.109920956 -0.21746685 0.13112558 0.020363897 0.062652506 -0.10986861 -0.18521869 -0.024184044
-0.14700717 0.20530492 0.045393154 -0.027809236 0.1565754 -0.10591291 -0.097956754 -0.19808368
-0.2041454 -0.19650394 -0.055922404 0.12175841 0.24371102 -0.2643894 -0.11579104 0.053355023
-0.13779618 0.03412419 -0.0036652382 0.22487888 0.05756532 0.0063021677 0.027197948 0.031246709
0.105148554 -0.29118297 -0.24331678 0.09281313 -0.2218313 0.10975953 0.08153127 0.07092099
0.042792857 -0.07426401 0.09340914 0.12709594 -0.09887833 -0.2059098 0.042368326 -0.024033219
0.037930552 -0.121364884 -0.13411258 -0.1670501 -0.019712016 0.21740112 -0.020022346 0.030282892
0.0179668 -0.11033836 0.12330605 -0.14889729 0.084257744 -0.08957467 -0.091067955 0.15465444
-0.10930064 -0.027459558 0.00547951 -0.028234014 0.0063752146 0.096995525 -0.0069106296 0.036081813
0.010489896 0.076160304 -0.13122115 -0.25598508 -0.2241875 -0.2034408 -0.23117206 -0.13230076
0.05334478 0.18490574 -0.20833574 -0.020549241 -0.1575233 0.07634213 0.041712124 0.052403215
0.21819228 -0.27294695 -0.1983867 -0.06870696 -0.08868511 0.17294878 0.17572965 0.0021537154
-0.10761392 -0.21233405 0.14387552 -0.24342893 -0.17394711 0.1199967 0.0032626993 -0.011902756
-0.09111788 -0.14238377 -0.12501691 -0.18636456 0.12754935 0.064298704 -0.17997698 -0.0071172146
0.008400109 -0.19058654 -0.01649121 -0.25809065 0.07686185 -0.11797386 -0.09925921 -0.2606348
-0.0713938 0.12205375 -0.027132204 -0.14223915 -0.1814922 -0.010771084 0.2238309 -0.118564844
-0.01355884 -0.1808686 -0.064583436 -0.066422306 -0.09452651 -0.11609595 0.09270926 0.07139822
-0.10483171 -0.02109253 -0.030722804 0.09631616 -0.1716772 0.03646785 -0.0430421 0.0019553965
-0.25754705 -0.20402008 0.036178946 -0.08971963 -0.06728125 0.11182681 -0.10364087 -0.18083341
-0.12995802 -0.111001566 -0.07604294 -0.21054858 0.02617603 0.121013 -0.18225774 0.10514079
00000000: 6e8d d4bd 3dae dc3d 4e5e bf3d be27 0cbd
00000010: 2db2 b6bd e83e aebe b5ea 60be 82c1 c23c
00000020: 4a8c 35be 2227 27be a61b 633d 100e 02be
00000030: eba5 7cbc 9ff1 a4be fd7d ea3c ac9e b13d
00000040: 6d2b 0dbd 3946 cbbd ac59 d0bd 12f4 82be
00000050: 5d18 943d ccd1 6bbe 9a49 1ebd ebd4 5dbe
00000060: 4791 a5bd dedd 8ebe 99a8 8f3d b888 79bd
00000070: ccce 95be e5b2 11be 9042 d3bd 6bc9 38be
00000080: 57a6 1dbe 90f3 76bd c9c5 2abe 6d09 a83b
00000090: 6ca2 3bbe 7e6b d43d 6517 7cbe daf1 523d
000000a0: 6984 4bbe 4925 94be d9df bdbd a55f 1cbe
000000b0: 7524 93bc 897c 73be 774b 47bd a231 36be
000000c0: cdb7 e93d be3a 58bc 2f86 77bd a436 e73d
000000d0: a801 0abe 6bfc 6dbe 7b31 4b3d e847 f0bd
000000e0: 5814 063e 73c9 34bd a1fd 75be f303 693e
000000f0: 0ab1 543d ca93 a53c 2dda 1bbc d208 2abe
00000100: 5208 0b3d 5758 0dbe 3d02 12be 0f1b ac3d
00000110: fd86 87be 73a9 99bd fdab 2dbd 4b37 82be
00000120: 6587 51be dfce 3cbe 969f 08be 9341 923d
00000130: 36e3 da3d ae2c a73d 1f6b 763d a413 cdbd
00000140: 2d05 c7bd 013a 43be 26f3 78be a855 97be
00000150: 3051 5e3d e94d 42be 5519 01be b70b 59bc
00000160: 3df7 9ebd 78ef 4dbd 05a0 04bc 1cc1 5f3d
00000170: b39c b8bd e3e9 eb3d 4157 57be 0f22 7fbe
00000180: 3d1e e13d a1af 5ebe c945 063e 30d2 a63c
00000190: f54f 803d cb02 e1bd f8a9 3dbe 9e1d c6bc
000001a0: 0c89 16be 743b 523e 2cee 393d 32d0 e3bc
000001b0: 4d55 203e dee8 d8bd 8d9d c8bd 73d6 4abe
000001c0: 7e0b 51be 5438 49be e40e 65bd 795c f93d
000001d0: 628f 793e 0c5e 87be da23 edbd cc8a 5a3d
000001e0: 711a 0dbe cfc5 0b3d 7e34 70bb a646 663e
000001f0: 9dc9 6b3d 6a82 ce3b 3bce de3c 19f9 ff3c
00000200: 2058 d73d ef15 95be 0928 79be cf14 be3d
00000210: bf27 63be 9bc9 e03d def9 a63d 063f 913d
00000220: 9047 2f3d bb17 98bd 4b4d bf3d 7025 023e
00000230: b980 cabd 05da 52be 698a 2d3d 50e1 c4bc
00000240: 115d 1b3d 278e f8bd cf54 09be 2e0f 2bbe
00000250: 187b a1bc 669e 5e3e e705 a4bc d413 f83c
00000260: 1c2f 933c 14f9 e1bd e287 fc3d 8878 18be
00000270: 538f ac3d ed72 b7bd d681 babd bc5d 1e3e
00000280: 04d9 dfbd def2 e0bc 768d b33b 054b e7bc
00000290: 2de7 d03b 97a5 c63d 9072 e2bb 86ca 133d
000002a0: d0dd 2b3c eff9 9b3d d65e 06be 7a10 83be
000002b0: 6891 65be c952 50be 5eb8 6cbe da79 07be
000002c0: 0e80 5a3d ee57 3d3e f755 55be e256 a8bc
000002d0: ca4d 21be 4359 9c3d 55da 2a3d c1a4 563d
000002e0: cc6d 5f3e b4bf 8bbe e225 4bbe 3cb6 8cbd
000002f0: 8aa0 b5bd 7c19 313e 79f2 333e 5925 0d3b
00000300: b064 dcbd 196e 59be 1b54 133e 6f45 79be
00000310: 311f 32be d4c0 f53d 03d3 553b c703 43bc
00000320: 039c babd 0dcd 11be 6f04 00be 5ad6 3ebe
00000330: 4c9c 023e 0aaf 833d e34b 38be 8637 e9bb
00000340: 9ca0 093c 1e29 43be 9318 87bc 7524 84be
00000350: bf69 9d3d 479c f1bd 6a48 cbbd ed71 85be
00000360: ea36 92bd 51f7 f93d 5b44 debc 24a7 11be
00000370: 17d9 39be 3379 30bc ed33 653e 20d2 f2bd
00000380: e625 5ebc 9e35 39be 5244 84bd 6b08 88bd
00000390: 1d97 c1bd b7c3 edbd 5ade bd3d 3b39 923d
000003a0: 02b2 d6bd 3eca acbc 64ae fbbc 6841 c53d
000003b0: 26cc 2fbe 505f 153d ea4c 30bd 1c26 003b
000003c0: 35dd 83be a4ea 50be 6030 143d edbe b7bd
000003d0: c1ca 89bd 7405 e53d aa41 d4bd 652c 39be
000003e0: b713 05be ca54 e3bd 67bc 9bbd 0c9a 57be
000003f0: 1d6f d63c aad5 f73d c6a1 3abe 0e54 d73d

fc2.weight f4 [256, 256]
0.03933137 0.0192709 -0.09387606 -0.006067417 -0.026037185 -0.10938369 -0.0777743 0.044968534
-0.03263459 -0.027050208 -0.12422127 0.09237549 0.09718776 -0.07567209 -0.0313568 -0.0787441
0.08565557 -0.019244954 -0.06045652 0.14502425 0.0015119594 0.02387032 -0.12242385 -0.034442127
-0.11296257 -0.005294232 -0.035482533 0.05697253 -0.08375124 0.017911714 0.04505583 0.03930544
0.0030970762 0.10665098 -0.14709534 0.026340107 0.026782356 -0.08162515 -0.05334787 0.015829705
0.15095563 -0.011628451 0.022173237 0.011536188 0.07123992 0.022589518 -0.06294791 0.029171908
-0.05735963 -0.10397649 -0.07329606 0.025966585 0.096681304 -0.09835191 -0.0279984 -0.0105981715
-0.005489729 -0.16909346 -0.05315443 -0.09627585 0.0003597529 0.09483073 -0.025949657 0.07153062
0.010103698 0.016412472 0.15053345 -0.09388791 -0.047433063 0.16695435 -0.06001946 0.010744786
0.028518269 -0.110101186 0.08264578 -0.2688807 0.13216712 -0.14868118 0.03419343 -0.16236758
-0.14758344 -0.090899214 -0.012366598 0.011262849 -0.0549494 -0.043919366 0.054514676 0.07343984
0.061030984 -0.07497063 -0.22415203 0.073685735 -0.06455552 0.1370107 -0.013404238 -0.0015461348
-0.056879517 -0.07195566 -0.12754482 0.05225046 -0.014807439 -0.024252517 -0.30453187 0.04176178
-0.032527827 0.0811415 0.18494098 0.033994563 -0.026981242 -0.029684225 -0.017048003 0.06499365
0.14497747 -0.08622661 -0.0012849136 0.04911261 -0.010254725 -0.087687194 -0.051655997 0.06169601
-0.1285299 -0.09903318 0.1522879 -0.18019745 -0.056020647 -0.070085585 0.016819417 0.053349435
0.09242577 -0.06469307 0.037715912 -0.019253395 0.0199684 -0.026651883 -0.23684871 -0.047267705
0.034399576 -0.087826006 0.1115322 0.065807626 0.06416 0.028181434 0.028403804 -0.037827704
-0.13274166 0.012445391 -0.10024154 0.031638436 0.06778388 -0.048813798 -0.09860462 -0.14752378
0.081779964 -0.10156658 0.15128237 -0.05469801 -0.022091493 0.1786648 0.055913866 0.050572384
0.09912149 -0.043827593 -0.106022865 0.08097301 -0.035051376 0.103394866 -0.072069414 -0.123133585
-0.13051142 -0.009854642 0.026930401 0.041659422 0.019084107 0.00918493 -0.095782794 -0.13690582
-0.06713543 -0.036585465 0.043215215 0.0027512226 -0.0209937 0.16006127 -0.10440192 -0.021097152
0.08637515 -0.08965113 -0.041765712 0.07498398 -0.023842087 -0.15292935 -0.06731219 0.08160543
-0.02582075 -0.018328274 -0.09779309 -0.048342854 -0.036721934 -0.04709508 0.06257627 0.055173237
0.016920744 0.015607765 -0.04287977 0.05727992 0.08019139 -0.16585404 -0.07544813 0.07413069
0.08165475 0.13514742 -0.0060956874 -0.007494812 -0.004395241 -0.13840857 0.013150923 0.20295027
-0.082968004 0.08901257 -0.0562984 -0.11828729 -0.08570441 -0.10283304 0.05172919 -0.15543987
-0.12882741 -0.12466182 -0.11894522 -0.059589755 -0.31622314 -0.14618012 0.12082442 -0.18006703
-0.00075666566 0.13966767 -0.17445545 -0.011484057 -0.0052022785 0.04808235 0.12092525 0.003946754
-0.03966664 -0.1445633 0.015127636 -0.036936082 -0.12612368 -0.15117642 0.15793285 0.031872243
0.0064321184 0.00041272078 0.16627856 0.26153886 0.2861622 0.042111225 0.09568751 0.13131848
00000000: ee19 213d 02de 9d3c 1742 c0bd 2fd1 c6bb
00000010: ef4b d5bc 8e04 e0bd 2248 9fbd ed30 383d
00000020: d9ab 05bd 6698 ddbc b967 febd 5c2f bd3d
00000030: 600a c73d f8f9 9abd fd6f 00bd 9644 a1bd
00000040: 306c af3d 98a7 9dbc 42a1 77bd 3d81 143e
00000050: f02c c63a b08b c33c 5bb9 fabd 3013 0dbd
00000060: eb58 e7bd 3d7b adbb 2256 11bd 075c 693d
00000070: c585 abbd 96bb 923c 768c 383d befe 203d
00000080: 51f8 4a3b d46b da3d 29a0 16be 35c7 d73c
00000090: ac66 db3c 162b a7bd 4c83 5abd 4cad 813c
000000a0: 1d94 1a3e 4285 3ebc a6a4 b53c 4802 3d3c
000000b0: 3ce6 913d a70d b93c d5ea 80bd edf9 ee3c
000000c0: eef1 6abd a0f1 d4bd 3f1c 96bd e0b7 d43c
000000d0: d900 c63d ba6c c9bd e75c e5bc f4a3 2dbc
000000e0: 2fe3 b3bb d626 2dbe 76b8 59bd 462c c5bd
000000f0: 389d bc39 9d36 c23d 6094 d4bc a57e 923d
00000100: fb89 253c 7373 863c 7125 1a3e 4e48 c0bd
00000110: 2c49 42bd 15f6 2a3e f7d6 75bd e60a 303c
00000120: 259f e93c bb7c e1bd 3142 a93d bbaa 89be
00000130: d156 073e e13f 18be 690e 0c3d b043 26be
00000140: 1d20 17be 5e29 babd 459d 4abc d087 383c
00000150: 9f12 61bd cbe4 33bd c84a 5f3d a067 963d
00000160: a0fb 793d 348a 99bd 1c88 65be 8ce8 963d
00000170: af35 84bd 884c 0c3e 739d 5bbc ada7 caba
00000180: 7ffa 68bd 7d5d 93bd 1c9b 02be 9404 563d
00000190: e79a 72bc 37ad c6bc 9aeb 9bbe 660e 2b3d
000001a0: e63b 05bd 842d a63d 2b61 3d3e e23d 0b3d
000001b0: c407 ddbc 552c f3bc 41a8 8bbc 641b 853d
000001c0: f974 143e 9497 b0bd 8c6a a8ba 4e2a 493d
000001d0: 6f03 28bc 5895 b3bd 3d95 53bd f5b4 7c3d
000001e0: 589d 03be e8d1 cabd 5cf1 1b3e ae85 38be
000001f0: e875 65bd 0889 8fbd e0c8 893c f084 5a3d
00000200: b949 bd3d cd7d 84bd 007c 1a3d 4cb9 9dbc
00000210: c594 a33c 0d55 dabc 7888 72be c89b 41bd
00000220: 92e6 0c3d 1fde b3bd fe6a e43d 26c6 863d
00000230: 5166 833d c0dc e63c 18af e83c 39f1 1abd
00000240: 6eed 07be c1e7 4b3c 704b cdbd 4e97 013d
00000250: 46d2 8a3d faf0 47bd 38f1 c9bd 7910 17be
00000260: 417c a73d 2402 d0bd c4e9 1a3e 050b 60bd
00000270: 38f9 b4bc e8f3 363e f005 653d fd24 4f3d
00000280: 3500 cb3d 9084 33bd 8422 d9bd 2dd5 a53d
00000290: 0892 0fbd b0c0 d33d 2199 93bd 762d fcbd
000002a0: c9a4 05be 5d75 21bc 259d dc3c 12a3 2a3d
000002b0: 4656 9c3c 637c 163c c529 c4bd 0a31 0cbe
000002c0: 4d7e 89bd a4da 15bd 7002 313d db4d 343b
000002d0: fbfa abbc 1ae7 233e add0 d5bd efd3 acbc
000002e0: 74e5 b03d 039b b7bd 8612 2bbd 3391 993d
000002f0: 7b50 c3bc 8399 1cbe f9da 89bd bf20 a73d
00000300: 0a86 d3bc 2d25 96bc be47 c8bd 2803 46bd
00000310: bd69 16bd c5e6 40bd fd27 803d 55fd 613d
00000320: 5f9d 8a3c b6b7 7f3c b3a2 2fbd 599e 6a3d
00000330: 623b a43d a4d5 29be 8d84 9abd d5d1 973d
00000340: 9b3a a73d 1664 0a3e 55be c7bb 0a97 f5bb
00000350: f405 90bb faba 0dbe f876 573c 32d2 4f3e
00000360: 21eb a9bd 394c b63d 2799 66bd 9b40 f2bd
00000370: cb85 afbd 219a d2bd fde1 533d a12b 1fbe
00000380: 55eb 03be b24e ffbd 8d99 f3bd 6314 74bd
00000390: 00e8 a1be 3eb0 15be cb72 f73d 7e63 38be
000003a0: f95a 46ba 0b05 0f3e 73a4 32be a027 3cbc
000003b0: e077 aabb 00f2 443d a8a7 f73d c653 813b
000003c0: 7d79 22bd 6708 14be e7d9 773c 4a4a 17bd
000003d0: 9126 01be fecd 1abe 26b9 213e 788c 023d
000003e0: 85c4 d23b 7262 d839 ed44 2a3e 6ce8 853e
000003f0: da83 923e d27c 2c3d d0f7 c33d 5a78 063e

fc2.bias f4 [256]
0.13763937 0.10380018 0.06508641 0.12916574 0.009995311 0.02838078 0.08085089 0.057533145
0.02180277 -0.028615346 0.06645092 0.0874311 0.05241094 0.07588815 -0.018252034 -0.033128213
0.039186783 0.019921802 0.05914613 0.13955685 0.0610367 0.10460516 0.0010746326 0.0821502
0.16175576 0.09153574 0.034953307 0.0275679 0.08317236 0.029846346 0.12582175 0.03270298
0.05481032 0.031786032 0.027291737 0.07304526 0.049051907 0.077852756 0.023772897 0.1187075
0.086684644 0.025936598 0.072891556 0.037566964 -0.04567956 0.15451159 0.11273108 0.10850574
0.11959952 0.0594554 0.031627588 0.031247232 0.038930744 0.03916744 0.105599165 0.10862264
0.10389831 0.007930542 0.037587646 0.072647884 0.07716674 0.11966785 0.06453243 0.04711626
0.099850535 0.116153985 0.011075543 0.16010086 0.13131654 0.04383253 0.12526913 0.051192444
-0.003734659 0.023778014 0.0053462577 0.08658489 0.15870929 0.06652415 0.066166885 0.074297465
-0.036541916 0.029449431 0.017332975 -0.011052764 0.031751983 0.10758785 0.006343019 0.09495044
0.040521443 0.06859498 -0.037479807 0.03550253 0.06373147 0.12193909 0.03398736 0.041331246
0.015882382 0.05835599 0.03292544 -0.0069716624 0.07954362 0.05066135 0.040766027 0.023311377
0.02729894 -0.023394406 0.07322258 0.088711195 0.12657711 -0.03892629 0.07401601 0.09112947
0.035600387 -0.047857188 0.0077678296 0.07995939 0.12916167 0.028647132 0.12430076 0.10802313
0.19580723 0.06526411 0.0969515 0.08824498 0.035604108 -0.023854032 0.08818957 0.056306936
0.04119819 -0.011443158 0.03218427 0.10754041 0.032351535 0.04694864 0.06724685 0.09669151
0.09002507 0.13478802 0.084639475 0.085867256 0.10398764 0.05107009 -0.008936255 0.012086168
0.014149846 0.04068766 0.08200148 0.009257853 0.06887154 0.09648994 0.1040549 0.022483964
0.07018091 -0.03829141 0.08563847 0.005293397 0.03853825 0.10683919 0.073432885 0.06676442
0.15008183 0.106757894 -0.047095735 0.027532365 0.019084781 0.05776737 0.10013394 0.07025966
0.13190739 0.0895707 0.071721286 0.09409671 0.06406053 0.07190299 -0.023460038 -0.005353741
-0.051017568 0.0089508565 0.10220433 0.03582392 0.054446816 0.15696946 0.119796515 0.097159445
0.13704814 0.062034797 0.034494944 0.059758265 0.059307378 -0.018138643 0.00832137 0.06179583
0.10192192 0.01660434 0.061090313 0.0076022316 0.13313961 -0.006929095 0.039639693 0.0696831
0.08710068 0.13850263 0.07568893 0.12171932 0.06088541 0.046869952 0.05021312 0.10848365
0.008712267 0.09221397 0.056241456 -0.04699023 0.013286608 0.060955867 0.09370049 0.043521896
0.03512937 -0.054286364 0.08073288 0.027659891 0.022741904 0.051362127 0.11925747 0.047130544
0.033769567 0.021110857 0.0899395 0.019785676 0.058166575 0.053204056 0.08716626 0.030535938
-0.023657057 0.04751393 0.10290475 0.024890961 0.00572537 0.07124642 0.12709045 0.07734854
-0.008948606 0.065415 0.064446405 0.0496765 0.14615107 0.029054357 0.011115572 0.1332502
0.03178953 0.049162492 0.020157926 0.080651075 -0.04178622 0.061158445 0.087078646 0.09036032
00000000: 56f1 0c3e 3095 d43d 064c 853d 0644 043e
00000010: 5fc3 233c cf7e e83c 2795 a53d e0a7 6b3d
00000020: b99b b23c bb6a eabc 6c17 883d 140f b33d
00000030: dbac 563d 3f6b 9b3d 4a85 95bc 73b1 07bd
00000040: 5282 203d 0c33 a33c 3643 723d fee7 0e3e
00000050: 9e01 7a3d 3b3b d63d b0da 8c3a 5d3e a83d
00000060: 4da3 253e 1777 bb3d 332b 0f3d 14d6 e13c
00000070: 4556 aa3d 5380 f43c 6bd7 003e 8ff3 053d
00000080: c980 603d 1232 023d ec92 df3c c198 953d
00000090: a7ea 483d 4471 9f3d 61bf c23c eb1c f33d
000000a0: b887 b13d fd78 d43c 2b48 953d d1df 193d
000000b0: 7e1a 3bbd 4938 1e3e 8ddf e63d 4238 de3d
000000c0: 98f0 f43d 8187 733d ee8b 013d 32fa ff3c
000000d0: d875 1f3d 0a6e 203d 6044 d83d 8c75 de3d
000000e0: a3c8 d43d 1bef 013c 81f5 193d 6ac8 943d
000000f0: 9909 9e3d 6b14 f53d 9429 843d fbfc 403d
00000100: 707e cc3d 24e2 ed3d 3276 353c 7bf1 233e
00000110: d877 063e bd89 333d 8d46 003e 2baf 513d
00000120: 2ec1 74bb 1cca c23c a92f af3b 6b53 b13d
00000130: b084 223e d03d 883d 8182 873d 4529 983d
00000140: faac 15bd ef3f f13c e2fd 8d3c a716 35bc
00000150: 5e0e 023d 0557 dc3d 1ad9 cf3b 6075 c23d
00000160: d0f9 253d 867b 8c3d 6d84 19bd 1a6b 113d
00000170: a585 823d 34bb f93d 5436 0b3d f44a 293d
00000180: c51b 823c b106 6f3d d4dc 063d 8b72 e4bb
00000190: c4e7 a23d 4782 4f3d 47fa 263d 80f7 be3c
000001a0: 07a2 df3c a0a5 bfbc b8f5 953d 37ae b53d
000001b0: 6e9d 013e 2c71 1fbd b595 973d 16a2 ba3d
000001c0: b6d1 113d e605 44bd 4789 fe3b c0c1 a33d
000001d0: f542 043e 64ad ea3c 6691 fe3d 3b3b dd3d
000001e0: b181 483e 31a9 853d 828e c63d c9b9 b43d
000001f0: 9dd5 113d 8869 c3bc bc9c b43d 1aa2 663d
00000200: 6fbf 283d 157c 3bbc a7d3 033d 253e dc3d
00000210: 0b83 043d 384d 403d b7b8 893d 3306 c63d
00000220: 105f b83d df05 0a3e 7657 ad3d 2cdb af3d
00000230: 79f7 d43d df2e 513d 5f69 12bc 1005 463c
00000240: c1d4 673c 1ba8 263d 64f0 a73d 40ae 173c
00000250: 860c 8d3d 859c c53d bc1a d53d 4a30 b83c
00000260: 02bb 8f3d 74d7 1cbd 3963 af3d 3b74 ad3b
00000270: 49da 1d3d 81ce da3d fb63 963d c9bb 883d
00000280: 0daf 193e e2a3 da3d 75e7 40bd 8e8b e13c
00000290: b057 9c3c 7a9d 6c3d 0613 cd3d 4ce4 8f3d
000002a0: bb12 073e d870 b73d 9ce2 923d c7b5 c03d
000002b0: 2b32 833d e041 933d 442f c0bc 6f6e afbb
000002c0: ccf7 50bd 9da6 123c 8150 d13d 1abc 123d
000002d0: a003 5f3d 9abc 203e e057 f53d 88fb c63d
000002e0: 5956 0c3e 3318 7e3d 924a 0d3d 15c5 743d
000002f0: 4bec 723d 7e97 94bc 5b56 083c a01d 7d3d
00000300: 71bc d03d d305 883c d639 7a3d 241c f93b
00000310: c055 083e 760d e3bb 3b5d 223d 03b6 8e3d
00000320: d761 b23d a2d3 0d3e cc02 9b3d fb47 f93d
00000330: fb62 793d b5fa 3f3d 46ac 4d3d ad2c de3d
00000340: e5bd 0e3c aeda bc3d 715d 663d d478 40bd
00000350: 13b0 593c dcac 793d 0be6 bf3d 0444 323d
00000360: d0e3 0f3d 615b 5ebd 4857 a53d ff96 e23c
00000370: 3b4d ba3c 1861 523d 433d f43d f50b 413d
00000380: f551 0a3d adf0 ac3c 3332 b83d 9215 a23c
00000390: 1340 6e3d 7fec 593d 3984 b23d 8126 fa3c
000003a0: 72cc c1bc f79d 423d babf d23d 21e8 cb3c
000003b0: e29b bb3b a5e9 913d 0024 023e e968 9e3d
000003c0: 2d9d 12bc 4df8 853d 7afc 833d 9679 4b3d
000003d0: a0a8 153e 6703 ee3c 171e 363c be72 083e
000003e0: bd35 023d 9c5e 493d 3c22 a53c 642c a53d
000003f0: 0728 2bbd 4781 7a3d 4a56 b23d d50e b93d

fc3.weight f4 [2, 256]
0.036948476 0.37106863 -0.14727236 0.026565121 0.16060269 0.14891298 0.2507581 0.09381432
0.13826835 0.17469604 0.22749604 -0.13197863 -0.07147379 -0.21775119 -0.3365681 -0.1726344
-0.23895383 0.13541916 0.11536894 -0.018037258 -0.29844335 -0.14689653 0.23627734 -0.04966221
0.03851119 0.10564478 -0.25259146 -0.034538902 0.035378464 -0.0415732 -0.12261176 -0.102995776
-0.18916814 -0.20571747 -0.053014413 0.053848255 0.24784799 -0.19055377 0.13902771 -0.22915226
0.31991357 -0.21638796 -0.16887763 -0.26843736 -0.29283988 -0.13486701 -0.12221856 -0.10212929
-0.1405008 0.18765463 -0.26077318 -0.17116977 -0.1955779 0.0034747787 0.15153988 0.3229343
-0.1492557 -0.17386764 -0.041366223 -0.080777794 0.2540825 0.36020336 0.049997766 0.23921275
0.024126995 -0.15130533 0.09778565 -0.28204575 -0.10257663 0.20482288 0.33616942 0.26067212
-0.08549842 0.15643995 -0.084750295 -0.1706787 0.42156228 -0.16930737 -0.23620726 -0.17462735
0.23600721 -0.12759988 -0.18209757 -0.24795957 -0.2882821 -0.26578394 -0.10699943 -0.21288049
0.26293826 -0.15210481 0.24977015 -0.14979109 0.10453304 -0.056261428 0.1515315 0.2730061
0.12921588 -0.02511953 0.0013548981 -0.23335013 -0.27588782 0.13202925 0.44154346 0.031878825
-0.08217861 -0.18645492 0.18846165 -0.3152049 0.37833133 -0.32482475 0.2528518 -0.2567165
-0.30813056 0.14359617 0.06827618 -0.14489727 -0.007533187 -0.13287887 0.06478965 0.34442633
-0.060936086 0.21641226 -0.15589695 0.28575718 0.15486611 0.15522915 -0.30018914 -0.21933602
0.039284866 0.32236174 0.14657362 -0.05962159 -0.078856766 0.22523865 -0.12478401 0.17373137
-0.2625384 -0.2409274 0.022712376 -0.17519084 0.30867723 0.012009567 0.101324394 0.17959021
-0.14115018 -0.14099197 -0.20461354 0.101630904 0.27480423 -0.17891677 -0.15187515 -0.21461801
0.28138798 0.2387851 0.3351672 0.09802676 0.029700728 -0.09915378 -0.06886271 0.17121087
0.31556094 0.27831718 0.08706406 -0.1951257 0.26778957 0.14132002 -0.007197035 -0.030034767
-0.27351153 0.124085 -0.06342632 -0.19772403 -0.08251569 0.01178369 0.14387812 0.15961467
-0.09977938 -0.11531913 0.094311714 -0.29320112 -0.19802177 -0.084857866 -0.20606436 0.31315
0.33905008 -0.15602617 -0.327327 -0.07390873 -0.2508744 -0.3029835 -0.039901454 -0.20351101
-0.06046394 -0.17369537 0.18253127 0.17079903 0.37266126 0.10763474 0.010650049 0.12365415
0.2922477 -0.12982483 0.2169556 0.33988717 0.25480458 0.0764359 -0.079618596 -0.031598646
0.05119418 0.35574603 0.16714843 -0.3022135 -0.16378666 0.2012398 0.09292138 0.058919415
-0.15371634 0.08733273 -0.09839395 -0.060363434 -0.1191103 0.118391335 0.015007309 -0.2431929
-0.21690914 -0.10952344 -0.053591143 0.07100899 0.30490756 -0.23325728 0.12625831 0.14674939
0.27751407 0.11437716 0.25383335 0.24999414 0.27115583 0.35412017 -0.0753119 -0.11847064
-0.2141356 0.17410804 -0.14263761 -0.22069794 -0.19171295 0.08482097 0.18507184 -0.20198478
-0.22886717 0.008038853 0.33709317 0.112759575 -0.118508674 0.2785105 0.169962 0.207864
00000000: 4957 173d b5fc bd3e 91ce 16be 199f d93c
00000010: 0875 243e a57c 183e 5e63 803e b921 c03d
00000020: 3896 0d3e 85e3 323e b9f4 683e 6825 07be
00000030: da60 92bd 2bfa 5ebe a752 acbe 12c7 30be
00000040: 50b0 74be 52ab 0a3e 8d46 ec3d dfc2 93bc
00000050: 91cd 98be 0b6c 16be b0f2 713e 9a6a 4bbd
00000060: e9bd 1d3d 4a5c d83d ab53 81be aa78 0dbd
00000070: 02e9 103d a948 2abd e01b fbbd 73ef d2bd
00000080: 4bb5 41be 9aa7 52be a425 59bd fd8f 5c3d
00000090: ddcb 7d3e 8720 43be 485d 0e3e e4a6 6abe
000000a0: b6cb a33e ce94 5dbe 42ee 2cbe 9f70 89be
000000b0: 1cef 95be 941a 0abe b94d fabd 2929 d1bd
000000c0: 71df 0fbe 8928 403e 1084 85be 2147 2fbe
000000d0: 9345 48be 1db9 633b 452d 1b3e a557 a53e
000000e0: 7cd6 18be 5c0a 32be a16f 29bd d46e a5bd
000000f0: 1a17 823e 936c b83e 75ca 4c3d 30f4 743e
00000100: faa5 c53c c9ef 1abe d843 c83d 4d68 90be
00000110: b213 d2bd 17bd 513e 661e ac3e d176 853e
00000120: cc19 afbd cb31 203e 9091 adbd 66c6 2ebe
00000130: 03d7 d73e e95e 2dbe 51e0 71be 83d1 32be
00000140: e0ab 713e 8ba9 02be c977 3abe 1de9 7dbe
00000150: b699 93be d514 88be 8422 dbbd 58fd 59be
00000160: d89f 863e 5dc1 1bbe bfc3 7f3e d662 19be
00000170: 6b15 d63d 6272 66bd 132b 1b3e 75c7 8b3e
00000180: 2b51 043e 79c7 cdbc d696 b13a 56f3 6ebe
00000190: 2b41 8dbe ad32 073e fc11 e23e 5f93 023d
000001a0: 424d a8bd 0aee 3ebe 17fc 403e 8962 a1be
000001b0: a5b4 c13e 6e4f a6be cb75 813e 5870 83be
000001c0: 4ac3 9dbe e00a 133e 62d4 8b3d f35f 14be
000001d0: f4d8 f6bb 6611 08be 70b0 843d a658 b03e
000001e0: 1e98 79bd 2d9b 5d3e 73a3 1fbe c44e 923e
000001f0: 3995 1e3e 64f4 1e3e 64b2 99be 9f99 60be
00000200: 2be9 203d 990c a53e 6517 163e c535 74bd
00000210: a87f a1bd f6a4 663e c28e ffbd a3e6 313e
00000220: 6f6b 86be acb5 76be 4e0f ba3c 3a65 33be
00000230: f10a 9e3e c6c3 443c 2a83 cf3d 7fe6 373e
00000240: ac89 10be 3360 10be 3686 51be dd23 d03d
00000250: 24b3 8c3e f535 37be 2985 1bbe d3c4 5bbe
00000260: 1612 903e 1584 743e 099b ab3e 41c2 c83d
00000270: f14e f33c 2311 cbbd e407 8dbd e751 2f3e
00000280: 3491 a13e 977f 8e3e a44e b23d 08cf 47be
00000290: b71b 893e 32b6 103e 1bd5 ebbb 790b f6bc
000002a0: b409 8cbe 4720 fe3d a9e5 81bd 2b78 4abe
000002b0: fcfd a8bd 6110 413c c954 133e 0772 233e
000002c0: 2259 ccbd 702c ecbd 8026 c13d 751e 96be
000002d0: 38c6 4abe f6c9 adbd 8902 53be 3255 a03e
000002e0: f997 ad3e 53c5 1fbe 6897 a7be 765d 97bd
000002f0: 9c72 80be a720 9bbe b56f 23bd 3165 50be
00000300: 09a9 77bd 33dd 31be 7ae9 3a3e f1e5 2e3e
00000310: 75cd be3e 9a6f dc3d 8b7d 2e3c 633e fd3d
00000320: 7ea1 953e cdf0 04be 9c29 5e3e b105 ae3e
00000330: bf75 823e 6d8a 9c3d 130f a3bd 956d 01bd
00000340: fdb0 513d 5824 b63e f528 2b3e babb 9abe
00000350: b1b7 27be ce11 4e3e 914d be3d 7c55 713d
00000360: d167 1dbe 81db b23d c482 c9bd a63f 77bd
00000370: 1af0 f3bd 2877 f23d 37e1 753c 8f07 79be
00000380: 6e1d 5ebe d34d e0bd 6382 5bbd 296d 913d
00000390: d81c 9c3e ffda 6ebe dc49 013e 7945 163e
000003a0: 5316 8e3e 933e ea3d 72f6 813e 77fe 7f3e
000003b0: f0d4 8a3e 3d4f b53e 203d 9abd bca0 f2bd
000003c0: 5d46 5bbe 6149 323e 980f 12be a4fe 61be
000003d0: 6650 44be 9eb6 ad3d 7983 3d3e 19d5 4ebe
000003e0: 285c 6abe 65b5 033c 7a97 ac3e 7eee e63d
000003f0: adb4 f2bd ee98 8e3e 850a 2e3e 4dda 543e

fc3.bias f4 [2]
-0.003350591 -0.026345348
00000000: 9795 5bbb 33d2 d7bc

bn.weight f4 [256]
1.0649283 0.49033165 0.7979506 1.0152621 0.81913024 0.4472803 1.1091758 0.16540769
0.5151396 0.98923534 0.55469644 0.6360833 0.41794625 0.40745303 0.61822546 0.2904385
0.5716005 0.84063715 0.22421591 0.44669715 0.52257913 0.6203924 0.19078241 0.7841565
0.7300499 0.37561116 0.9278111 0.91053 0.8229688 0.46836644 0.7363278 0.28264308
0.6854934 0.21128942 1.0012417 1.1854533 1.0524004 0.80690545 0.63912827 0.2208137
0.6362064 0.33840612 0.995082 0.32197818 1.0357983 0.9185789 0.56859225 0.24535894
0.42519957 0.8830995 0.44559413 0.52618194 0.9560099 0.9600914 0.98834467 0.43544456
0.618399 0.92676413 0.7452101 0.27939823 0.683102 0.6204076 0.3615952 0.27157262
0.8564885 0.40576145 0.361305 0.6678761 0.62090796 0.18492202 1.0202004 0.54840535
0.87440395 1.004892 0.4046586 0.55147094 0.87572825 0.595941 0.73243606 0.48882526
0.3273461 0.48993662 0.30901715 0.49355862 0.8954619 0.5625474 0.72819066 0.32482818
0.26276258 0.82199687 0.4357884 0.9048595 0.19691747 0.31715897 0.32752883 0.6535789
0.27901134 0.6953648 0.9047169 0.261939 1.110718 1.0737901 0.6106613 0.402482
0.55749595 0.37558708 0.80379266 0.9267032 0.935604 1.030073 0.43229192 0.83764833
0.2848462 0.35767674 0.9813985 0.5048442 0.41256955 0.4222058 0.944605 1.0775934
1.0929408 0.70708185 0.9743648 0.9318456 0.481763 0.8740053 0.9149747 0.8714924
0.21951973 0.49336877 0.23808633 0.48971793 0.98210967 0.9331417 0.6908528 0.8561251
0.926158 1.0561097 0.20719999 0.8181575 0.80020744 0.669109 0.25573835 0.49658918
0.5629696 0.49895614 0.40308627 0.65907204 1.1589234 0.52625215 0.35061145 0.51938206
0.2961973 0.25369143 0.3961635 0.38547626 0.8896672 0.85335463 0.67005134 0.6402799
0.4558271 0.6814389 0.18656354 0.81625056 0.27907535 0.6291993 0.607374 0.22595221
0.81505823 0.26633126 0.71100634 1.0673375 0.48192188 0.82987034 0.9226586 1.074721
0.71079254 1.0679802 0.9720771 0.9247169 0.2550204 0.4098163 0.4968658 0.8052153
0.24789822 0.81353945 0.43476304 0.39783302 0.33354044 0.33165002 1.1555442 0.3040264
0.9853121 0.6035014 1.1340535 0.8275747 0.8350207 0.3243368 1.0475827 1.0421228
-0.27516535 0.56162876 0.45636883 0.72492856 1.029299 1.0456375 1.0134448 0.50848365
0.925759 0.23166028 0.6687202 0.80771106 1.0493454 1.1383009 0.82889825 0.5373252
0.9291734 0.5289063 0.49146134 0.55418134 0.775964 0.87318987 0.334943 0.84250283
0.91662276 0.7742294 1.193549 0.5911531 0.9970047 1.1319213 0.8674138 1.0702946
0.5619065 1.1051435 0.5920999 0.6977516 0.7187074 0.28320625 0.435575 0.73097223
0.47793686 0.46464312 0.9514458 0.7052758 0.3959997 0.6807141 0.420943 1.1528255
0.43385094 0.86685354 0.4690965 0.6159992 0.39083898 0.84196633 0.22802374 0.2826576
00000000: 924f 883f c00c fb3e 7e46 4c3f 1cf4 813f
00000010: 85b2 513f ec01 e53e 79f9 8d3f a260 293e
00000020: 30e0 033f 873e 7d3f 9600 0e3f 5bd6 223f
00000030: 0dfd d53e af9d d03e 0644 1e3f 5bb4 943e
00000040: 6954 123f ff33 573f db98 653e 7db5 e43e
00000050: bfc7 053f 09d2 1e3f 775c 433e 7bbe 483f
00000060: 8de4 3a3f 1b50 c03e 0785 6d3f 7e18 693f
00000070: 15ae 523f bacd ef3e fb7f 3c3f 98b6 903e
00000080: 7f7c 2f3f 415c 583e b028 803f efbc 973f
00000090: 0eb5 863f 5b91 4e3f e99d 233f fd1c 623e
000000a0: 6cde 223f 9143 ad3e b2bd 7e3f 53da a43e
000000b0: 0a95 843f fd27 6b3f 438f 113f 603f 7b3e
000000c0: c2b3 d93e cf12 623f ea24 e43e dcb3 063f
000000d0: 11bd 743f 8dc8 753f 2804 7d3f 97f2 de3e
000000e0: 664f 1e3f 6a40 6d3f 17c6 3e3f 490d 8f3e
000000f0: c6df 2e3f 08d3 1e3f 0223 b93e 910b 8b3e
00000100: d542 5b3f f7bf cf3e f8fc b83e eef9 2a3f
00000110: d3f3 1e3f 335c 3d3e ed95 823f 4b64 0c3f
00000120: f0d8 5f3f 4da0 803f 692f cf3e 332d 0d3f
00000130: ba2f 603f 978f 183f ee80 3b3f 4e47 fa3e
00000140: e899 a73e f9d8 fa3e 7f37 9e3e b7b3 fc3e
00000150: fe3c 653f 1b03 103f b46a 3a3f e14f a63e
00000160: d188 863e 636e 523f a81f df3e dfa4 673f
00000170: bca4 493e a962 a23e dcb1 a73e f250 273f
00000180: 93da 8e3e 6d03 323f 879b 673f de1c 863e
00000190: 022c 8e3f f471 893f 4d54 1c3f 1f12 ce3e
000001a0: 0eb8 0e3f f34c c03e 5bc5 4d3f 6c3c 6d3f
000001b0: be83 6f3f 6fd9 833f 5e55 dd3e 1f70 563f
000001c0: 5cd7 913e 6821 b73e ef3c 7b3f 783d 013f
000001d0: 513c d33e 5c2b d83e a2d1 713f 95ee 893f
000001e0: 7ce5 8b3f 5103 353f f96f 793f 6f8d 6e3f
000001f0: a4a9 f63e d0be 5f3f c83b 6a3f 201a 5f3f
00000200: c8c9 603e d59a fc3e e7cc 733e 4fbc fa3e
00000210: 8a6b 7b3f 60e2 6e3f bbdb 303f 042b 5b3f
00000220: b118 6d3f 9a2e 873f 3c2c 543e c572 513f
00000230: 65da 4c3f ba4a 2b3f 23f0 823e f040 fe3e
00000240: c71e 103f 2e77 ff3e 5361 ce3e f2b8 283f
00000250: 9a57 943f 76b8 063f 5883 b33e 39f6 043f
00000260: 2ca7 973e d8e3 813e f1d5 ca3e 255d c53e
00000270: 3bc1 633f 7375 5a3f 7c88 2b3f 62e9 233f
00000280: 2b62 e93e c872 2e3f 830a 3f3e ccf5 503f
00000290: f7e2 8e3e 3513 213f dd7c 1b3f 0460 673e
000002a0: a8a7 503f 925c 883e 8304 363f 849e 883f
000002b0: 77be f63e 6272 543f 5b33 6c3f 7590 893f
000002c0: 80f6 353f 93b3 883f 0bda 783f 3fba 6c3f
000002d0: 0992 823e 71d3 d13e 3265 fe3e 9722 4e3f
000002e0: 08d9 7d3e 1f44 503f 4399 de3e c5b0 cb3e
000002f0: d0c5 aa3e 08ce a93e dfe8 933f 59a9 9b3e
00000300: 6a3d 7c3f 117f 1a3f aa28 913f efdb 533f
00000310: ebc3 553f 790f a63e 3117 863f 4864 853f
00000320: 79e2 8cbe e7c6 0f3f 2da9 e93e eb94 393f
00000330: 12c0 833f 73d7 853f 8fb8 813f fc2b 023f
00000340: 8bfe 6c3f 5a38 6d3e 3f31 2b3f 27c6 4e3f
00000350: f350 863f d8b3 913f ad32 543f 258e 093f
00000360: 4fde 6d3f 6766 073f d2a0 fb3e d4de 0d3f
00000370: 94a5 463f 5f89 5f3f a67d ab3e 44ae 573f
00000380: caa7 6a3f e633 463f 37c6 983f cf55 173f
00000390: b33b 7f3f cce2 903f d50e 5e3f 6aff 883f
000003a0: 1bd9 0f3f 5875 8d3f dc93 173f d99f 323f
000003b0: 35fd 373f 6900 913e b003 df3e ff20 3b3f
000003c0: 24b4 f43e b4e5 ed3e f491 733f f48c 343f
000003d0: 79c0 ca3e 4743 2e3f d785 d73e c98f 933f
000003e0: b621 de3e 1dea 5d3f 6b2d f03e 20b2 1d3f
000003f0: 0c1c c83e 1b8b 573f 0e7f 693e 7fb8 903e

bn.bias f4 [256]
-0.040059708 0.0673989 -0.025795987 0.025863005 0.024536958 0.03857394 -0.054069232 0.083616495
-0.06461868 -0.041768488 -0.040911887 -0.008976801 0.072093174 0.0028911754 -0.04409848 0.05056057
-0.01020544 -0.0097642895 -0.014774273 -0.032000534 -0.014410543 -0.037387297 -0.061259147 0.018957898
-0.008134609 -0.06266601 -0.0094233025 0.044233877 -0.033260684 -0.03702071 0.03228448 0.016915835
0.02654375 -0.04656129 -0.055902142 0.020246275 -0.014829051 0.010752962 -0.03199355 -0.052862555
0.044574734 -0.050285965 0.026933566 0.05158818 0.0005175964 0.0041532647 0.021275612 0.06679343
-0.039432433 -0.02144696 -0.069350086 -0.017837435 0.07778425 -0.039501816 0.0042342525 0.006958642
-0.011525683 -0.03415996 -0.0452961 -0.022256976 -0.02186338 -0.00517874 0.057785552 0.05703186
0.040032495 0.009675726 -0.044609264 0.02689445 -0.051981412 0.0994644 0.025317093 -0.04209972
-0.009525238 -0.07463954 0.049640663 -0.042178873 0.04835355 -0.06505085 0.011729808 -0.05147739
-0.0057551917 -0.0120360125 -8.9615714e-05 -0.0507613 -0.030849298 -0.057678178 -0.020096064 0.04402781
-0.007822153 0.00015186374 -0.045350887 -0.017616559 0.016876025 -0.08046488 -0.1081755 0.011315096
-0.037558712 -0.06761363 -0.04492211 -0.020302568 -0.007955612 -0.038697444 -0.03588405 0.0007822255
0.012905184 0.0033041488 -0.015637508 -0.029537927 0.018705485 -0.032371268 -0.029388092 0.00029402805
0.05744126 0.0032076272 -0.03304186 0.019659799 -0.0326367 -0.019221563 0.04440582 0.055037312
-0.009625524 -0.03101126 0.035421703 -0.016631998 0.022708379 0.03867149 0.00014498719 -0.0067581763
0.14390069 -0.06593048 -0.029384341 -0.053990997 -0.030934345 0.016863775 0.0007528054 0.03558455
-0.01169398 -0.016398836 0.11193695 -0.012648454 -0.049278196 -0.07583374 0.031277798 -0.04579308
-0.069073245 -0.038919948 0.029477626 -0.034879386 0.033471487 0.0011380451 -0.039549127 -0.058458515
-0.0780546 0.089207366 -0.011493022 0.114157304 0.0015950382 0.042565312 -0.018241996 0.046923872
-0.011616534 0.0031864094 -0.06520279 -0.016316745 -0.013117996 0.06161136 0.01557706 -0.0464449
-0.012883111 -0.012855137 -0.0031204114 -0.003770995 -0.026289888 -0.035229933 0.017413849 0.0028433928
0.037117787 0.030295717 -0.033789463 0.003946673 -0.04792735 -0.04369669 -0.029816356 -0.036528222
-0.0019990297 -0.015668193 0.05425548 -0.0172356 -0.016006863 -0.044780772 -0.03247065 0.067112595
-0.014916679 0.024761375 -0.03173971 0.018714113 0.017265853 -0.09922775 -0.016749294 -0.0025021445
0.11992219 0.0012436647 -0.056590125 -0.018487398 -0.00016094818 0.008295353 -0.026046852 0.009977067
-0.026773734 0.028265815 0.008546263 0.04396482 -0.010132155 0.056699563 0.014083924 -0.04571033
-0.039288655 -0.012424676 -0.0109345075 -0.04860909 -0.0037555557 0.05123138 0.025830634 -0.06895675
-0.0014002048 0.025125736 0.081892 -0.014351175 -0.04783394 -0.013599835 -0.034222603 -0.017851204
-0.0014907309 -0.0118546495 -0.036615074 -0.015174691 0.020692082 0.11839271 0.0193437 -0.0044913995
-0.051415917 0.012399406 0.048999257 -0.019135442 0.025455547 0.03916886 0.0058991574 -0.034304116
-0.008363252 -0.030196507 0.05901838 -0.006102073 0.04079801 -0.015925981 0.14165398 0.0868627
00000000: a615 24bd 6f08 8a3d 1b52 d3bc a7de d33c
00000010: bb01 c93c b5ff 1d3d b377 5dbd 203f ab3d
00000020: cc56 84bd 6f15 2bbd 3993 27bd 6f13 13bc
00000030: 96a5 933d e079 3d3b 9ca0 34bd 9a18 4f3d
00000040: b834 27bc 66fa 1fbc cb0f 72bc fe12 03bd
00000050: 331a 6cbc 6c23 19bd dfea 7abd 984d 9b3c
00000060: 0647 05bc 0957 80bd 3264 1abc 952e 353d
00000070: 5b3c 08bd 07a3 17bd bb3c 043d 1493 8a3c
00000080: 4772 d93c 0db7 3ebd a5f9 64bd 84db a53c
00000090: 8cf5 72bc 312d 303c ab0b 03bd 6886 58bd
000000a0: ff93 363d a8f8 4dbd c8a3 dc3c 214e 533d
000000b0: 4eaf 073a 1c18 883b 314a ae3c feca 883d
000000c0: e783 21bd 89b1 afbc 6b07 8ebd d01f 92bc
000000d0: 594d 9f3d a8cc 21bd 7cbf 8a3b 5205 e43b
000000e0: 38d6 3cbc 50eb 0bbd 6788 39bd 4354 b6bc
000000f0: d51a b3bc 6bb2 a9bb 8bb0 6c3d 3d9a 693d
00000100: 1df9 233d f086 1e3c 34b8 36bd c051 dc3c
00000110: 76ea 54bd feb3 cb3d cb65 cf3c c270 2cbd
00000120: be0f 1cbc 9ddc 98bd 0254 4b3d c1c3 2cbd
00000130: 5f0e 463d 6139 85bd 612e 403c f5d9 52bd
00000140: 0c96 bcbb b232 45bc 12f0 bbb8 15eb 4fbd
00000150: abb7 fcbc f43f 6cbd 80a0 a4bc 8156 343d
00000160: 7d28 00bc 9d3d 1f39 dac1 39bd 9a50 90bc
00000170: 973f 8a3c c5ca a4bd 1e8b ddbd f462 393c
00000180: 2ad7 19bd 0479 8abd 3f00 38bd 9251 a6bc
00000190: 4158 02bc 3681 1ebd 27fb 12bd 440e 4d3a
000001a0: 4470 533c 6b8a 583b 3b1a 80bc 86f9 f1bc
000001b0: 3f3c 993c bc97 04bd 4cbf f0bc c727 9a39
000001c0: 8747 6b3d 0e37 523b e756 07bd 960d a13c
000001d0: 0fae 05bd 8a76 9dbc e1e2 353d ce6e 613d
000001e0: 60b4 1dbc 530b febc 5916 113d d43f 88bc
000001f0: ec06 ba3c ff65 1e3d b407 1839 b173 ddbb
00000200: b45a 133e 8f06 87bd 6eb7 f0bc aa25 5dbd
00000210: 066a fdbc e625 8a3c ea57 453a 1bc1 113d
00000220: 1b98 3fbc da56 86bc 333f e53d 763b 4fbc
00000230: efd7 49bd b84e 9bbd 261d 003d 8691 3bbd
00000240: 4676 8dbd 866a 1fbd 107b f13c b0dd 0ebd
00000250: 6619 093d 752a 953a 44fe 21bd 3272 6fbd
00000260: 17db 9fbd 5ab2 b63d 3a4d 3cbc 4ecb e93d
00000270: 9a10 d13a f758 2e3d 3d70 95bc 3f33 403d
00000280: 4653 3ebc 14d3 503b 0a89 85bd b2aa 85bc
00000290: ddec 56bc 325c 7c3d ed36 7f3c 023d 3ebd
000002a0: af13 53bc 5a9e 52bc d17f 4cbb cc22 77bb
000002b0: e45d d7bc 434d 10bd 7da7 8e3c 3758 3a3b
000002c0: d208 183d b92e f83c d266 0abd 1853 813b
000002d0: 784f 44bd 4dfb 32bd 6e41 f4bc 9e9e 15bd
000002e0: 2702 03bb 955a 80bc ff3a 5e3d ac31 8dbc
000002f0: d320 83bc 0b6c 37bd f2ff 04bd 5472 893d
00000300: 1665 74bc 5ed8 ca3c 8001 02bd 574e 993c
00000310: 1e71 8d3c eb37 cbbd d135 89bc 05fb 23bb
00000320: c499 f53d 7602 a33a 0ccb 67bd e272 97bc
00000330: 33c4 28b9 3be9 073c 3560 d5bc da76 233c
00000340: 9754 dbbc b68d e73c a005 0c3c 7514 343d
00000350: 5701 26bc cd3d 683d 42c0 663c c13a 3bbd
00000360: 24ed 20bd de90 4bbc a626 33bc 531a 47bd
00000370: c51f 76bb ffd7 513d c49a d33c 3239 8dbd
00000380: 1487 b7ba 7dd4 cd3c feb6 a73d 3121 6bbc
00000390: 85ed 43bd d8d1 5ebc 002d 0cbd b03c 92bc
000003a0: a164 c3ba 013a 42bc b0f9 15bd 449f 78bc
000003b0: 7182 a93c e177 f23d ae76 9e3c 972c 93bb
000003c0: 7f99 52bd e126 4b3c 72b3 483d eec1 9cbc
000003d0: 2788 d03c 876f 203d b84d c13b 7982 0cbd
000003e0: 0506 09bc aa5e f7bc 42bd 713d e6f3 c7bb
000003f0: d01b 273d 3477 82bc be0d 113e 12e5 b13d

bn.running_mean f4 [256]
0.56673497 0.48694548 1.1254994 0.13021784 0.24303038 0.05813396 0.2524739 2.2578442
2.0207 0.13161832 0.1065916 0.586275 0.15000777 0.83001703 0.5133741 0.43224606
2.0448735 0.043172948 1.6502538 0.76126695 1.4299672 0.0005199563 1.2163606 0.00017143239
0.9837867 0.98404187 0.5993615 0.7458169 0.30486056 0.052649762 2.6130903 6e-45
0.60750645 6e-45 0.6950599 0.26978114 0.3389388 0.045422122 0.5860515 0.029834071
9.5199604e-05 6e-45 6e-45 1.1720477 2.0677233 0.06253542 0.7104918 0.97010535
0.040048122 0.00015652218 1.3809274 1.283877 0.025818318 0.34962487 0.012964087 6e-45
0.019303216 0.16442397 0.006782664 1.5975761 0.8275883 0.4591667 0.06128543 2.8746266
0.23133765 0.3658221 1.0369658 0.7044914 0.23071477 1.2975715 1.289635 0.46607494
3.146774 6e-45 0.5909417 0.16150978 0.5955342 0.31396002 1.3397971 0.00027023174
0.53458893 0.6919599 0.051275223 0.09753588 1.213904 6e-45 1.1265278 0.025153276
3.2009568 0.04467816 0.00031612522 1.1533844 3.4877522 0.39111114 0.68686974 0.00012280235
1.0142751 6e-45 0.10472672 0.04418148 1.5908209 0.008827639 0.07679244 6e-45
1.1075956 0.92318904 0.045124844 2.9435685 1.9331716 0.7014296 1.5727239 2.1165676
6e-45 0.21765311 1.4927164 0.049383275 0.75004154 0.7738312 1.2052237 0.933057
0.02828909 0.518149 0.89453554 1.1557753 0.7300489 0.29347503 1.1686885 0.9483527
0.9520854 0.07230615 0.12645899 7.056925e-06 0.026808808 0.24761945 0.85484385 0.03891398
0.074851416 0.4995043 2.29714 1.100842 1.1527498 0.0085705025 0.606872 0.30112046
0.08138759 0.18184593 0.67409027 6e-45 0.7305198 1.2192302 0.8561883 0.030151077
0.011155063 0.58217555 6e-45 6e-45 0.00021920637 0.53912497 0.022486052 1.5744941
0.9256565 0.23807529 6e-45 6e-45 1.9666951 0.8816461 0.7754681 0.30826843
0.27313775 0.072360426 0.00016398475 1.7998892 0.64937437 1.4389241 0.6072438 1.4728434
1.1121773 1.2398221 6e-45 1.9905542 0.03269837 0.2244999 0.17409128 0.39135426
1.4684072 0.15448767 0.0453388 1.7582494 0.032733243 1.7975874 0.22029918 0.0010032093
0.015721466 0.35781693 1.2124606 0.32840672 1.0573782 0.10642221 0.030519223 0.118059605
6e-45 0.7235317 6e-45 0.0040977215 0.021710332 0.9923227 0.035393704 0.24574675
0.20615758 1.3796638 0.2928374 0.42190433 0.00065009785 6e-45 1.4558388 0.33066005
0.084841155 0.7034204 1.3416767 0.27106756 0.0006038799 0.020287294 1.9431065 0.58287114
0.030739676 0.8103705 0.27919734 0.45068058 0.23639719 0.7074272 0.000101442274 6e-45
0.43611443 1.4511391 0.06829932 1.8631674 1.4345467 0.053392038 6e-45 0.14053328
0.5253512 1.3366393 0.3523626 0.0005011625 0.825396 0.108643025 6e-45 0.13146582
0.0006390818 0.012993708 1.1536986 0.19092283 0.4238953 1.1956918 1.1731786 0.10998802
00000000: 8b15 113f eb50 f93e 5d10 903f d357 053e
00000010: f5dc 783e e01d 6e3d 4244 813e 8580 1040
00000020: 2653 0140 f4c6 063e b24c da3d 1e16 163f
00000030: a39b 193e ff7b 543f 7c6c 033f 5b4f dd3e
00000040: 35df 0240 1ed6 303d 843b d33f 64e2 423f
00000050: 2a09 b73f ad4d 083a b4b1 9b3f 88c2 3339
00000060: 72d9 7b3f 2bea 7b3f c16f 193f dbed 3e3f
00000070: af16 9c3e 47a7 573d df3c 2740 0400 0000
00000080: 8b85 1b3f 0400 0000 72ef 313f c120 8a3e
00000090: 6389 ad3e 8c0c 3a3d 7907 163f 9566 f43c
000000a0: e6a5 c738 0400 0000 0400 0000 a905 963f
000000b0: 9455 0440 9212 803d cae2 353f d358 783f
000000c0: 8009 243d 1a20 2439 3bc2 b03f 1556 a43f
000000d0: f080 d33c 0802 b33e 5267 543c 0400 0000
000000e0: c721 9e3c c25e 283e 1c41 de3b 607d cc3f
000000f0: d4dc 533f e617 eb3e 6e06 7b3d e2f9 3740
00000100: c7e3 6c3e 094d bb3e 4cbb 843f 8c59 343f
00000110: 7e40 6c3e d316 a63f c212 a53f 60a1 ee3e
00000120: bf64 4940 0400 0000 f547 173f d262 253e
00000130: ee74 183f 5ebf a03e 797e ab3f e4ad 8d39
00000140: d2da 083f 4924 313f f805 523d e4c0 c73d
00000150: 3561 9b3f 0400 0000 1032 903f 3e0e ce3c
00000160: 7adc 4c40 7200 373d 9cbd a539 1aa2 933f
00000170: 5537 5f40 b83f c83e b2d6 2f3f 81c4 0039
00000180: c4d3 813f 0400 0000 f67a d63d a4f7 343d
00000190: 05a0 cb3f cda1 103c 5b45 9d3d 0400 0000
000001a0: b1c5 8d3f 1e56 6c3f d4d4 383d 6d63 3c40
000001b0: 2b72 f73f e490 333f 044f c93f d875 0740
000001c0: 0400 0000 75e0 5e3e 5511 bf3f 1e46 4a3d
000001d0: b902 403f cd19 463f c544 9a3f d3dc 6e3f
000001e0: 86be e73c 6aa5 043f 4800 653f 72f0 933f
000001f0: 7ce4 3a3f 5c42 963e 9697 953f 3ec7 723f
00000200: debb 733f 3f15 943d 777e 013e 86ca ec36
00000210: 259e db3c f48f 7d3e 0cd7 5a3f 4464 1f3d
00000220: b34b 993d 07bf ff3e 5704 1340 64e8 8c3f
00000230: 4e8d 933f 4b6b 0c3c f75b 1b3f 762c 9a3e
00000240: 89ae a63d d235 3a3e 2e91 2c3f 0400 0000
00000250: 5803 3b3f bc0f 9c3f 282f 5b3f 64ff f63c
00000260: bac3 363c 7509 153f 0400 0000 0400 0000
00000270: c3da 6539 1804 0a3f ab34 b83c 0689 c93f
00000280: d3f7 6c3f 02ca 733e 0400 0000 0400 0000
00000290: aabc fb3f 8fb3 613f 1485 463f 5cd5 9d3e
000002a0: b6d8 8b3e b431 943d 52f3 2b39 c562 e63f
000002b0: 663d 263f aa2e b83f 5474 1b3f 2286 bc3f
000002c0: d35b 8e3f 7eb2 9e3f 0400 0000 7bca fe3f
000002d0: baee 053d 4de3 653e fc44 323e 965f c83e
000002e0: c4f4 bb3f 0432 1e3e 2db5 393d 510e e13f
000002f0: 4b13 063d 5817 e63f 1c96 613e 1e7e 833a
00000300: 4eca 803c c833 b73e e931 9b3f ed24 a83e
00000310: 2b58 873f e3f3 d93d 7303 fa3c 3cc9 f13d
00000320: 0400 0000 6039 393f 0400 0000 2e46 863b
00000330: ded9 b13c dc08 7e3f fdf8 103d 09a5 7b3e
00000340: f91a 533e d398 b03f c9ee 953e d803 d83e
00000350: 546b 2a3a 0400 0000 ed58 ba3f 464c a93e
00000360: 33c1 ad3d 5c13 343f 10bc ab3f 5ec9 8a3e
00000370: b24d 1e3a 8a31 a63c b7b7 f83f 0b37 153f
00000380: c6d1 fb3c 7174 4f3f f4f2 8e3e 9bbf e63e
00000390: 1b12 723e f319 353f 68bd d438 0400 0000
000003a0: 644a df3e edbe b93f 84e0 8b3d 457c ee3f
000003b0: 3a9f b73f 9cb1 5a3d 0400 0000 f5e7 0f3e
000003c0: 6b7d 063f ff16 ab3f df68 b43e 7260 033a
000003d0: 274d 533f 3c80 de3d 0400 0000 fa9e 063e
000003e0: 0e88 273a 90e3 543c 65ac 933f 4681 433e
000003f0: ce08 d93e 6e0c 993f b72a 963f 6641 e13d
