saved/checkpoint_actor_agent_0.pth (torch_old, 296395 bytes, 10 tensors)

fc1.weight f4 [256, 24]
00000000: f037 6a3d 136d 343e a2a3 ccbc 2706 6a3d
00000010: 94f6 82bb 8f99 55bd c7ca 3a3c 293f c23c
00000020: 20c6 603d fb17 113e fcf5 39bc 57a3 46bb
00000030: 6ba9 d93c 6026 71bd 4c8d 35bb c2f7 a03c
00000040: 9219 e93d f0f0 f33d 3d6e bebc 0faf 93bc
00000050: 6c21 6f3d f66b 84bd 1633 d93c ad3d 74bc
00000060: 4cad c03d ffc8 e63d 7af7 003d 36b1 21bd
00000070: db10 0fbc 4e5e c0bd 0c66 62bd bc5f 333d
00000080: a160 463d dac9 1a3e 40ae 3d3a 4eec febc
00000090: cda1 6c3d 9bce 5dbd 0c3a 02bb 810e ac3c
000000a0: ad78 af3c f698 033e ec71 37bc b187 c7bd
000000b0: 2275 e03d 227b 36be 723d 823c 630a ddbd
000000c0: 60a1 14bd d936 cc3d 4801 80bd 95d6 6e3d
000000d0: 516d f1bc 4dea a33c c3ad 9dbc c88a 83bb
000000e0: 0529 713c 3fe9 af3d bbb6 cd3c ba2c b2bd
000000f0: c8b3 213d 1e3a 5a3d 9bde 30bc a28d c8bd
00000100: 55e2 843b 2171 0f3c 35c2 38bc e3a0 16be
00000110: 6658 c63c 5313 7e3d fee3 273d 7936 e4bd
00000120: 6693 b7bd ca79 d2bd 8fb7 ed3a 26be 08be
00000130: adfd 7a3d 8185 72bd d530 503b c657 3cbd
00000140: 2f5d c3bd db0c 1dbe 0837 103d b527 96bd
00000150: 897d 66bd 2bfc a5bd 2460 f2bc 3e81 c8b8
00000160: 11d7 603c 59da 28bd c6b3 243d 671e 6d3d
00000170: d413 a1bc fec8 d03d 46d7 b3bb d81e c63c
00000180: 4ab9 d8bc aebe 74bc aa7e 253b 8637 ecbb
00000190: fe6a df3d a041 163d 5dba 2a3d 731a f5bc
000001a0: b916 ef3c 60b2 663b 634b 233d 7b39 e13c
000001b0: f1d7 23bd 25d7 f2bc 6881 83bc 503e 333b
000001c0: cb52 bcbc 5217 5a3d f1f0 4f3c d188 0ebe
000001d0: 5553 9bbd 577b a4bd 4add 38bb ad3c 23be
000001e0: 3311 b7bc 84dc cabd ac9d 76bd 05b3 033d
000001f0: 848f b2bd 0bb3 0a3e ef75 1b3b 0523 843d
00000200: 60c9 71bc cd40 58bc 9e4e 3c3c 9c73 f43d
00000210: 2f5c b03d f867 a43d 877c 813c 9f4b 803d
00000220: 2b65 bfba bc7a 613b d477 2a3d 454e c53d
00000230: 1e93 a83d cd63 7d3d f120 f1bc 6bf8 db3c
00000240: b268 563c 6e4e afbd 5fdc e2bc 4635 d83d
00000250: bf96 99bd abb3 353d 9ed9 083d 00f2 b23d
00000260: c9a2 8bbc 21a7 42bd 587c 3abd d3f6 7d3d
00000270: 4435 43bd 220f bf3b c42c 5fbd 7036 aa3c
00000280: 3f43 503d 99c7 593d aefc 3c3d dc9c 743d
00000290: cdae afbd 85fb 3fbd e64a 1abd 51f9 0c3c
000002a0: 0ce6 243c 1df2 ef3d 8b7c d0bc de3e f43c
000002b0: 3929 80bd 90c8 f4bd 9923 48bc 7e81 16bd
000002c0: 651f 1d3d baa3 053d bd46 9f3c 6822 433c
000002d0: c871 2abd 62c8 d1bd fb90 e4bc fc59 983c
000002e0: f087 1abb c1cd d03c 8a6b 52bd 709c d9bc
000002f0: 204c 213d c650 5fbe c6a6 5b3d 92cc f63c
00000300: 58e9 49bd ef57 bb3c cf7b 42bd 7a17 8abd
00000310: 7d5e cfbc c7ac fdbd 856b 513d 4019 1fbd
00000320: 896a 20bd fae2 3e3a 8ceb e9ba 2a3a 1bbd
00000330: d70d 30bc f86b 4cbe 45ba 823d 547e 40bd
00000340: 4f56 0b3c 88a1 4b3d 2440 363c ad96 a9bc
00000350: 0023 70bc 11fe 22be fc60 c139 4389 85bc
00000360: 1af9 80bd 4e18 f93d 5b3f d53c 9088 10bd
00000370: aff9 193d 563a 003e 1bb7 c6bc 9901 42bc
00000380: 2941 123c 082e 283d 5b3c ae3c 4bdd 0f3c
00000390: cdf0 d03d 1a87 fbba 75cf aebc 8966 9cbd
000003a0: cb3d 503d 73a2 e63d 70b7 823c cdad ea3b
000003b0: afbf 243e 081a b2bd 0185 c4bc 81ee d8bc
000003c0: ad85 a03d 3c41 773d 1f4e 0dbb 654d 90ba
000003d0: c47f 42bd 4621 c6bd e83b 0fbc 6151 cf3c
000003e0: 1988 65bb d927 ea3c 61af 17bd ce42 81bd
000003f0: f165 57bd c1de 16be 21cb 363d b8c1 aabd
0.057182252 0.17619734 -0.02498037 0.057134774 -0.0039966796 -0.052148398 0.011400885 0.023711758
0.054876447 0.14169304 -0.011350151 -0.003030976 0.026570043 -0.058874488 -0.0027702628 0.01964939
0.1138183 0.119111896 -0.023245925 -0.01802781 0.058381483 -0.064659044 0.026513617 -0.014907283
0.09408054 0.11268806 0.031486012 -0.039475642 -0.008732046 -0.09392987 -0.0552731 0.04379247
0.048431996 0.15116063 0.0007235743 -0.031118538 0.057771493 -0.054152112 -0.0019871024 0.02100301
0.021419847 0.12851319 -0.011196595 -0.09742678 0.10959841 -0.17820409 0.01589844 -0.10792997
-0.03628671 0.09971399 -0.062502444 0.05831011 -0.029471071 0.020009184 -0.019247895 -0.0040143467
0.0147192525 0.0858941 0.025111547 -0.08699937 0.039478093 0.05327808 -0.010795261 -0.09792639
0.004055301 0.008754999 -0.011276771 -0.14709811 0.024212074 0.062030148 0.040988915 -0.11143202
-0.08963661 -0.10277136 0.001813637 -0.13353786 0.06127708 -0.05920935 0.0031767387 -0.045982145
-0.09539258 -0.15336935 0.035208732 -0.07331792 -0.056272063 -0.08104738 -0.029586859 -9.5608164e-05
0.013723151 -0.041223858 0.040210508 0.057890322 -0.019662775 0.10194586 -0.005488309 0.02418463
-0.02645554 -0.01493804 0.00252525 -0.0072087673 0.10909079 0.03668368 0.041681636 -0.029919839
0.02918564 0.0035201535 0.039866816 0.02749323 -0.04000086 -0.029643605 -0.016052917 0.0027350374
-0.022988698 0.053244896 0.012691722 -0.13919379 -0.07584254 -0.08031338 -0.002820807 -0.15941115
-0.022347068 -0.09905341 -0.06020896 0.03215315 -0.0871878 0.13544862 0.0023721417 0.06451992
-0.014757484 -0.013199043 0.011493353 0.11936113 0.086113326 0.08027643 0.01580645 0.062644236
-0.0014602294 0.003440543 0.041618183 0.09634069 0.082311854 0.061862756 -0.029434653 0.026851853
0.013086485 -0.08559881 -0.027692972 0.10557036 -0.07499456 0.044360798 0.03341066 0.08737564
-0.017045395 -0.047522668 -0.04552874 0.062002968 -0.04765822 0.0058306614 -0.05448605 0.020777911
0.05084538 0.053168867 0.04613941 0.059719905 -0.085782625 -0.046870727 -0.037669085 0.008604364
0.010064613 0.11716101 -0.025450012 0.029815134 -0.062578626 -0.11952317 -0.012215518 -0.036744587
0.03836002 0.032626845 0.01944291 0.011910059 -0.041612417 -0.10243298 -0.027901163 0.018597595
-0.002357956 0.025488736 -0.05137209 -0.026563853 0.03937924 -0.21808156 0.053625844 0.030126844
-0.0492948 0.022869078 -0.047481354 -0.06742759 -0.02531361 -0.1238647 0.05112793 -0.03884244
-0.0391641 0.0007281747 -0.0017846688 -0.037897266 -0.010745487 -0.19963062 0.06383184 -0.046995476
0.008504464 0.049714595 0.011123691 -0.02070173 -0.014656782 -0.15917231 0.00036884088 -0.016300803
-0.06297512 0.12162839 0.026031187 -0.035286486 0.037591632 0.12522253 -0.024257233 -0.011841201
0.008926668 0.041059524 0.021269014 0.008780788 0.10202179 -0.0019190044 -0.021339158 -0.076367445
0.05084018 0.112614535 0.01595661 0.007161832 0.16088746 -0.08696371 -0.023989202 -0.026480915
0.07837997 0.060364947 -0.0021561456 -0.0011009393 -0.047485128 -0.09674315 -0.00874231 0.02530736
-0.0035023747 0.028583454 -0.03703249 -0.0631157 -0.052587453 -0.14733411 0.044627313 -0.0833773

fc1.bias f4 [256]
00000000: e933 28be 0668 063d 2c7e 263d 6d1f 1b3e
00000010: d3a8 1fbd 3ef5 2ebe 7bd0 46be 5c31 3fbd
00000020: dfcf 60be fc77 5abe 9f96 7c3d 646d 34be
00000030: a59a 31bd 3398 57be 4996 3fbd 9a5e 503e
00000040: 2dc0 23bd 9294 95bd e03f 89be 0605 a4be
00000050: 8127 83bd 58bb 33be 696a fabd 344a 49be
00000060: dd96 c7bd 7b73 a2be 5875 96bd c62f 2fbd
00000070: 1296 22be a6ea 20be 9471 4cbe 06ba 41be
00000080: 7235 37bd b15c b13d 362b b2bd 5aa0 1d3d
00000090: 8a81 2dbe a500 df3d 0418 85be 7760 403c
000000a0: c51e 04be 7846 fcbd fe7c cdbd 24d8 8bbe
000000b0: 3ea0 19be b206 37be 52aa f0bd c5ce 6dbe
000000c0: 4221 d33d 5c2b 103d bb6e 4bbe b445 593d
000000d0: 116e 79bd 894c 02be 7368 2bbd 6397 00be
000000e0: f05f cc3d 534c dcbd 6ef3 d4be 3410 be3d
000000f0: d1cc 853d 1358 d73c 9af0 a2bd 589b 6abe
00000100: a669 893c 3200 27bd 27b2 4cbe 6233 e23d
00000110: 783d 7abe 216d 0cbe 2ab5 adbc e74e 49be
00000120: ee25 2abe 88c9 20be 084c 02be cf12 9ebc
00000130: b073 ca3d 848e 673e a9ac 9a3d 8f64 8fbd
00000140: 48ce 1fbe 9c00 0dbe c312 6fbe 8995 57be
00000150: befd db3d 9eb5 13be 7edc abbd 3f85 b0ba
00000160: e3d1 53be a30e 533d af18 4fbd 0193 4dbd
00000170: 7055 d0bd 9910 093d abc7 60be f3f5 6fbe
00000180: 9e0a 973d 75d9 abbe c4e4 7b3d 1f63 47bd
00000190: 574c 29bd 354d 4cbe 4ef1 2dbd 158d a03b
000001a0: fc00 2dbe a8fa 2d3d 354a 833d 7ebc 7fbd
000001b0: f321 7d3d f8bc e2bd a017 24be a2dd 84be
000001c0: faba 2dbe 5192 54be a704 f2bd e4b2 813d
000001d0: 55d3 283e bc93 7cbe 1216 2bbe 0368 043d
000001e0: ad45 42be aff7 e5bc e5c0 3b3d 5b80 313e
000001f0: d32e 06bd 355f a13d 57ef 32be 689c 95bc
00000200: 8d4a 91bb 44f8 a2be 3671 82be 8629 703c
00000210: 37ff 9dbe 9230 033e 745e 063e 24f3 973d
00000220: 9b83 61bc e590 34bd b83d 363d 3348 743d
00000230: a82a 39bd d9ca 5bbe 0d9b a13d 89d1 1e3d
00000240: 5cef ef3d f16e 2ebe 7586 87bd 878b 0abe
00000250: db53 6abd 2a9e 903d a2f5 1b3c 0f26 fa3d
00000260: a16a 31bd 7961 3ebe 1339 c33d 5953 b63c
00000270: fb82 ec3d 16f1 8fbd 0215 61be bb8b c63d
00000280: 3121 b6bd bfa3 79bd 1547 43be 2410 873d
00000290: b16f 61be 44eb 013e 4964 f5bd 2c44 83bc
000002a0: 71d6 26bd 4061 603e bcec 97bd 7c4e a1be
000002b0: dab1 79be ab5e 67be f3d7 46be 163f 5fbe
000002c0: 8ab1 e4bd b57f d63d d41b ccbd c0f9 a23c
000002d0: f186 2ebe 85d6 98bd 3fce 1f3e 8731 aa3d
000002e0: b08d ce3d bc66 9abe 892d 8fbe 042e 63be
000002f0: f904 053c 4332 2e3e ac09 2c3e 4e98 183d
00000300: 85af b8bd 6bc4 78be a0e7 4e3e 33ba 6bbe
00000310: 9c07 cbbd 91b9 873d eb42 203d 9a62 ee3d
00000320: a952 b5bc b83f f7bd e3db 5bbd 94e4 6cbd
00000330: 81e2 b93d c35c 7b3e 5f5b 2cbe 0386 533d
00000340: 3b3e f2bd cff4 a9be 619f e8bc 8dc1 e4bd
00000350: 2e8d e13d 3546 c2bc 4e8c 14be aa9d 77be
00000360: 550d b63d 946b fd3d 0b1f 233d 9c3e a2bc
00000370: f054 f9bd 7077 af3c 88bd de3d a472 b9bd
00000380: dc2f 81bd 3fe2 92be 55d4 13be 61c2 0fbe
00000390: 6aae fbbb 36c7 d4bd 6643 623e f2ac d73d
000003a0: e069 0cbe d0f5 04be 2890 7f3d 8c74 5cbd
000003b0: c4e6 ecbd c233 0bbd e8aa 3dbc f3d0 443e
000003c0: 54e0 2bbe b2b8 81be eb97 bc3d b7d4 90bd
000003d0: bcb5 c5bd d62f de3d c6d4 e5bb e321 42be
000003e0: e1d4 1abd c4fa 01be 078b 9bbd 08b0 87be
000003f0: d105 2a3e f414 133e c8cb 8fbe 2c09 59bc
-0.16426052 0.03281405 0.04064767 0.15148707 -0.038979363 -0.1708574 -0.19415466 -0.046677932
-0.21954297 -0.21334833 0.06166708 -0.17619854 -0.04336037 -0.21054153 -0.046774182 0.20348588
-0.039978195 -0.07303728 -0.26806545 -0.32035083 -0.06404019 -0.17551935 -0.122273274 -0.19657212
-0.09745572 -0.3172873 -0.073466 -0.04277017 -0.1587756 -0.15714511 -0.19965202 -0.18918619
-0.044728704 0.086602576 -0.08699648 0.038483 -0.16943946 0.10888795 -0.25994885 0.011741749
-0.12902363 -0.12318128 -0.10033606 -0.2731334 -0.15002534 -0.17873648 -0.11751236 -0.23223408
0.10309078 0.0351976 -0.19866459 0.05304499 -0.060895983 -0.12724508 -0.041847657 -0.1255775
0.09979236 -0.10756745 -0.41591972 0.09280434 0.06533206 0.026287114 -0.07956047 -0.22910821
0.01677401 -0.04077167 -0.19989835 0.11044957 -0.24437511 -0.13713504 -0.02120455 -0.19659005
-0.16616032 -0.15701878 -0.12724316 -0.019296078 0.09885347 0.22612959 0.075524636 -0.07001602
-0.15606034 -0.13769764 -0.23347001 -0.21053137 0.10741757 -0.1442475 -0.08391665 -0.0013467445
-0.20685534 0.05152763 -0.05056065 -0.050189022 -0.10172546 0.033463094 -0.21951167 -0.23433666
0.07375072 -0.33564344 0.061497465 -0.048678514 -0.04133257 -0.19951327 -0.042466454 0.004899631
-0.16894907 0.042475373 0.06410638 -0.06243562 0.061799955 -0.11071199 -0.16024637 -0.25950342
-0.16965857 -0.2075894 -0.118172936 0.06332949 0.16486867 -0.24665731 -0.16707638 0.032325756
-0.18971892 -0.028072206 0.045838255 0.1733412 -0.0327595 0.078794874 -0.17474113 -0.018263057
-0.004433936 -0.31830037 -0.25476998 0.014658337 -0.30858776 0.12811497 0.13121969 0.07419422
-0.013764287 -0.044083495 0.044492453 0.059639167 -0.045206696 -0.21464099 0.07890902 0.038774047
0.11715576 -0.17034508 -0.066174425 -0.13529788 -0.057208877 0.070614174 0.009519013 0.1221429
-0.04331458 -0.1859187 0.095323704 0.02225654 0.1154842 -0.07028405 -0.2198067 0.0969462
-0.088930495 -0.060947176 -0.19070084 0.065948755 -0.22015263 0.12687403 -0.119820185 -0.016023718
-0.04073185 0.21912098 -0.074182004 -0.3150519 -0.24384251 -0.22594707 -0.19418316 -0.21801409
-0.111666754 0.10473577 -0.09966245 0.01989448 -0.17043664 -0.07462791 0.1560602 0.08310228
0.100856185 -0.30156505 -0.27964428 -0.22185522 0.008118861 0.17011361 0.16800565 0.037254624
-0.09017853 -0.24293678 0.20205545 -0.23020248 -0.09913561 0.06627191 0.039126318 0.116399005
-0.022134142 -0.120727 -0.053676497 -0.057835177 0.09076405 0.24547105 -0.1683173 0.051641475
-0.11828276 -0.33194587 -0.02839631 -0.111697294 0.11013256 -0.023715118 -0.14506647 -0.24181238
0.08889262 0.123740345 0.039824527 -0.019805245 -0.12174404 0.021419257 0.10875994 -0.09055069
-0.063079566 -0.28688237 -0.14436467 -0.14038993 -0.007680704 -0.10389559 0.22096023 0.105310336
-0.13712263 -0.12984395 0.062393337 -0.053822085 -0.115674525 -0.033984907 -0.011576392 0.19220333
-0.16784793 -0.25336224 0.092086636 -0.07071822 -0.09653804 0.10848968 -0.00701389 -0.1895824
-0.037800673 -0.12693316 -0.07594877 -0.2650149 0.16603781 0.14363462 -0.2808516 -0.013246816

fc2.weight f4 [256, 256]
00000000: d9f5 9fbd f4c2 a53d a689 e43c eb13 d43d
00000010: 818a b93d ae52 d43d 2d4b 30bd eb11 90bd
00000020: 9559 e2bc f945 77bd d4c9 b1bd 7682 853c
00000030: 5079 babd 6b87 073e 3e9c 01ba bc8c 93bc
00000040: 6c37 003d cb6b ea3d 65ba 21be 72dd 1b3e
00000050: ad9e e6bb 382c 34bd 827d 14be eca1 06bd
00000060: e696 21bd 9a02 153e 6fd2 37bd abed a5bd
00000070: f6df 24bd 1352 333d 0ad0 c83d a6d1 153e
00000080: 48d1 82bd 096a 78bc c490 3bbd ce09 253e
00000090: 5f0a ab3d 0ef3 10bd 2341 05be f5ac 423d
000000a0: cb8c 993c 26f8 133d 71b7 333d 8396 5b3e
000000b0: 4e5e 473d ebbb f53c f42c bf3d 6331 10be
000000c0: 1b89 093d 7e49 8e3d 8811 543d 26a4 92bc
000000d0: b643 863d e106 6cbd 6d9d c13d c17c df3d
000000e0: f42d bdbd c835 8fbd 896e 83bd 1991 89bc
000000f0: 3879 83bd 2bc5 5e3b 421c 25be 804b d4bc
00000100: 9324 92ba 2ecb 933d 89f9 de3d 5f37 21be
00000110: 05ea aabd 061f a3bd 6892 f7bd e70e aa3d
00000120: 4e15 473d ba84 453d 5a26 0b3e 50d6 be3d
00000130: c25b 143d a440 50bd 542f 543d 1373 1d3c
00000140: 68e7 163e a460 4a3d 35bb 9dba 0808 873b
00000150: 1f2d ba3d d370 4d3d 0472 8dbd 583c df3d
00000160: b24e 113d 192f 70bd d1eb 05be 4cee 26bd
00000170: 1158 b83c c4b1 19be b7ae 5ebc 9a99 9b3d
00000180: 7148 b63c ac5d 333d 5c1b 30bb ab4e 8dbd
00000190: 94b4 d53c 1ae9 eb3c 9983 afbc 8767 023e
000001a0: a334 b8bb b69e 153d c7a3 94bc 5b54 07bb
000001b0: 450d 1fbe 1b08 2339 7ee2 723d 599e f63d
000001c0: 2bd4 983d 1ae7 e7bc c31c e4bd 62a5 a9bc
000001d0: 2402 833d 0343 3d3a 06b1 1cbd c091 7d3d
000001e0: 6da6 5a3d 853a c5bd e5dc 123e cb04 33be
000001f0: 202d 84bd 0e52 baba f749 c03d 8e85 5b3b
00000200: 0fd5 0e3e 3714 d73d 50f8 053e 5ec2 853d
00000210: 1027 6b3c 51e9 023d 0acb 24be ee34 58bd
00000220: 3580 cbbc bb70 01bd 9482 493d 6f5e f0bb
00000230: eb7b acbc b213 3fbd 50bb b6bd eabf d73d
00000240: b3f0 cebd 8340 ca3c a0dc a3bd 7928 28bc
00000250: 3065 103d 4ff1 05be 2a72 08bd 7a78 c9bd
00000260: 40ff 8b3d 61b6 0c3c 9f5e e63d 9a0b f73c
00000270: 170e b2bd 341e a23d 77d0 21be 4fe2 b03d
00000280: 5b79 58bc 8327 17bc 704b b3bc 0103 f63a
00000290: 7c27 053e de89 173d 74b7 cfbd b5b0 583d
000002a0: 244e babd d25a 82bd 5504 303d 0047 883d
000002b0: 8880 ab3d f7e2 5bbd 95a0 933b b119 81bc
000002c0: e70b c33d d3d9 643c 569a a5bd c761 ab3d
000002d0: b57a ce3b 0d51 363e 2f3e 94bd 70bc 94bd
000002e0: 759d f63c 74a8 293e 5529 56bd e9c3 513e
000002f0: fc91 8b3d 480b 07be 2362 263d 3eab b83d
00000300: 41f7 063c 614e 133e 0546 453d a07d 70bd
00000310: 08ab a73d 0837 d3bd 35ff b33d 0f05 8c3d
00000320: 9262 1a3e 5128 7cbd e1bd 15be b042 bdbc
00000330: 10a9 6fbd d85c d63d 2f3f 31bd 0c8e ec3d
00000340: 676e 79bd 63fd 51bd 7340 1e3d 1055 1fbe
00000350: 8baa c7bd 6d2f 8cbc a4b7 de3d d5c3 1ebd
00000360: ff8e e33d 7606 7bbd b810 083d 0260 a7bd
00000370: b8de a3bc 6f5d c03d 908b dc3d 430e 65bc
00000380: bbc8 97bd 6624 14be 21f7 7a3d c0fc 54bd
00000390: 60b1 9bbc ed16 e9bd 8287 b03d fa8b eebd
000003a0: 5aa8 87bd eb21 28be 4d37 c23c 40e9 893c
000003b0: 7e38 2cbd 9a1b 39bc 5c79 dbbd 0d60 603d
000003c0: 559d 2f3d 09e5 05bd 8ae1 5c3d d60f 0abd
000003d0: 995f f2bd fb07 95bd 98c0 ac3c 558f 833d
000003e0: ee1e a8bc 1080 ba3d aa42 153c 41e1 353e
000003f0: 6e5d f7bc 3f99 0bbd adb4 d0bc 9a9e 373e
-0.078105636 0.08093825 0.027897667 0.103553616 0.09059621 0.103673324 -0.043040443 -0.070346676
-0.027630607 -0.060369466 -0.08681074 0.01629756 -0.0910517 0.13235252 -0.00049442414 -0.018011443
0.031302854 0.11446341 -0.1579376 0.15221193 -0.0070379586 -0.043987483 -0.14501002 -0.032869264
-0.03945055 0.14551774 -0.04487842 -0.08101972 -0.04025265 0.043779444 0.09805305 0.14630756
-0.063875735 -0.0151619995 -0.045792356 0.16117021 0.083515875 -0.035388045 -0.13013129 0.047528226
0.018743893 0.036125325 0.043876115 0.21444134 0.04867392 0.029996833 0.09334746 -0.1408134
0.03357802 0.06947611 0.05177453 -0.017900538 0.065558836 -0.057623748 0.09453855 0.10912467
-0.092372805 -0.0699268 -0.06417567 -0.01679282 -0.06419605 0.0033992033 -0.16124061 -0.025914907
-0.0011149816 0.07216488 0.10887439 -0.15743779 -0.08345417 -0.079649016 -0.12088472 0.08303624
0.048604302 0.04822228 0.13588849 0.093182206 0.03622032 -0.050842896 0.051802948 0.009609955
0.14736712 0.04940857 -0.0012033941 0.0041208304 0.090906374 0.050156426 -0.069065124 0.109001815
0.03547544 -0.058638666 -0.13078238 -0.0407546 0.02250293 -0.15009218 -0.01359146 0.075976565
0.02225134 0.043790504 -0.0026871776 -0.0689977 0.026087083 0.028797675 -0.021425055 0.12734805
-0.005621509 0.03652831 -0.018144501 -0.0020649645 -0.15532406 0.00015547911 0.05929803 0.12041921
0.07462343 -0.02830844 -0.11138298 -0.020708743 0.06396893 0.00072197634 -0.03825476 0.061906576
0.053381372 -0.09630302 0.14342077 -0.17482297 -0.064539194 -0.0014215128 0.09389108 0.0033496353
0.13948463 0.105019026 0.13083005 0.06531213 0.014352575 0.03196079 -0.16093078 -0.052784853
-0.024841407 -0.03160165 0.049196795 -0.007335476 -0.021055182 -0.046649642 -0.08922446 0.105346516
-0.101045035 0.024688965 -0.08001065 -0.010263556 0.03525275 -0.13080333 -0.033312 -0.09837432
0.068357944 0.008588404 0.11248516 0.0301569 -0.08694094 0.07915917 -0.1580218 0.08636915
-0.013212527 -0.009225729 -0.021886557 0.0018769206 0.13003343 0.036996715 -0.10142413 0.052902896
-0.090969354 -0.06364979 0.04297288 0.06654167 0.08374125 -0.053683247 0.004505227 -0.01575932
0.095237546 0.013967949 -0.08086078 0.08368259 0.006301249 0.17804356 -0.07238423 -0.07262504
0.030104378 0.16568166 -0.05228551 0.2048489 0.06814954 -0.13187897 0.040620934 0.09017037
0.008237661 0.14385368 0.04816248 -0.058713555 0.081869185 -0.10313231 0.08788911 0.06836902
0.15076664 -0.061561886 -0.14623214 -0.023103088 -0.05851084 0.10466927 -0.043273147 0.11550531
-0.060896304 -0.05126704 0.038635682 -0.15559793 -0.09749325 -0.017112458 0.108748704 -0.03876098
0.11111259 -0.06128546 0.03321907 -0.08172609 -0.020003662 0.09392821 0.10768807 -0.013980451
-0.07411333 -0.1446701 0.061270837 -0.051998854 -0.019005477 -0.11381326 0.08619596 -0.11647792
-0.066239074 -0.16419189 0.02370801 0.016834855 -0.042046063 -0.011298085 -0.10716507 0.0547791
0.042874653 -0.032689128 0.05392603 -0.03370651 -0.1183464 -0.07276913 0.02108793 0.06423823
-0.02052256 0.09106457 0.009110132 0.17761709 -0.030195918 -0.034081694 -0.025476778 0.17931595

fc2.bias f4 [256]
00000000: 40c7 5a3e 0187 053e 59a2 a53d 07eb a13c
00000010: d963 c23c 7179 ed3d 199a ba3d b489 9bba
00000020: 98aa f53d 4bf0 fb3b fde6 9f3c 6a3e 283d
00000030: b1f4 083e cd9c fe3d 8af4 793d 8232 233c
00000040: 7fd7 ec3d 7fbd 233d 2551 b13d bc6e 6c3d
00000050: ae57 953c 8ba3 ea3d 1e6a 423b cbaf 333e
00000060: 5f36 833d 9e45 b53d cfd8 023d aceb dfbc
00000070: 9508 263d c91c 9ebd af4c 81bc 003e 923d
00000080: b1a1 bd3d dea6 c33d d9a8 08bd e01b 853d
00000090: aa09 e13d 34c6 553d ec17 e7bc c14e d43d
000000a0: 1eae 643d 0f77 813d 796c fd3d 662e 613d
000000b0: 5901 8abd fd26 ff3d cbc9 173e fa32 923c
000000c0: 04db 8a3c c6ce 993d 4497 323e 8872 4bbd
000000d0: 910b 133c 7b39 1cbd c559 263d 32cd be3c
000000e0: 3879 f83d fad9 ab3d 4950 003e de36 a43b
000000f0: eb97 2b3d 0266 a83d 4ac7 b03c 86da 873c
00000100: 3ff8 113d 1cb9 9c3d 5706 a83d d289 133e
00000110: a9c7 cd3c fd4b 313e e935 a63d 593e e33d
00000120: caaf 2bbd 63c5 5e3d 3dcc adbd 606a 893d
00000130: b388 bf3d f257 1e3e d7f1 453d 9799 573d
00000140: 0754 853d aaa9 413d 9e79 13bd 0b26 893c
00000150: 3800 1b3e 23f0 923d 6355 c3bb c114 aa3d
00000160: aa90 dbb9 2aeb 1ebd 138b 91bd 2e11 163e
00000170: c990 723c 9e02 af3d e191 ce3d a077 453d
00000180: 08ee 1c3d 48f5 d93c eea0 c93c 61cd e03d
00000190: dfcd ab3d c4c6 533d 17d0 753d 9167 4abb
000001a0: 4f4a c43d 1006 033d 6bdb b9bb 882c 0c3d
000001b0: f580 963d 6040 44ba c470 d73d 0f15 063d
000001c0: 8df2 1f3e 07ae 8d3c c282 06bd 97c5 313d
000001d0: 16a5 973d 7ea2 633d 871d 283e 1664 3d3e
000001e0: 4996 bf3d dee7 da3d cd6e 653d d8a3 c03c
000001f0: d01c 3d3e 387a f9bc 78d2 853d 20bc 063e
00000200: b0a9 11bd f170 723d 3505 8bbc 21d3 af3d
00000210: 830f 3e3c 1a2c 453d 94fe 7a3d 19fa 573d
00000220: 80fa 333e 343b 3d3e 9e75 be3d 90af 783c
00000230: 2ad2 963d 30ba e73d accc 1dbd 8d48 d53c
00000240: 89ae 1e3d e350 593c 879b 413d b26b c53d
00000250: dec4 193e bba1 f83d f939 bf3d 1b65 95bb
00000260: 1756 bc3d c316 62bd d109 d03c b385 f73d
00000270: 8e1b 8d3c 6d82 b93d a6fc f23d 1af6 b43d
00000280: ed47 bc3d 4f85 2a3e f3f3 533c 631e 353d
00000290: bf08 79bd ba86 3a3d 5d7e 1c3e 9ec9 d93c
000002a0: 57a0 ea3d c5d4 b63d 6963 c73d 3f04 983d
000002b0: 26da 0d3e 53ed 9f3d 4a66 96bd 0139 363d
000002c0: a891 f53c f6e5 9bbb 4e49 023e 1895 1cbd
000002d0: 9eaf 6cbc f8ba f03d 06a7 cb3d 4035 4b3d
000002e0: e6d2 873d 69e5 503d 96b3 4d3d 2931 353d
000002f0: 478e 813d b1c8 793d b74b 30bd d464 b23d
00000300: 3290 7b3c 51a4 4f3d 3ad8 0e3d 18a8 d93d
00000310: 25dc 313e aa4c 14bd e315 eb3c 33ca c03d
00000320: 471d b63d 8cb4 833d 1edc 043e 4031 193e
00000330: 0be2 823b dc1e 403d 942a 633d ef67 783d
00000340: d9af e53c cef1 fd3d 2328 963d 4931 d0bb
00000350: a580 023e df89 833d b828 273e 3595 b43d
00000360: 83cd 033a 6ade 85ba 0a82 3c3c 2ad3 4fbd
00000370: 2e12 ce3c 4859 753d cbd9 0c3e 62f2 d63c
00000380: dc84 5d3c 01a6 f93d e00a 773d 1868 a43d
00000390: 8d1d 133b 880e b13d 5972 a43d 6c80 e83c
000003a0: f3c9 92bd 8002 e43d 1ffa db3d 9f2a ea3b
000003b0: b374 d83d e378 5b3c cb25 223e 8041 11bd
000003c0: 6ad0 2bbd 700d 8d3d 589f db3d b86f 7c3d
000003d0: 38c2 3d3e fd13 023d 0153 a93d e96a e53d
000003e0: f1d2 5c3d 6bb0 4a3d 9cfb 823d 0aec 733d
000003f0: 39db 823c 6cef 8c3c d3ec d13d 19d4 d13d
0.2136507 0.13039781 0.08087606 0.01976539 0.023729252 0.11595429 0.09111423 -0.00118666
0.11995429 0.0076885573 0.019519323 0.041075148 0.13374592 0.12432251 0.061024226 0.0099607725
0.1156454 0.03997564 0.08658055 0.057722792 0.018230285 0.114569746 0.0029665302 0.17547528
0.06406855 0.08851169 0.031945046 -0.027334057 0.04053553 -0.07720334 -0.015783636 0.07140732
0.09259356 0.09553312 -0.03336415 0.06499457 0.109881714 0.052190974 -0.028209649 0.103665836
0.055830114 0.06321537 0.12374205 0.05497589 -0.06738538 0.12458608 0.14823072 0.017846573
0.016950138 0.07510142 0.17440516 -0.049669772 0.008974926 -0.038140755 0.040612955 0.023291204
0.12132496 0.08391185 0.12530626 0.0050114235 0.041892927 0.082225814 0.021579403 0.016583692
0.035637137 0.07652494 0.08204334 0.14408043 0.02511962 0.17314143 0.08115751 0.11095876
-0.041915692 0.05438746 -0.08486221 0.067097425 0.09352245 0.15463236 0.04832634 0.05263671
0.065101676 0.047280945 -0.036004655 0.016741773 0.15136802 0.07174709 -0.0059611066 0.0830474
-0.00041878718 -0.03879849 -0.071066044 0.14654991 0.014805027 0.08545421 0.10086418 0.048209786
0.03831294 0.026606217 0.02461287 0.10976673 0.08388876 0.05170323 0.060012903 -0.0030884484
0.09584486 0.031988204 -0.0056719086 0.034222156 0.07348815 -0.0007486399 0.10519555 0.032734927
0.1561987 0.017294897 -0.032839544 0.043401327 0.074045345 0.055574887 0.16417514 0.18495211
0.093548365 0.106887564 0.05601387 0.023515627 0.18468022 -0.030453786 0.06534284 0.13157701
-0.035562217 0.05918974 -0.016970256 0.085851915 0.011600378 0.04813776 0.06127794 0.052728746
0.17576027 0.18479615 0.092997774 0.015178576 0.07364304 0.11314809 -0.03852527 0.026035571
0.03874067 0.013263914 0.047267463 0.09639682 0.15016505 0.12140223 0.09337229 -0.004559172
0.09196108 -0.05519749 0.025395306 0.12086048 0.017225053 0.0905808 0.11864595 0.08836003
0.09193406 0.16652416 0.01293658 0.044218432 -0.060799357 0.04553864 0.15282579 0.026585396
0.11456364 0.08927301 0.09735758 0.07422685 0.13852748 0.07808938 -0.07343729 0.044487957
0.02997668 -0.004757638 0.12723276 -0.038228124 -0.014446167 0.117544115 0.099439666 0.04961133
0.066320226 0.051000033 0.050220095 0.044236336 0.063259654 0.06098241 -0.043040957 0.08710638
0.015354203 0.050693814 0.03487418 0.106277645 0.17369135 -0.036205925 0.02869696 0.094135664
0.08892303 0.06430921 0.12974593 0.14960194 0.0039942316 0.04690443 0.055460528 0.060645994
0.028037952 0.12399636 0.07331874 -0.0063535315 0.12744386 0.06422781 0.16324127 0.088175215
0.0005027877 -0.0010213379 0.011505613 -0.05073849 0.025155153 0.0598996 0.13754956 0.026238624
0.013520446 0.12189866 0.060313106 0.08027667 0.0022448034 0.0864535 0.080296226 0.028381549
-0.07167425 0.11133289 0.10741066 0.007146194 0.105691336 0.013395521 0.1583473 -0.035462856
-0.041946806 0.068873286 0.10723752 0.06162998 0.1853112 0.031757344 0.08267785 0.11202032
0.053912107 0.04948465 0.06395647 0.059551276 0.015973674 0.017204009 0.10250249 0.102455325

fc3.weight f4 [2, 256]
00000000: 0be8 09be 5690 8b3e 2594 12bc 7a19 c13d
00000010: c469 91be 8f39 0ebe e502 ac3e b688 613e
00000020: 9c66 16be 0099 3abe c878 8fbd 5090 863e
00000030: 0c29 88be 5218 5a3d 7c77 b63d a6b9 2d3d
00000040: 1b47 43be a2cc 4abe 5645 b93e 8839 c13d
00000050: 8016 b33e 16f8 15be 8c6a c53d 037c 32be
00000060: 80e2 b53e d1c2 e0bd 5aaa 85be 521c a63c
00000070: 46d9 9e3e 0561 7a3e 2f1e 0c3e df75 32be
00000080: bc0f cb3d 9274 a4bd 8176 773d e5bc f43e
00000090: 3762 913d 4d56 803e 6111 243e 5399 68bd
000000a0: 050d 883e e027 a5bd b95a dbbd 90c5 59be
000000b0: 18bf 313e 459d 843c 1baa 50be 95b2 0a3e
000000c0: 5f50 c33e dbfa 0b3d 57a1 e03d b42b 623e
000000d0: 9f99 8e3e ac0c 4b3e bf14 503e d537 783e
000000e0: 7dc2 a13d b9dd 2ebd a07f 76be a4b3 46be
000000f0: a872 623e d03f 19be 69de 5ebe e7e4 5abe
00000100: cdf0 e63d 115e 353e 83a6 3bbe 51d2 5bbe
00000110: 7c9e 663e 87c3 50be c467 353c b5ac 34be
00000120: 0fb0 5f3e 7bdc 9c3d 34cc 7c3e c80c 4f3e
00000130: 154a dd3e ae24 c83d a612 133e d6f1 0c3e
00000140: 0270 2e3e b1c8 b93e 2db2 fe3d ad06 763d
00000150: 9af4 68be c1ac 903e 5ed1 583e ec67 71bd
00000160: 01ce 4d3e 01cd da3d 5399 ce3d d30b 0abe
00000170: 7c93 5d3b 04ae 9f3d 9403 043e 780c d7bd
00000180: fb65 ab3e 4fd2 5bbe b950 5a3e 7bd1 e7bc
00000190: 2b05 43bc 19a8 243e 910a 8dbe 7ca9 813e
000001a0: 55cc 41be 1aeb 67be 910c cb3e 58cc ef3e
000001b0: 8d49 8f3e 056f b73e e659 72be 5922 f63d
000001c0: 6bbc 673e 57dd a23e 3b13 de3d 4afb 423e
000001d0: 8778 8a3e ffd6 59be 348b 23be 7e9f 23be
000001e0: 8137 833e b9bc 8d3e 66d4 f33e cb65 5e3e
000001f0: 17f5 133e 8df1 a63e b752 d4bd c04c 85be
00000200: da82 543e dabd 82be 0c51 cb3d afbb b93e
00000210: 6702 4b3e ddf0 3e3e 305c 78bc 9efa 823e
00000220: 4a4a 65be cd72 7abe 33cf cd3e 3946 9c3e
00000230: 912e 1d3e 4ac3 2ebe 1717 2e3e a2c1 3c3e
00000240: a04b 9f3e dc35 6b3e 8c35 343e 0ead 86be
00000250: 4c95 2bbc edea b63e 12fb 66bc d0a1 163e
00000260: 548f f33d 7d7e 1b3e 04c2 c73e 5f3a 88be
00000270: 7c0b 8f3e 1369 6f3e 2b22 33be a885 c9bd
00000280: bf02 a73d da32 ffbd 457d 28bc 9249 313e
00000290: 44ef 0b3d 8d14 f13d 00dc 50be 2c19 673d
000002a0: 9c26 7ebe 131b 283d 504d 54be 2ac8 373e
000002b0: 28f6 08be b346 e8bd f0c0 353e a993 293e
000002c0: 027c 583e 0998 933e 4bee 01be a63f 823d
000002d0: 7e0b 823e bdfe 593e 9394 003e 2226 2b3e
000002e0: 49fb b53e a48b 9c3e 9e07 74be 8474 273e
000002f0: e5aa b73e 7d83 cd3e 2ca0 003e 74ab a53e
00000300: 8fa6 0e3e ac7e 38be 2be6 583e 1eef 06be
00000310: 9afe 52be 7ffd 1e3e 6493 12be 03a6 8a3e
00000320: ad10 89be 0aa5 44be 2d48 6bbe a157 083d
00000330: d82e 633e 60f0 c53d f6c6 54be 7c7e 8bbe
00000340: 8fc7 b63e c594 5bbe 6fe3 cc3d 1c1c 983e
00000350: d6b2 1b3e d4ad 74be 79b7 1cbc 3c14 0bbe
00000360: ba4e 0d3e 9087 993e bc92 103e a49b c93d
00000370: 7056 933e 74ea 43be 086e 8cbe 2b53 163e
00000380: 7458 483e f0be 64be 5bb4 a93e ce8c 273d
00000390: 814d 573d f08e 96be 1061 cc3d 9ca0 d23d
000003a0: b7b4 f33c 4e87 8abe d424 533e fbd4 053e
000003b0: d35f 82be ba22 df3e 2163 65be 36e7 853d
000003c0: f151 503e d37d 943d beae 833e 006c 893e
000003d0: 7e44 d73d ae7e 933d 8bb2 c03c d3ef 53bb
000003e0: b431 6c3e 03c3 783d cdf3 1c3c fa20 1d3e
000003f0: f0ae af3e d7e0 6c3d 61cf dc3d 453f a83d
-0.13467424 0.27258557 -0.008946453 0.094286874 -0.28401005 -0.13889144 0.33595958 0.22024807
-0.1468758 -0.18222427 -0.07005459 0.26281977 -0.26593816 0.05324585 0.089095086 0.042413376
-0.19070093 -0.19804624 0.36185712 0.09434801 0.34978104 -0.14645419 0.09639463 -0.17430119
0.35524368 -0.10974658 -0.2610653 0.020277176 0.3102514 0.24451073 0.13683389 -0.17427777
0.099151105 -0.080300465 0.06041575 0.47800365 0.07098811 0.25065842 0.16022255 -0.056786846
0.26572433 -0.08064246 -0.10710663 -0.2126677 0.17358053 0.016188273 -0.2037739 0.13544686
0.38147256 0.03417478 0.10968273 0.22086984 0.2785158 0.19829053 0.20320414 0.24240048
0.07898424 -0.04269192 -0.24072123 -0.19404465 0.2211405 -0.14965749 -0.2176453 -0.21376382
0.11276398 0.17711665 -0.18325238 -0.21466948 0.22521394 -0.20387088 0.011072103 -0.17644008
0.21844505 0.07659241 0.24687272 0.2021972 0.43220583 0.09772621 0.14362583 0.13764128
0.17034915 0.36285928 0.12436328 0.06006496 -0.22749558 0.282568 0.21173617 -0.058937
0.20098116 0.10683633 0.10087838 -0.13481073 0.0033809831 0.07796863 0.1289199 -0.10500425
0.33476242 -0.21466945 0.21319856 -0.02829813 -0.011903088 0.16079749 -0.27547124 0.2532462
-0.18925603 -0.22648278 0.39658025 0.4683559 0.27985802 0.3582689 -0.23667106 0.1201827
0.2263047 0.31809494 0.10843512 0.19041172 0.2704508 -0.21273421 -0.1597107 -0.1597881
0.25628284 0.27683046 0.47622985 0.21718518 0.14448963 0.32606164 -0.10367339 -0.26035118
0.20753041 -0.2553547 0.09927568 0.36276004 0.19825135 0.1864657 -0.015158698 0.2558183
-0.2239162 -0.24457856 0.40197143 0.30522326 0.15349795 -0.17066684 0.17000996 0.1843324
0.31112385 0.22969764 0.17598552 -0.26303905 -0.010472607 0.3572611 -0.014097946 0.14710164
0.11892572 0.1518497 0.3901521 -0.26607034 0.2793845 0.23379926 -0.17493503 -0.09839946
0.08154821 -0.12460871 -0.010283773 0.17313221 0.03416373 0.11771498 -0.20396423 0.05642049
-0.24819416 0.041041445 -0.20732617 0.1794745 -0.13375151 -0.1134161 0.17749381 0.16560234
0.21141055 0.2882693 -0.12688558 0.06359796 0.25399393 0.21288581 0.12556677 0.16713765
0.35543278 0.30575287 -0.2383103 0.16353041 0.3587257 0.4013938 0.125611 0.3235737
0.13930725 -0.18017071 0.21181552 -0.13177153 -0.20604935 0.15526389 -0.14314038 0.27079782
-0.26770535 -0.19203582 -0.22976752 0.033286694 0.22185838 0.096649885 -0.20779023 -0.27244937
0.35699126 -0.2144347 0.10004317 0.29708946 0.15204939 -0.23894435 -0.009565228 -0.13581938
0.13799563 0.29986238 0.14118475 0.09844139 0.28776884 -0.19132406 -0.27427697 0.14680164
0.19564992 -0.22338462 0.33145413 0.040905766 0.052564148 -0.29405928 0.09979451 0.1028454
0.029749257 -0.27056354 0.20619518 0.13069527 -0.25463733 0.43581182 -0.22401096 0.065382406
0.20343758 0.072505616 0.25719255 0.2684021 0.10511111 0.072018966 0.023522636 -0.0032338991
0.23065835 0.060732853 0.009579611 0.15344611 0.34313154 0.05783161 0.10781742 0.08215193

fc3.bias f4 [2]
00000000: 7139 01bd 6b0d 3ebc
-0.03154892 -0.011599879

bn.weight f4 [256]
00000000: 07c4 883f d81f 163f 1871 2e3f be53 823f
00000010: 1dfc 393f 3f4c a93e f5f6 883f 196f 7d3e
00000020: 671c 2f3f 6f8d 8d3f 8b8f db3e 0336 173f
00000030: cd24 b53e 1013 d33e ab94 213f 33a7 883e
00000040: e106 243f 7a3b 333f 190b b43e e8bc ef3e
00000050: 115b 1b3f 72af 163f a99f b73e 2bf5 523f
00000060: cb5d 6b3f 9eb9 f53e 133f 763f cff5 6f3f
00000070: 0fa2 393f efef c13e 4629 5a3f d130 cd3e
00000080: e85b 1e3f 450a c53d 4b86 5d3f cd88 953f
00000090: 13c4 873f ac77 4c3f 5105 133f 2467 e83e
000000a0: 97e3 d13e 092e af3e 0235 893f 60f9 8d3e
000000b0: ff42 7f3f 9bb4 593f a2c5 0d3f 4fb4 8f3e
000000c0: 5c1c eb3e 8ff7 663f ff28 e93e 803e 223f
000000d0: d681 6e3f 358b 713f 64d0 5c3f e51e 043f
000000e0: bfb9 093f 11b9 7f3f 01b5 823f 64c9 d63e
000000f0: 795f 383f 1029 013f 0e28 863e 6153 8d3e
00000100: f1a7 5c3f 1a1a d63e 728c bc3e 1545 263f
00000110: 2f04 1d3f 4352 f93d 6311 703f e540 eb3e
00000120: 9a94 4d3f 00a6 823f 863b b13e fe9e 003f
00000130: 6584 573f ac19 f53e 0fc8 423f a2fb e33e
00000140: 18b0 8a3e df98 da3e 7ca8 8c3e 1fe4 de3e
00000150: e682 5e3f 82ca 343f b34e 4a3f 2dd4 ad3e
00000160: 7ebf 903e 8b6c 333f 4455 f13e ff9e 673f
00000170: 686c 363e f928 ec3e 79a4 a83e d9aa 303f
00000180: 4557 b73e ce42 603f b2b4 6e3f ff6b a23e
00000190: f460 853f b6fc 713f 0569 f53e ef23 0d3f
000001a0: 42ef 0f3f 5c4b b93e 8be2 203f bf5f 7c3f
000001b0: a48b 813f 1532 823f 0ec0 053f 7a44 853f
000001c0: 7e46 a93e 1cba dd3e 0d01 863f 447b be3e
000001d0: 2e15 883e 6ac2 c63e 4bb1 7b3f ab20 8d3f
000001e0: 82b8 7a3f c60d 513f 5a1e 793f af4f 6e3f
000001f0: 7680 d53e 9f39 623f 8542 7e3f 11f0 453f
00000200: 04ab 013f c0fa f43e 34b3 6d3e 2a56 133f
00000210: 0457 853f 92cb 613f 5c7e 3c3f 8a58 4f3f
00000220: b090 6f3f 0749 8b3f d19b 6c3e 580b 5f3f
00000230: 26d8 493f 30fe 383f 600c c23e 71ed ec3e
00000240: 0ff6 a63e 7ca7 e83e 9464 c63e daa5 4a3f
00000250: 1912 8c3f 0c1a 243f 966f 273e b73b 5e3e
00000260: 22bf 9f3e 9c6e 873e 5a95 f33e 2b2a 843e
00000270: cb59 733f 4b33 4e3f b9b3 143f 43ad 083f
00000280: 1b4d 093f e214 2d3f 9741 d83e e385 463f
00000290: bddf de3e 5086 1b3f b1b6 293f 61b1 a13e
000002a0: 6e27 353f a3fa 673e b139 3c3f b49b 863f
000002b0: 17a0 063f 315b 543f 8726 433f ae6f 8a3f
000002c0: 0780 403f 297a 9a3f d36a 873f 052c 733f
000002d0: 5800 a13e 8dd3 dc3e 9f7d e83e a068 593f
000002e0: 98bd 813e 78d2 6d3f e324 933e d117 983e
000002f0: 2cbe 853e df97 a63e 7ade 703f 3666 923e
00000300: bfc2 703f d758 3c3f acdd 883f 26e8 6b3f
00000310: 5542 493f a2ed 2e3e 23ad 8f3f 82f0 713f
00000320: c57a 99bd 396e 013f 4b4a 0a3f 7da6 203f
00000330: 2f68 8c3f 8336 733f 5776 743f 8756 0d3f
00000340: a877 5b3f b8b2 bc3e b2d4 203f 11a0 223f
00000350: 34fa 883f 7024 843f 592a 5b3f c398 093f
00000360: 2f9d 713f f493 e33e f0f8 f33e e74d 1a3f
00000370: 0c4a 1b3f 27ce 5d3f 087f c43e 2329 4b3f
00000380: 257a 6d3f 0037 4d3f 5910 8d3f c78a 163f
00000390: 77fc 3d3f f4fe 883f ce79 4e3f 284b 8b3f
000003a0: bdd7 113f 6dde 893f 4ad3 173f f570 323f
000003b0: 88b9 2b3f 095a a83e b54a 1c3f 98d0 2e3f
000003c0: b5bb 863e fe54 033f 8338 803f aeda 263f
000003d0: 968d c33e 293e 113f c358 b43e f726 843f
000003e0: fad5 7d3e 30ee 6b3f b375 f13e 0096 0f3f
000003f0: e7d8 913d 03a8 6f3f 6360 8d3e 3257 bf3e
1.0684823 0.5864234 0.6814132 1.0181806 0.7265032 0.33065984 1.0700365 0.24749412
0.68402714 1.1058787 0.42882952 0.5906679 0.3537964 0.4122548 0.63117474 0.26690063
0.64072996 0.7001263 0.35164717 0.46823812 0.6068583 0.5886146 0.35864 0.82405347
0.9193999 0.47993177 0.96189994 0.9373445 0.72512907 0.37878367 0.8521923 0.40076306
0.6185899 0.096210994 0.8653304 1.1682373 1.0606712 0.79870105 0.5742999 0.4539119
0.4099395 0.3421481 1.0719302 0.2772932 0.997116 0.8504121 0.5537969 0.28067252
0.45920074 0.90221494 0.4553909 0.6337662 0.93166864 0.9435304 0.8625548 0.5160964
0.5379905 0.99891764 1.0211488 0.41950524 0.7202068 0.5045328 0.26202434 0.27602676
0.8619376 0.4181679 0.368259 0.6494916 0.6133451 0.12173893 0.9377653 0.45947948
0.80304873 1.0206909 0.34615725 0.502426 0.84186393 0.4787115 0.76086515 0.44527918
0.27087474 0.42694756 0.27472293 0.43533418 0.86918485 0.706215 0.79026335 0.3395094
0.28271097 0.700875 0.47135365 0.90476984 0.17814791 0.4612501 0.32937983 0.6901069
0.3580877 0.87601936 0.9324447 0.3172302 1.0420213 0.9452623 0.47931686 0.55132955
0.56224453 0.36190307 0.6284568 0.98583597 1.012074 1.0171534 0.5224618 1.0411522
0.33061594 0.43306053 1.0469071 0.3720342 0.2657866 0.388202 0.983174 1.1025594
0.97937787 0.8166164 0.9731194 0.9309034 0.4169957 0.8836917 0.9932025 0.7731944
0.50651574 0.47847557 0.23212892 0.5755335 1.041718 0.8820125 0.7363031 0.80994475
0.9358015 1.0881661 0.23106314 0.87126684 0.7884544 0.7226286 0.37900066 0.46274903
0.32609603 0.4544028 0.3874861 0.7915932 1.0943023 0.64102244 0.1635116 0.21702467
0.3120051 0.26451576 0.47574884 0.25813422 0.9505889 0.80547017 0.58086735 0.53389376
0.5363328 0.6760999 0.4223754 0.77548045 0.43530074 0.6075182 0.6629439 0.31580642
0.7076329 0.22654204 0.7352553 1.0516267 0.5258803 0.8295165 0.76230663 1.0815332
0.75195354 1.206853 1.0579475 0.94989043 0.31445575 0.4313015 0.4540834 0.8492527
0.2533996 0.92899275 0.2873908 0.2970567 0.26121652 0.32537743 0.9408947 0.28593606
0.9404716 0.7357306 1.0692649 0.92151105 0.7861684 0.17082837 1.1224712 0.9450761
-0.074941196 0.5055881 0.5401961 0.6275404 1.0969294 0.95005053 0.9549307 0.55210155
0.85729456 0.36855102 0.6282455 0.6352549 1.0701356 1.032362 0.8561149 0.5374872
0.9438047 0.44448817 0.47650862 0.6027512 0.6065986 0.8664269 0.38378167 0.79359645
0.927645 0.8016205 1.1020614 0.5880551 0.74213356 1.0702806 0.8065461 1.0882311
0.56969815 1.0771004 0.59306777 0.6970361 0.67079973 0.3288119 0.61051494 0.6828704
0.26315084 0.5130156 1.0017246 0.6517743 0.3819396 0.56735474 0.3522397 1.0324391
0.24788657 0.9216032 0.4716011 0.56088257 0.07121449 0.9361574 0.276126 0.37371212

bn.bias f4 [256]
00000000: 8f3e 363c 72ea 723c d717 a83a 0667 5bbd
00000010: d105 7a3d cd77 0f3d 4c4b bcbc 854f 863d
00000020: a073 6abc dd2c 383c f1a4 30bd 676f 96bc
00000030: 3c2e cbbc 1820 953d 3948 41bc 90ee 9f3d
00000040: bc14 05bd d4e8 8ebd b0d1 03be f016 8cbd
00000050: 2601 99bc a2f0 4abd a71b 0fbe 4566 493c
00000060: 7af4 bebc eb56 00bc 0120 323b 1e5c 133d
00000070: c019 c4bd d0b7 6d3d 3168 303d 0eba 74bd
00000080: 4aa9 8bbc 8a5b 09be de56 99bd 4f43 893d
00000090: 9d30 08bc 8bd4 323c c5da 04bc 5841 79bd
000000a0: 73c0 043d ed9f 97bc a9ca 893d 90f5 073e
000000b0: af3b 613d 8a1f 73bc 60d4 c43a ceef 533c
000000c0: 6c0e f2bd ce19 e03b 0d4e 4cbd b9a6 e73c
000000d0: 8555 2a3d b02e 863b d2df 9ebb 0d61 873d
000000e0: f8a4 6dbd 709b 53bc 0079 87bc c245 bbbc
000000f0: d698 823d db97 7cbc 7acb 33bd 1c30 a53c
00000100: 5b58 56bd b6ba 79bd 4909 b63b d2a1 b8bb
00000110: cd50 42bd 29ad 1cbe e53f b53c 647e 753c
00000120: 6f7f 85bc ca28 1cbc f415 073d b717 b6bd
00000130: bd03 6bbc 2baa e5bd 247a 3ebd 2517 513b
00000140: 5841 3c3e 4054 84bb b279 11bc b57a 66bd
00000150: 8d5d 53bd 8a0c 533d 7137 35bd 4caa fd3d
00000160: bd23 c53c 24e4 a1bd 8bc5 c3bc fb97 ac3c
00000170: 2715 0a3e 8379 35be 3a6d 08bd 4f8c df3d
00000180: 33d2 db39 a5de e2bd 06d3 00bc df4c 65bd
00000190: c0fb 01bc 623c 05be 3b92 41bc 78c6 293d
000001a0: 8c23 1b3c 23ad a4bc 4812 bc3b 4c11 1bbd
000001b0: 6fec c0bc 2473 24bd 5907 c93b ac70 8fbc
000001c0: eb8d 283d efc5 2b3d 789a 9c3c 11d2 cf3d
000001d0: b76c 41bd 4373 cabd 9a0e aeba 9cbe adbc
000001e0: ec61 01bb 4abb cebc 4ea6 2cbd 9e8b b0bc
000001f0: 0e0a b8bc 8ffd 303c 36ce 853d c5cc 703d
00000200: fe82 1c3e 4530 5cbd 139f d33d 60f2 9dbd
00000210: 04fb 41bd e721 9d3c 2293 dcbc 6d14 983c
00000220: c68a 4d3d fb01 063d cfa4 80bd b3b1 c33c
00000230: 53e8 58bd 484a cfbb 63a9 123d ed27 4dbd
00000240: f984 8bbd d19c 43bc 8ddc 473c d440 7fbd
00000250: 3d2d c13c e440 babd 9e62 83bc 1819 3fbe
00000260: 95cc 63bd 4106 833c 8d30 35bd 5a4a 2f3d
00000270: 5f94 053d c8d7 ec3c 2c7e e8bc 6c29 15bb
00000280: 61e2 493c 4656 03bd 60a5 11be f6ae cbbc
00000290: 8f7b e9bc 617b cb3c 8059 44bd ec8d a6bd
000002a0: de77 1d3d 4f7a e4bc ead0 2ebc 77c0 26bd
000002b0: d1b2 89bc 511e e5bc 4786 6b3c 02e9 033d
000002c0: 9bea a33c f90a 6abd b030 65bd 9046 37bb
000002d0: 7d3c 53be 3e88 10bb b565 80bd 7627 eebc
000002e0: feb4 f93c 07f2 86b9 3b61 41bd 7355 913b
000002f0: 0262 9bbd 21df 02be 4640 ffbc f7bd d33d
00000300: 5bec e63b b254 e83b 8e0a 20bd b041 d7bd
00000310: 98c2 833d 9475 2bbd 317b 98bd 3afb cabc
00000320: e203 453e bf76 283b 57b9 f6bc f5ad d33c
00000330: 4376 29bd 4b3a 37bd 1a7d 843c ffce 253c
00000340: 4138 d73c de85 acbc 3218 d83c 4304 27bd
00000350: bc45 37bd 9b96 d43d 33de 93bc 3728 8dbd
00000360: 84cd cdba ef31 eabd 3bc5 06bd 6e87 1fbc
00000370: 478c 7ebd 6326 9a3d 4360 ab3c b1cf 2cbd
00000380: 1172 70bd 9c81 6d3c ad3e 41bb f2cc 95ba
00000390: 4311 963c 53fd aabd ad6c 1dbd 921d 163d
000003a0: 61b8 8abb 5993 593d 4b43 51bd a350 80bd
000003b0: a225 4a3d 71ae 873d 4567 00bd d6d1 cdbd
000003c0: aebc 01bd e526 69bd 5344 473d 2bc7 493d
000003d0: 002d 8abc a55a fc3c 4a5d c13c 3023 1abd
000003e0: b59b 95bd 2cab 4abb 342b d0bc e0f0 04bc
000003f0: 8324 9abc c1df 07bd d19a b13d a5e8 2c3e
0.011123314 0.014826404 0.0012824488 -0.053565048 0.061040703 0.03502636 -0.022985123 0.06558136
-0.014309794 0.011241165 -0.04312605 -0.018363668 -0.02480232 0.07281512 -0.011797004 0.07809174
-0.032490477 -0.06978002 -0.12872958 -0.068403125 -0.018677305 -0.04954589 -0.13975392 0.012292449
-0.023309935 -0.007833223 0.002717972 0.03597652 -0.09575224 0.058036625 0.043068115 -0.059747748
-0.017048497 -0.13413826 -0.07487272 0.06702291 -0.008312372 0.010914932 -0.008108799 -0.060853332
0.032410096 -0.018508876 0.067281075 0.13277268 0.05498856 -0.0148390625 0.0015016906 0.012935592
-0.11819157 0.0068390137 -0.049879123 0.028277742 0.041585464 0.004094921 -0.004848459 0.06610308
-0.058018655 -0.012915477 -0.01653719 -0.022860412 0.063768074 -0.015417065 -0.043895222 0.020164542
-0.052330356 -0.060969077 0.005555306 -0.005634525 -0.04744034 -0.1530043 0.022125194 0.014983747
-0.016296117 -0.009531209 0.03297992 -0.08891242 -0.014344153 -0.112140976 -0.0465032 0.0031904664
0.18384302 -0.0040383637 -0.008879112 -0.056269366 -0.05160289 0.05152563 -0.044242326 0.12385997
0.024064893 -0.079048425 -0.023897907 0.021068564 0.13484631 -0.17722134 -0.03330729 0.109154336
0.00041927546 -0.11077622 -0.007862812 -0.055981513 -0.007933557 -0.13011315 -0.011814649 0.04144904
0.009468924 -0.02010209 0.005739484 -0.037858292 -0.02355024 -0.04014887 0.006134909 -0.01750978
0.04115097 0.04193681 0.019116625 0.10147489 -0.04722282 -0.09885266 -0.0013279498 -0.021209054
-0.0019742204 -0.02523579 -0.042150788 -0.02155095 -0.022465732 0.010802641 0.06533472 0.058789033
0.15284345 -0.05375697 0.103330754 -0.07712245 -0.047358528 0.019181205 -0.026925627 0.018564427
0.050181173 0.032716732 -0.06281435 0.023888445 -0.052955937 -0.0063259937 0.03580607 -0.050086904
-0.06812472 -0.011939243 0.0121985795 -0.062317684 0.023581142 -0.09094408 -0.016038235 -0.18661916
-0.055615027 0.015994193 -0.044235755 0.042795517 0.0326122 0.028911486 -0.028380476 -0.0022760285
0.012322039 -0.0320647 -0.14223242 -0.024863701 -0.0285013 0.024839105 -0.047936916 -0.08132538
0.038444392 -0.027890353 -0.010669926 -0.040710893 -0.0168089 -0.027968558 0.014375276 0.032204635
0.02000933 -0.05713937 -0.055954635 -0.0027965643 -0.20628543 -0.0022053863 -0.06269399 -0.02907155
0.030481812 -0.00025738796 -0.047211867 0.004435235 -0.07587053 -0.1278043 -0.031158578 0.10338967
0.0070472187 0.0070901746 -0.039072566 -0.10510576 0.064336 -0.041860178 -0.07445372 -0.024777997
0.19239762 0.0025705544 -0.030117674 0.025839785 -0.04137255 -0.044733327 0.016172934 0.0101201525
0.026271941 -0.021059927 0.026378725 -0.04077555 -0.04474424 0.10380288 -0.018050289 -0.06892436
-0.0015701507 -0.11435305 -0.032902937 -0.009736879 -0.062145498 0.07526853 0.020919925 -0.042190257
-0.058702532 0.014496233 -0.002948682 -0.0011428876 0.018318778 -0.08349099 -0.03843372 0.036649294
-0.0042334055 0.053119037 -0.051089566 -0.0626538 0.049352296 0.06625069 -0.031348485 -0.10049789
-0.03167408 -0.05692186 0.048649143 0.049262207 -0.01686716 0.030804941 0.023604054 -0.037631214
-0.073050894 -0.003092478 -0.025411226 -0.00811407 -0.018816238 -0.033172373 0.08672107 0.16885622

bn.running_mean f4 [256]
00000000: bca4 373a 6663 103d 031c 8c3f 742c b73f
00000010: 0686 903f 64d8 b63f f0e2 373f fb57 f73b
00000020: 6ead aa3e 6dae 463f 7bb8 193d 0400 0000
00000030: 3bec 363f 117a cf3f 1a2e c13e 8ecc c53f
00000040: 1974 0a3e 8603 103f e0ad e33d c406 a13d
00000050: d015 ad3d ca65 633c 9595 cc3f 873c 9c3f
00000060: b03e 9d3d 8da3 063a c27a 803e efb3 153f
00000070: eddf dd3e e790 c53e d7fd 533d 3c82 cb39
00000080: dbf4 123f ebd8 0640 e5ba 1f40 2490 323e
00000090: 6b5e e23f cffa 853f b93a 623e fed4 903d
000000a0: fdfb d23f 1ffd 993f 4b48 533e 05e5 4139
000000b0: eacf 703f 37f5 0440 7cdb d33f 0400 0000
000000c0: 1242 b03c c8cf 4b3f 2108 233f 8a42 a73e
000000d0: 1883 2b40 ff09 733f 3c26 503a 5f32 1e3e
000000e0: c874 aa3f a4ba 813f 42c6 e63e c7ff df3e
000000f0: a80f 893f 1f4e bf3f 7b66 cd3f 1312 573f
00000100: 47ff 223f e1c2 333f a0ed 803f 69e5 563d
00000110: 9f1e 1a40 0448 2e3f cf27 4d3f 3dc6 ad3f
00000120: 42c1 963f c84c 0e3d 2ea5 083f 17f9 d139
00000130: 2740 0a3f 7a99 f03f 6a67 0a40 d01b 5f3d
00000140: ca1b 033f 8528 043f 0400 0000 d4b0 d13e
00000150: be93 b63f e792 023f 10bd 023e 0400 0000
00000160: 0400 0000 c8da 873e d186 bd3f 7e54 313d
00000170: 63b6 5140 46a5 e13e 3439 dc36 b372 0f3f
00000180: 0084 073f 935b 283d b10a fa3e ca31 053e
00000190: 26cf aa3f e937 bd3d 80bb 953f fed2 0a3f
000001a0: 5429 953e 5d9c 853f 0400 0000 0d5f eb3f
000001b0: eded 9f3d 7fdb ac3f 0400 0000 1a7c 573e
000001c0: 0400 0000 8366 a03e 3d98 2d3f fa7f 3e3f
000001d0: 107e 2040 a3c2 be3f 621f d93e e7ee b33b
000001e0: 9f8a 233f c9cd e83f dc75 d33e fdf5 e93e
000001f0: 0400 0000 11da ab3f 4ac7 9a3d 4c4f 8d3f
00000200: e8fb e33f 7405 7e3e da88 1a3d 5857 c33e
00000210: 02f8 323e 606d e83f 9a9c c23d d3fa 153f
00000220: 8d6b 153e 5810 7e3c 2483 293f b9e5 453f
00000230: 1645 a33f 4e97 1f3f 36b6 783a cb04 0140
00000240: fd14 fa3b d267 d93e bc20 ad3e 8217 1f3f
00000250: 48ea e93e 4628 3e3e c35c 763f debc d33e
00000260: bb50 113d 0588 f439 554a aa37 9bf0 1f40
00000270: 649b 033e 2f66 023f 5695 2a3d a967 bb3f
00000280: 5be5 b83f 0400 0000 eff8 bc39 9252 393e
00000290: 5be3 0d3d 0341 5c3f b83c 5d3f 0ebb cb39
000002a0: d059 eb3e a766 8b3f 14c4 883e b526 513f
000002b0: 4f81 223e 1e66 653f b0f3 8b3f 134a 7c3e
000002c0: c6bc 8d3f 1b9e ae3e bba7 bc3d 182c ac3f
000002d0: 0400 0000 c8ba a13e 6060 1a40 0adc 0340
000002e0: 3d7d 733f 1417 613e 5c6a 153f 58f2 843e
000002f0: 134c 8a3f 36d3 343f 1ed8 4840 8a80 623d
00000300: f2e8 613f dec2 593e e3d9 843e c904 553d
00000310: 0d91 ef3f 2213 cd3e 7442 1e3f 620a 0440
00000320: 0476 643f c6fb 6d3e dbad a43f ea89 cb3f
00000330: 3c1c 333f 1a73 843f de9e 033e b60f dd3e
00000340: 42bf b43e 5ff7 fa3d 9563 723e 8593 0c3f
00000350: 5f09 0d3d b492 e93d 1bd8 d43e 4a1c d13e
00000360: 8c71 233f 37b5 1240 afcb 883f 383f 9a3f
00000370: 0400 0000 4c2d 323f e16a 6f3f 42a5 853f
00000380: 703d e03e 80d3 5b3e 903f 9e3e 0459 943d
00000390: 7a64 3940 2892 493f 890a 9b3f 7e6e 353f
000003a0: d0cc d43c 0400 0000 c8da 103f 0400 0000
000003b0: 847f 7a3f a257 0939 021f c73d c009 cd3f
000003c0: 91b8 fa3f 10b5 ec3d c849 f73e 0ce1 0d3f
000003d0: 83ce 0d3e 6cba e03f 22bb 1040 6723 b83f
000003e0: 045b 9e3f 531e 093e f9b8 583f dee1 553f
000003f0: 3ee5 983f fcdf 0540 2393 043d ff6a 913b
0.00070054433 0.035251044 1.0946048 1.4310441 1.1290901 1.4284787 0.71830654 0.00754833
0.3333544 0.776099 0.03752945 6e-45 0.7145421 1.6209127 0.37730485 1.545305
0.1352085 0.56255376 0.111171484 0.078626186 0.08451426 0.013879249 1.5983149 1.2205971
0.07677972 0.00051360653 0.25093657 0.5847768 0.43334904 0.38587114 0.051755752 0.0003881621
0.5740487 2.1069896 2.4957821 0.17437798 1.7685064 1.0467166 0.22092713 0.07071875
1.6483151 1.2030371 0.20633046 0.00018491231 0.9406725 2.0774667 1.6551356 6e-45
0.02151588 0.79613924 0.6368428 0.32667953 2.6798763 0.9493713 0.00079402677 0.15448903
1.3316889 1.0135083 0.45073134 0.4374983 1.0707903 1.4945716 1.60469 0.84011954
0.6367077 0.70219237 1.0072517 0.052464876 2.408119 0.6807864 0.8013887 1.3576123
1.1777728 0.034741193 0.53377044 0.00040049173 0.5400414 1.8796837 2.162562 0.054469883
0.5121428 0.5162433 6e-45 0.40955222 1.4263837 0.51005405 0.12767434 6e-45
6e-45 0.26534104 1.4806768 0.04329347 3.276757 0.44071406 6.5631702e-06 0.5603439
0.5293579 0.041102957 0.48836282 0.13007274 1.3344467 0.0923918 1.1697845 0.542282
0.29133093 1.0438343 6e-45 1.8388382 0.078090526 1.3504485 6e-45 0.21043435
6e-45 0.3132821 0.6781042 0.74414027 2.5076942 1.4903148 0.42406756 0.005491126
0.63883394 1.8187801 0.41300857 0.45695487 6e-45 1.3425924 0.075575426 1.1039824
1.7811251 0.24806768 0.037728168 0.38152575 0.1747742 1.8158379 0.09502526 0.5858585
0.14591809 0.015506826 0.6621573 0.77303654 1.2755458 0.6234025 0.0009487601 2.0159175
0.0076318965 0.4246202 0.33814037 0.62145245 0.45686555 0.1857005 0.96235293 0.41355032
0.03547738 0.0004664065 2.0300193e-05 2.4990604 0.12852246 0.5093717 0.041646324 1.464101
1.4444994 6e-45 0.00036043624 0.18097904 0.03464065 0.860367 0.86420774 0.00038858544
0.4596696 1.0890702 0.26712096 0.8169969 0.1586964 0.89608943 1.0933743 0.24637632
1.1073234 0.34105 0.092116795 1.3450956 6e-45 0.31587815 2.4121323 2.060305
0.95112973 0.2198146 0.58365417 0.25966144 1.0804466 0.7063478 3.1381907 0.055298366
0.8824607 0.21265742 0.25947484 0.052006517 1.8716141 0.4005366 0.6182015 2.0631337
0.8924258 0.23240575 1.2865556 1.5901463 0.6996496 1.0347626 0.12853572 0.4317605
0.35302168 0.122542135 0.236708 0.54912597 0.034432765 0.114049345 0.41571125 0.40841895
0.63845134 2.2923105 1.0687159 1.2050543 6e-45 0.6960037 0.9352246 1.0441058
0.43796873 0.214674 0.3090787 0.07243541 2.8967576 0.7873864 1.211259 0.7087172
0.025976568 6e-45 0.56583834 6e-45 0.97850823 0.00013097984 0.09722711 1.60186
1.9587575 0.115579724 0.48298478 0.5542152 0.13848309 1.7556891 2.2614217 1.4385804
1.2371526 0.13390474 0.84657246 0.8354777 1.1944959 2.091796 0.032366883 0.0044378038
