saved/checkpoint_critic_agent_1.pth (torch_old, 324044 bytes, 9 tensors)

fc1.weight f4 [256, 52]
0	0x3e550180	0.20801353
1	0x3cfd4cae	0.030920353
2	0x3d1d9b98	0.038478464
3	0x3bc594f9	0.006029722
4	0xbd464e6e	-0.04841464
5	0xba84a802	-0.0010120871
6	0x3ccfef2e	0.025382604
7	0x3c54717f	0.012966513
8	0x3e893360	0.2679701
9	0x3e340352	0.17579392
10	0xbc582105	-0.013191466
11	0x3e94c3f6	0.29055756
12	0x3cae84d8	0.02130358
13	0xbceabcff	-0.028654573
14	0xbd9b5040	-0.07583666
15	0x3ea483f2	0.32131916
16	0x3ebe1d1d	0.37131587
17	0x3e4dacd7	0.20085464
18	0x3db61d11	0.08892263
19	0x3ec2c8b0	0.38043737
20	0x3e04a19c	0.12952274
21	0x3d3e5ceb	0.046475332
22	0x3d18bc35	0.037288863
23	0x3e8a7d8a	0.27048904
24	0x3ef77b6e	0.48336357
25	0x3ee0522f	0.438127
26	0xbe24209e	-0.16028067
27	0x3e2ffe22	0.17186788
28	0x3e00805a	0.12548962
29	0x3c072877	0.008249394
30	0xbdfa2b0e	-0.12215243
31	0x3e24b084	0.1608296
32	0x3ed91947	0.42402098
33	0x3f047781	0.5174485
34	0xbe665bc9	-0.22495951
35	0xbbac27b9	-0.0052537587
36	0xbb8422df	-0.0040324773
37	0xbd662475	-0.056187112
38	0xbe928d62	-0.28623492
39	0xbd0956b5	-0.033529956
40	0x3edea3dd	0.43484393
41	0x3ebd6042	0.369875
42	0xbe1b0e2a	-0.15142122
43	0x3edaa5d7	0.4270465
44	0xbcfdbab3	-0.030972814
45	0x3cc75fba	0.024337638
46	0xbe173584	-0.14766508
47	0x3efeac1b	0.4974068
48	0x3f352c19	0.7077041
49	0xbeabd8c0	-0.33563805
50	0xbd90f67b	-0.070782624
51	0xbec37d55	-0.38181558
52	0x3f28a0b7	0.6587023
53	0x3f480a99	0.7814117
54	0x3d2da6bb	0.042395335
55	0xbcc921ad	-0.02455219
56	0xbe148918	-0.14505422
57	0xbdb788c3	-0.08961632
58	0x3c96185d	0.018322164
59	0xbce9adab	-0.028525194
60	0x3f17a009	0.5922857
61	0x3f1276c7	0.5721249
62	0xbd75994c	-0.05996065
63	0xbe8459bd	-0.25849715
64	0x3e057a90	0.13035035
65	0xbd9ff7ca	-0.07810934
66	0xbd3a7b1c	-0.045527562
67	0xbe69c733	-0.22829895
68	0x3ea6231a	0.32448655
69	0x3ec69af5	0.38790098
70	0x39b636a4	0.00034754456
71	0xbe76f945	-0.24118526
72	0x3f022846	0.508427
73	0xbe00a6ca	-0.12563625
74	0x3aa68c86	0.0012706674
75	0xbe8da4bf	-0.27664754
76	0x3d9d2a97	0.07674139
77	0xbf7e7fca	-0.9941374
78	0xbd2110b2	-0.039322563
79	0xbd93588d	-0.07194624
80	0x3e1277c6	0.14303502
81	0xbe17d434	-0.14827043
82	0xbd4140a9	-0.047180805
83	0xbdaba7a3	-0.083815835
84	0x3e81cccb	0.25351557
85	0xbfa31429	-1.2740527
86	0xbc9980d0	-0.01873818
87	0x3ccf8c6a	0.02533551
88	0xbe1aaac0	-0.15104198
89	0xbd0893ed	-0.033344198
90	0xbd7e1639	-0.062032912
91	0xbb23a67a	-0.0024971054
92	0x3e56964e	0.20955774
93	0xbfb56557	-1.4171551
94	0xbd33e8bc	-0.043923125
95	0x3e9de779	0.30840662
96	0xbf018b14	-0.5060284
97	0xbd430587	-0.047612693
98	0xbce072cb	-0.027398488
99	0x3e8dfccd	0.27731934
100	0xbffd5566	-1.9791687
101	0xbf5b92e2	-0.85771
102	0xc04fdef7	-3.2479837
103	0x3f4490e2	0.76783574
104	0x3e1bdc01	0.15220644
105	0xbe306239	-0.17224969
106	0x3cd77009	0.02629854
107	0xbdffeb46	-0.12496047
108	0xbf04a3c6	-0.518124
109	0xbe31835f	-0.1733527
110	0x3d74297c	0.059609875
111	0xbddf3a20	-0.10899758
112	0x3f0af81e	0.54284847
113	0xbddf7a61	-0.10912014
114	0x3e8c8f15	0.27452913
115	0x3cbee6af	0.023303358
116	0xbf47d6b4	-0.78061986
117	0xbe52745a	-0.20552197
118	0x3e865ba7	0.262418
119	0x3d54462e	0.05182474
120	0x3f6411a2	0.89089406
121	0x3d5cc040	0.05389428
122	0x3cb1ae62	0.021689598
123	0xbccbbea3	-0.024871176
124	0xbfa6ffd8	-1.3046827
125	0xbd390f5a	-0.045180656
126	0x3d23f8bb	0.04003213
127	0xbd3dd57c	-0.046346173
128	0xbe581932	-0.21103361
129	0x3f16c564	0.58894944
130	0xbd85b3a0	-0.065284014
131	0xbc9b466a	-0.018954474
132	0x3f07ab44	0.52995706
133	0xbe46fb57	-0.19431816
134	0xbcfd1f19	-0.030898618
135	0x3d99ff53	0.07519402
136	0x3d28a05e	0.041168563
137	0x3f180ae0	0.59391594
138	0xbcaca6a4	-0.021075554
139	0xbe1e5203	-0.15460972
140	0x3f52bce8	0.823195
141	0xbe4990fa	-0.1968421
142	0xbdb2fca3	-0.08739593
143	0xbe5e658d	-0.21718426
144	0x3e863c86	0.2621805
145	0x3efe4b4b	0.4966682
146	0xbcdad4d9	-0.026712822
147	0xbe95e58e	-0.292767
148	0x3fa83514	1.3141198
149	0xbdac70b4	-0.08419934
150	0xbdb7dee2	-0.089780584
151	0xbe60bb12	-0.21946362
152	0x3f1dd927	0.61659473
153	0xbe200bbb	-0.15629475
154	0x3e99f55c	0.30070007
155	0xbf13072e	-0.5743283
156	0xbdd1212a	-0.10211404
157	0xbd422711	-0.047400538
158	0x3ce3193c	0.027721994
159	0xbc2699f2	-0.010168539
160	0xbde33681	-0.1109438
161	0x3e9d3eed	0.3071207
162	0xbc5399d5	-0.012915094
163	0x3c01857b	0.007905359
164	0x3cd7a2b9	0.02632271
165	0xbcb35cbd	-0.021894807
166	0x3d51eaca	0.051249303
167	0xbd34d593	-0.044148993
168	0xbf4288d2	-0.7599002
169	0x3e3fb193	0.18720083
170	0xbd438aee	-0.047739916
171	0x3cc387d3	0.023868477
172	0x3e572e99	0.2101387
173	0x3e0576a7	0.13033544
174	0x3c2fd95e	0.010732977
175	0x3cb5e109	0.022202032
176	0xc03cc315	-2.9494069
177	0x3e8bc4b5	0.27298513
178	0xbc253996	-0.01008453
179	0xbd6f7cc5	-0.0584686
180	0x3d65b637	0.056081977
181	0x3ec48ca9	0.38388565
182	0x3d16473d	0.036689032
183	0x3e7f30e8	0.24921
184	0x3e013be2	0.126205
185	0x3e7c6074	0.24646169
186	0xbd027dfe	-0.031858437
187	0x3e2a607c	0.16638368
188	0x3dc6ff0d	0.09716616
189	0x3f31ba28	0.69424677
190	0x3c8dc369	0.017305093
191	0x3d60469f	0.05475485
192	0x3f5a8b28	0.85368586
193	0x3e768c63	0.24076991
194	0xbcb7e8c2	-0.022449855
195	0x3e1bbfd2	0.15209892
196	0x3d0224b0	0.03177327
197	0x3f477194	0.7790768
198	0xbd0e8ecf	-0.03480416
199	0xbdcc1e3c	-0.09966704
200	0x403f1143	2.9854286
201	0x3e58a4d8	0.21156633
202	0xbce82879	-0.028339611
203	0xbce16f1a	-0.027518798
204	0xbf05f965	-0.5233367
205	0xbdcc2fa7	-0.099700265
206	0x3d027723	0.0318519
207	0x3cfa93b4	0.030588008
208	0xbe1bdff7	-0.15222155
209	0x3f2bbdf5	0.67086726
210	0xbd002f9b	-0.0312954
211	0x3e4232b5	0.18964656
212	0xbf134d00	-0.5753937
213	0x3e495867	0.19662629
214	0xbdab5a6a	-0.083668545
215	0x3dfd9e45	0.12383703
216	0xbe771934	-0.24130708
217	0x3f6159e6	0.880278
218	0xbeb71811	-0.3576055
219	0x3df1af80	0.11801052
220	0xbea9af7a	-0.3314169
221	0x3e75fce2	0.24022248
222	0xbebef5e7	-0.37296984
223	0x3e505703	0.20345692
224	0xbe7cdc3a	-0.24693385
225	0x3f6e6f8e	0.9313897
226	0xbd6560a5	-0.05600037
227	0x3e391edd	0.1807818
228	0x3dbd222f	0.09235036
229	0x3e807b2a	0.25093967
230	0xbe057303	-0.13032155
231	0x3e657391	0.22407366
232	0x3e6be733	0.23037414
233	0x3e19c91a	0.1501812
234	0x3ea52e3e	0.32261842
235	0xbe417a4a	-0.18894306
236	0x3f140828	0.57824945
237	0x3e2c2023	0.16809134
238	0x3e924bdc	0.285735
239	0xbdd6a18d	-0.10480032
240	0x3e7e00c9	0.24804987
241	0xbda3bd2d	-0.07995067
242	0x3d40a901	0.047036175
243	0xbef7f253	-0.48427066
244	0x3e9ce8d0	0.30646372
245	0x3e9b8739	0.30376604
246	0x3d495aa5	0.04915871
247	0xbef77630	-0.48332357
248	0x3e61a35a	0.2203497
249	0xbdb2accb	-0.08724364
250	0xbda2a2de	-0.07941221
251	0xbee6668b	-0.4500011
252	0xbdf7ed03	-0.12105753
253	0x3e9d9bb1	0.30782846
254	0xbdf4453c	-0.11927268
255	0xbedf9057	-0.4366481

fc1.bias f4 [256]
0	0xbef0937d	-0.46987525
1	0xbf0b6b9d	-0.5446108
2	0xbe9337da	-0.2875355
3	0x3db402fb	0.08789631
4	0xbd60560b	-0.054769557
5	0xbf26619c	-0.6499269
6	0xbea2f91b	-0.31830677
7	0xbef7a245	-0.4836599
8	0xbefc1b9d	-0.49239817
9	0xbeb274b4	-0.34854662
10	0xbf1f34e8	-0.62190104
11	0xbda8c8e6	-0.08241443
12	0xbe8d8c95	-0.27646318
13	0xbec91e76	-0.39281052
14	0xbc4563aa	-0.012047688
15	0xbea7e230	-0.32789755
16	0xbe084450	-0.13307309
17	0x3cd0dd67	0.025496198
18	0xbeba4455	-0.36380258
19	0xbf8f8d48	-1.1214991
20	0xbe35f97f	-0.17770956
21	0x3cb8f3a8	0.022577122
22	0xbe680fa3	-0.22662215
23	0xbceeaae6	-0.029134225
24	0xbf3fffc8	-0.74999666
25	0xbe8b6f6b	-0.27233443
26	0xbe01f6fc	-0.12691873
27	0xbf081d08	-0.531693
28	0x3dbd4e53	0.09243455
29	0xbdb1804e	-0.0866705
30	0xbe8dd8a1	-0.27704337
31	0xbdc65afc	-0.09685323
32	0xbf476f7b	-0.7790448
33	0xbe2d4d97	-0.1692413
34	0xbe66393e	-0.22482774
35	0x3dd669d3	0.10469403
36	0xbf57d73f	-0.84312814
37	0xbf2a1114	-0.6643231
38	0xbf142377	-0.57866615
39	0xbe672906	-0.22574243
40	0xbf1e5628	-0.61850214
41	0xbf920e8a	-1.1410687
42	0xbeb5a120	-0.3547449
43	0xbfa2f189	-1.2729961
44	0xbec13925	-0.3773891
45	0xbe9c49ab	-0.30524954
46	0xbc73f35a	-0.0148895625
47	0x3e214754	0.15749866
48	0xbeaea973	-0.34113654
49	0xbe962a27	-0.29329035
50	0x3dd4314a	0.10360964
51	0xbedb80f1	-0.42871812
52	0xbf66a10f	-0.90089506
53	0xbf06de66	-0.52683103
54	0xbebbb4a9	-0.3666127
55	0xbd0fa274	-0.035067037
56	0x3e0d721e	0.13813064
57	0xbf9edc6f	-1.2411021
58	0xbe85dae6	-0.2614357
59	0xbe9be0f6	-0.3044507
60	0xbeeffd23	-0.46872815
61	0xbf45880a	-0.77160704
62	0xbf1f8d2c	-0.62324786
63	0x3e91b7cb	0.28460535
64	0xbf0f4a26	-0.55972517
65	0xbfb2b8ac	-1.3962607
66	0xbf336938	-0.70082426
67	0xbed3e36a	-0.4138444
68	0xbeae705c	-0.34070098
69	0xbe84b080	-0.2591591
70	0xbed3ea35	-0.41389623
71	0xbf0e55e0	-0.55599785
72	0xbf1e6713	-0.6187603
73	0xbe81a124	-0.25318253
74	0xbe8f4df3	-0.27989158
75	0xbe9fe803	-0.31231698
76	0xbe209fe8	-0.15686
77	0xbe9438ac	-0.28949487
78	0xbdb525cb	-0.08845099
79	0xbe138381	-0.14405634
80	0xbf0cd647	-0.5501446
81	0xbe8006f9	-0.2500532
82	0xbebf1f94	-0.3732878
83	0xbe9857cd	-0.29754487
84	0xbf2345dd	-0.6377848
85	0xbebd7a65	-0.37007442
86	0xbd919ceb	-0.07110008
87	0xbeda5282	-0.42641073
88	0x3c94a7ff	0.018146513
89	0xbf027aec	-0.50968814
90	0xbeba43c4	-0.36379826
91	0xbe8c8bde	-0.2745046
92	0xbf533e3a	-0.82516825
93	0xbe939c8d	-0.28830376
94	0xbecde7e9	-0.40215996
95	0xbefcee53	-0.49400577
96	0xbefb31b9	-0.49061373
97	0xbe278eda	-0.16363087
98	0xbf171928	-0.5902276
99	0xbd83003d	-0.0639653
100	0xbf25f4a5	-0.6482642
101	0xbf451509	-0.7698522
102	0xbf656196	-0.8960203
103	0xbed7c748	-0.42144227
104	0xbf241254	-0.64090466
105	0xbf3753ef	-0.7161245
106	0xbee63301	-0.44960788
107	0xbea9cf1d	-0.33165827
108	0xbf928d13	-1.1449302
109	0xbf06e44c	-0.52692103
110	0xbe9affab	-0.30273184
111	0xbe9a458d	-0.30131188
112	0xbe8ef59b	-0.27921757
113	0xbee3dca1	-0.44504264
114	0xbe7d9d8f	-0.24767135
115	0xbf02d4d0	-0.51105976
116	0xbebd1b5e	-0.36934942
117	0xbe5e94ee	-0.217365
118	0xbd4c4d35	-0.049878318
119	0xbd6376f8	-0.05553338
120	0xbeec9eb8	-0.46214843
121	0xbe005676	-0.12532982
122	0xbf54aa95	-0.8307279
123	0xbe93b134	-0.28846133
124	0xbf0bb156	-0.5456747
125	0xbf0b7268	-0.54471445
126	0xbf4e050f	-0.8047647
127	0xbea56843	-0.32306108
128	0xbe3f6f0a	-0.18694702
129	0xbecd1a64	-0.40059197
130	0xbe8d5b12	-0.27608544
131	0xbd111757	-0.03542265
132	0x3cb5528a	0.022134084
133	0xbf003645	-0.5008281
134	0xbf81bea8	-1.0136309
135	0xbf21f1af	-0.63259405
136	0xba91ce4e	-0.0011124106
137	0xbeae5664	-0.34050286
138	0xbec3a16d	-0.38209096
139	0xbeb17731	-0.34661248
140	0xbf215ad9	-0.6302925
141	0xbecea24b	-0.40358195
142	0xbe28795d	-0.16452546
143	0xbe00e18b	-0.12586038
144	0xbf2afd64	-0.66792893
145	0xbe87ea82	-0.26546103
146	0xbe9fbf97	-0.3120086
147	0xbf169bb0	-0.5883131
148	0xbe356f8d	-0.17718334
149	0xbf56f5fd	-0.839691
150	0xbeae80f8	-0.3408277
151	0xbea2f1b4	-0.3182503
152	0xbeb34c09	-0.35018948
153	0xbca027e9	-0.01955028
154	0xbc52e615	-0.012872239
155	0xbe917837	-0.2841203
156	0xbec8a88f	-0.391911
157	0xbf50926e	-0.81473434
158	0xbe8e704b	-0.27820048
159	0xbedb2485	-0.428013
160	0xbebaf6d1	-0.3651643
161	0xbe8dcbad	-0.27694455
162	0xbeccb171	-0.39979127
163	0xbf615394	-0.88018155
164	0xbf451834	-0.76990056
165	0xbe9fbc3c	-0.311983
166	0xbf52801b	-0.82226723
167	0xbec0d9f5	-0.37666288
168	0xbe13e4fb	-0.14442818
169	0x3df01e17	0.11724489
170	0xbef30d61	-0.47471145
171	0xbf2a0064	-0.66406846
172	0xbf013036	-0.5046419
173	0xbec8fcad	-0.39255276
174	0xbda175ac	-0.07883772
175	0xbeeee924	-0.46662247
176	0xbf34b0cc	-0.7058227
177	0xbf31c00f	-0.69433683
178	0xbd345348	-0.044024736
179	0xbf0c78d7	-0.54871887
180	0x3dfd4067	0.123657994
181	0xbf5c5b92	-0.86077225
182	0x3dfc78d4	0.12327734
183	0xbfd10e74	-1.6332536
184	0xbf4c8701	-0.798935
185	0xbf0040cf	-0.5009889
186	0xbe18651c	-0.1488232
187	0xbe130aa0	-0.14359522
188	0xbd93947f	-0.07206058
189	0xbe8ff6d2	-0.28117996
190	0x3e9ad405	0.30239883
191	0xbee173e7	-0.4403374
192	0xbf560c71	-0.83612734
193	0xbf22cae2	-0.63590825
194	0xbe6feb41	-0.23429586
195	0xbccefa4d	-0.025265837
196	0xbebfee6d	-0.37486592
197	0xbde1fc95	-0.11034504
198	0xbe6574dc	-0.2240786
199	0xbe522dfb	-0.20525353
200	0xbed6cd3d	-0.4195346
201	0xbe1171fd	-0.1420364
202	0xbe0151db	-0.12628882
203	0xbf13cb37	-0.57731956
204	0xbf1a0f55	-0.60179645
205	0xbcbd9c69	-0.023145871
206	0xbecc4ba2	-0.39901453
207	0xbf34623b	-0.7046239
208	0xbe3f9c33	-0.18711929
209	0xbf4eed77	-0.8083109
210	0xbf08d219	-0.53445584
211	0xbecb8ae3	-0.397544
212	0x3d769b58	0.06020674
213	0xbeae2cbd	-0.34018508
214	0xbf34e2fe	-0.7065886
215	0xbeaaee5d	-0.33384982
216	0xbf0ebb33	-0.55754393
217	0xbefd6913	-0.49494228
218	0xbe9bf53d	-0.3046054
219	0xbe4bd161	-0.1990409
220	0xbef23647	-0.47307035
221	0xbf195dac	-0.59908557
222	0xbe89404b	-0.26806864
223	0xbd6973bb	-0.056995135
224	0xbdeb72f4	-0.11496535
225	0xbcdaf5da	-0.02672856
226	0xbee1cf16	-0.44103307
227	0xbd649802	-0.05580903
228	0x3da3f77e	0.0800619
229	0xbe218dba	-0.1577672
230	0xbe6253d6	-0.22102293
231	0xbed0a441	-0.40750316
232	0xbed9577c	-0.42449558
233	0xbee90230	-0.4550948
234	0x3e1565e1	0.14589645
235	0xbeb8dff2	-0.36108357
236	0xbee74fe1	-0.4517813
237	0xbf86227a	-1.0479271
238	0xbf5c4f9e	-0.86058986
239	0xbe7f498d	-0.24930401
240	0xbf006be4	-0.5016463
241	0xbeeab38a	-0.45840102
242	0xbf89d16d	-1.0767037
243	0xbf9ccc0c	-1.224977
244	0xbe98aa99	-0.29817656
245	0xbf111539	-0.5667301
246	0xbe9c51e9	-0.30531242
247	0xbfd32003	-1.6494144
248	0xbf2734ee	-0.6531514
249	0xbe97fbae	-0.29684204
250	0xbe9fdfd7	-0.31225464
251	0xbd9df4ae	-0.077126846
252	0xbf2523ca	-0.64507735
253	0xbe60df5d	-0.21960206
254	0xbeb7727c	-0.35829532
255	0x3da96ced	0.08272729

fc2.weight f4 [256, 256]
0	0x3d0c264d	0.034216214
1	0x3c79fe4f	0.015258386
2	0x3c8bdb0c	0.017072223
3	0xbd838e9b	-0.06423684
4	0xbe8ae531	-0.27127984
5	0xbd666931	-0.056252662
6	0xbe2837d7	-0.16427551
7	0x3c908c5e	0.017645057
8	0x3d1f9116	0.038956724
9	0xbc6b012a	-0.014343539
10	0xbd202d89	-0.039105926
11	0xbd4df716	-0.050284468
12	0xbcd7b328	-0.026330546
13	0xbd2db8c6	-0.04241254
14	0x3c8bd179	0.017067658
15	0xbda86ac2	-0.082234874
16	0xbc4fa35c	-0.012673225
17	0xbdaa912f	-0.08328473
18	0xbcbf432c	-0.02334746
19	0xbd28fd44	-0.041257158
20	0xbdc2bee7	-0.09509068
21	0x3d96dc56	0.073662445
22	0xbd90d33a	-0.07071538
23	0x3ce30ed7	0.027717037
24	0xbcf602fc	-0.03003072
25	0xbd454a97	-0.048166838
26	0xbd8d215a	-0.06891127
27	0x3aaad88a	0.0013034504
28	0x3d191660	0.037374854
29	0xbd914fac	-0.07095274
30	0x3ceae9d8	0.028675959
31	0xbd9fe8e5	-0.07808093
32	0xbc170926	-0.00921849
33	0xbc11eb34	-0.008906174
34	0xbe31136e	-0.17292568
35	0xbe4dbe6a	-0.20092168
36	0xbc4ea08c	-0.01261152
37	0x3cd87c7f	0.026426552
38	0x3bab7020	0.005231872
39	0xbd5f223f	-0.05447602
40	0x3c7ea5d4	0.015542466
41	0xbd249906	-0.040184997
42	0xbd895207	-0.067050986
43	0x3dbacfb8	0.091216505
44	0x3c83101d	0.015998894
45	0xbd3ffa01	-0.04686928
46	0xbd394e77	-0.045240846
47	0x3da2836d	0.07935224
48	0x3dfab1c5	0.12240938
49	0xbb9a07f2	-0.004700654
50	0x3e1f24d8	0.15541399
51	0xbe2c176c	-0.1680581
52	0xbdaf0efa	-0.085477784
53	0x3d0b2063	0.033966433
54	0x3cf20126	0.029541563
55	0xbd854a54	-0.065083176
56	0xbe064ea7	-0.13115941
57	0x3c9d6827	0.019214703
58	0x3dba56b5	0.09098569
59	0x3c04feea	0.008117417
60	0xbcb845e5	-0.022494266
61	0xbd82593d	-0.06364677
62	0xbda1ca7e	-0.078999504
63	0xbe377b31	-0.17918088
64	0x3e177361	0.14790107
65	0x3dd09f81	0.10186673
66	0x3db7cbcc	0.08974418
67	0xbe1ec35e	-0.15504214
68	0x3dedbe63	0.11608579
69	0xbd57eab4	-0.052714065
70	0x3d747f65	0.059691805
71	0x3b7b5bb2	0.0038354215
72	0xbc5c78bf	-0.0134565225
73	0x3db19d7a	0.086726144
74	0xbd0a354a	-0.033742227
75	0x3b67b997	0.0035358423
76	0x3d35dbf9	0.044399235
77	0x3dacc7b5	0.084365286
78	0x3c884bc6	0.016637694
79	0xbd860a25	-0.06544904
80	0xbb6159e4	-0.0034385854
81	0x3a82e037	0.0009985034
82	0xbca4f87a	-0.020138014
83	0xbe035a82	-0.12827495
84	0xbe24328b	-0.16034906
85	0xbd40893c	-0.047005877
86	0x3a2f1ab3	0.00066796987
87	0xbd0ad08f	-0.033890303
88	0xbd871635	-0.065960325
89	0xbd33a8d1	-0.043862168
90	0xbe28476a	-0.16433492
91	0x3cabc14d	0.020966196
92	0xbca60608	-0.020266548
93	0xbd8073ca	-0.06272085
94	0xbdba126d	-0.09085546
95	0xbd68b61c	-0.056814298
96	0x3da75b9d	0.08171771
97	0xbcad8984	-0.021183737
98	0xbcdd1d9b	-0.026991656
99	0x3d04c63b	0.03241561
100	0x3e092946	0.13394651
101	0xbc7d4510	-0.01545836
102	0x3bae1581	0.005312622
103	0xbdca0b4e	-0.098654374
104	0xbc83e999	-0.016102599
105	0x3d1f889a	0.038948633
106	0xbb52b4c1	-0.0032151195
107	0xbe5ed0de	-0.21759364
108	0x3d2f1795	0.0427471
109	0x3e011409	0.12605299
110	0xbdfb8fbe	-0.12283276
111	0x3d351422	0.044208653
112	0x3e35b24e	0.17743799
113	0xbdba7de4	-0.09106043
114	0x3c87d348	0.016580239
115	0xbca87c96	-0.02056722
116	0xbd29b018	-0.0414277
117	0xbd3fb556	-0.046803795
118	0x3b8433ac	0.00403448
119	0xbdf860f5	-0.12127868
120	0xbd614175	-0.054994065
121	0x3c288c48	0.010287352
122	0x3dc1f4a5	0.0947049
123	0xbd9ff48d	-0.07810316
124	0x3c8adf5c	0.01695221
125	0xbc910079	-0.01770042
126	0xbcce79d4	-0.025204577
127	0xbddec0ef	-0.10876643
128	0xbc066a8e	-0.008204116
129	0x3c1f242e	0.009713216
130	0xbdd4d375	-0.10391895
131	0x3d984def	0.0743674
132	0xbe61d4ca	-0.22053829
133	0xbcb2c1a9	-0.02182086
134	0x3d2f7bee	0.042842798
135	0xbe2602df	-0.16212033
136	0x3c7391dd	0.0148663195
137	0xbd387e26	-0.04504218
138	0xbd57ea70	-0.05271381
139	0xbd76f783	-0.06029464
140	0xbd544274	-0.051821187
141	0xbd03e867	-0.032204058
142	0x3d05e01c	0.03268443
143	0x3e5f7b43	0.21824364
144	0xbbcb031d	-0.0061954395
145	0xbdb2114c	-0.08694705
146	0x3c64c124	0.013962064
147	0x3d5b7914	0.053582266
148	0xbd16a0cb	-0.036774438
149	0xbe3ef0bd	-0.18646522
150	0xba1a7643	-0.0005892256
151	0xbd92dc1f	-0.07170891
152	0x3d8644e6	0.0655611
153	0xbe214f1e	-0.15752837
154	0x3dae5272	0.08511819
155	0xbd5e3e4c	-0.05425863
156	0xbda28843	-0.07936146
157	0xbc8c1b66	-0.017102908
158	0xbd3cab39	-0.04606173
159	0x3e14634b	0.14491002
160	0x3d55d83f	0.05220818
161	0x3c8ee001	0.017440798
162	0xbc682f04	-0.014171366
163	0x3b69cb82	0.0035674279
164	0xbd9f882f	-0.07789647
165	0xbdc6156e	-0.09672056
166	0xbd1b80c9	-0.037964616
167	0xbe06bbd1	-0.13157584
168	0x3d690ed9	0.056898925
169	0xbc94e7aa	-0.018176872
170	0x3d5f5e66	0.054533385
171	0x3c7eda43	0.015554967
172	0xbe06ead9	-0.13175525
173	0xbd919a95	-0.07109562
174	0xbdb73f52	-0.08947624
175	0x3d655d2a	0.05599705
176	0xbd3be3b2	-0.045871444
177	0xbd1907d8	-0.037360996
178	0xbb84e3ff	-0.0040554996
179	0x3d56c7c6	0.052436613
180	0xbda916a6	-0.08256273
181	0xbdcdfb59	-0.100577064
182	0xbd1d5ae4	-0.03841676
183	0x3d6ca786	0.05777695
184	0xbd20e3be	-0.039279692
185	0xbd903d5b	-0.070429526
186	0xbd22fa27	-0.039789345
187	0xbdb0cfa4	-0.08633354
188	0x3d09ef30	0.033675373
189	0xbcf7d907	-0.030254854
190	0xbde0b18d	-0.10971365
191	0xbd8a4214	-0.06750885
192	0x3b8181a5	0.0039522224
193	0x3c015b2c	0.007895272
194	0x3dae25df	0.08503317
195	0x3d97e7cb	0.07417258
196	0xbdc0056a	-0.09376033
197	0xbcf20259	-0.029542135
198	0x3da8d90e	0.08244525
199	0xbc0d54af	-0.008626147
200	0x3c9b0aba	0.018926013
201	0xbc91301c	-0.017723136
202	0xbce4742a	-0.027887423
203	0x3d4da3fc	0.050205216
204	0xbdd663b2	-0.10468234
205	0xbe3253f9	-0.17414846
206	0x3caf1280	0.021371126
207	0xbd8f0dea	-0.06985076
208	0xbe88ab71	-0.266933
209	0xbcb630a4	-0.02223999
210	0x3d48b66c	0.049002096
211	0xbe0567ed	-0.13027926
212	0xbd1ccb5f	-0.038279887
213	0xbc3c67dc	-0.011499371
214	0x3d044be3	0.032298934
215	0x3d5554ac	0.052082703
216	0xbda60a3d	-0.081074215
217	0xbc9a6578	-0.018847212
218	0x3bce9f3c	0.0063056033
219	0xbdba1428	-0.09085876
220	0xbdf01417	-0.11722582
221	0xbddfc4b5	-0.10926191
222	0xbd66232c	-0.056185886
223	0xbd3a510b	-0.045487445
224	0xbd10edeb	-0.035383146
225	0xbd6e869c	-0.058233842
226	0xbd5ab1a5	-0.05339207
227	0xbd060989	-0.032723937
228	0xbdc53e9d	-0.09631083
229	0x3df03e4e	0.11730634
230	0xbc71c01e	-0.014755277
231	0x3d5e9c00	0.054347992
232	0xbe216638	-0.1576165
233	0x3c8461c5	0.016159901
234	0x3bb21810	0.0054349974
235	0xbd4bd47e	-0.049763195
236	0x3d85aac9	0.06526715
237	0x3d2d3d7a	0.042294957
238	0x3d891b2a	0.06694634
239	0x3c84db95	0.016217986
240	0x3c9a68f5	0.018848876
241	0x3b00f05c	0.0019674515
242	0x3dd8e57a	0.10590644
243	0xbca63f51	-0.020293863
244	0x3d31c69d	0.043402303
245	0x3daaee20	0.083462
246	0xbc0e8caa	-0.008700529
247	0x3c3ce2d1	0.011528687
248	0xbe01e271	-0.12684037
249	0xbd1261c4	-0.035737768
250	0xbd4192a3	-0.047258984
251	0x3e2b0e87	0.1670476
252	0x3d285cd2	0.041104145
253	0x3c4aa6bc	0.012368854
254	0x3dfc242a	0.12311585
255	0x3d82c10b	0.06384476

fc2.bias f4 [256]
0	0xbe192378	-0.14954937
1	0xbe03d84b	-0.12875478
2	0xbe6ba591	-0.23012377
3	0xbe8eb894	-0.27875197
4	0xbe432541	-0.1905718
5	0xbe29b4c5	-0.16572864
6	0xbe215549	-0.1575519
7	0xbea35801	-0.3190308
8	0xbe0b0d12	-0.13579205
9	0xbe3989d8	-0.1811899
10	0xbe7b4c31	-0.24540783
11	0xbe3cace9	-0.18425335
12	0xbe3822c6	-0.17982015
13	0xbe0a797f	-0.1352291
14	0xbe03689d	-0.12832876
15	0xbe5d8992	-0.2163451
16	0xbe3b749b	-0.183062
17	0xbde94adf	-0.11391234
18	0xbe209d3b	-0.15684979
19	0xbdce78e1	-0.100816496
20	0xbdcc7a78	-0.099842966
21	0xbe6c7f06	-0.2309533
22	0xbe5a5494	-0.21321326
23	0xbe490d3d	-0.19633956
24	0xbeb69844	-0.35663044
25	0xbe20d829	-0.15707459
26	0xbebf2315	-0.37331453
27	0xbe4cedaa	-0.20012537
28	0xbe6e7e22	-0.23290303
29	0xbe728523	-0.236836
30	0xbe263cde	-0.16234156
31	0xbe0c778f	-0.13717483
32	0xbda00ac4	-0.078145534
33	0xbdb1f0cc	-0.086885065
34	0xbdc28445	-0.09497885
35	0xbd867d32	-0.06566848
36	0xbe3fee46	-0.18743238
37	0x3d718630	0.05896586
38	0xbe526d1e	-0.20549437
39	0xbe2a671d	-0.16640897
40	0xbe013e56	-0.12621436
41	0xbe89d12d	-0.269174
42	0xbe4c51b4	-0.19953042
43	0xbe1a8c53	-0.15092592
44	0xbe0706e1	-0.13186218
45	0xbd689eba	-0.056792
46	0xbda06407	-0.07831579
47	0xbdde4eae	-0.10854851
48	0xbe67a524	-0.2262159
49	0xbe050448	-0.12989914
50	0xbe38fad0	-0.18064427
51	0xbe11869c	-0.14211506
52	0xbe2a0191	-0.1660216
53	0xbe13bfa4	-0.14428574
54	0xbe1bb25b	-0.15204756
55	0xbe150611	-0.14553095
56	0xbe0a7d22	-0.13524297
57	0xbdb30fb6	-0.08743231
58	0xbdc12816	-0.09431474
59	0xbe760607	-0.24025737
60	0xbe84677a	-0.25860196
61	0xbd9c92da	-0.07645197
62	0xbd9d87b3	-0.07691898
63	0xbe3f4278	-0.186777
64	0xbe88a16d	-0.26685658
65	0xbdf27bc6	-0.11840014
66	0xbdb1b8fd	-0.08677862
67	0xbe0703f6	-0.13185105
68	0xbe26cfe1	-0.16290237
69	0xbe1cf02c	-0.15325993
70	0xbe33e2eb	-0.17567031
71	0xbe09f3e9	-0.1347195
72	0xbe76bfa6	-0.24096546
73	0xbdde8ec6	-0.108670756
74	0xbe16b3c0	-0.14717007
75	0xbdcd4160	-0.10022235
76	0xbe6a3724	-0.22872597
77	0xbe2463e3	-0.16053729
78	0xbe16257d	-0.14662738
79	0xbe18e4fe	-0.14931104
80	0xbdb71b3b	-0.08940741
81	0xbe42ac90	-0.1901114
82	0xbe54e833	-0.20791702
83	0xbdf1b7a6	-0.11802606
84	0xbe100382	-0.14063838
85	0xbe05e854	-0.13076907
86	0xbe20863d	-0.15676208
87	0xbe1b5a02	-0.15171054
88	0xbdc2fa23	-0.09520366
89	0xbdd46d50	-0.10372412
90	0xbe36aa76	-0.17838463
91	0xbe2770c7	-0.16351615
92	0xbe5a1eda	-0.21300831
93	0xbe066494	-0.13124305
94	0xbe8b7b7e	-0.27242655
95	0xbe25527a	-0.16144744
96	0xbe15a5f1	-0.14614083
97	0xbe323ba1	-0.17405559
98	0xbe93a287	-0.28834936
99	0xbe3a99f3	-0.1822279
100	0xbe003c02	-0.12522891
101	0xbe18db62	-0.14927438
102	0xbdad9cde	-0.08477186
103	0xbe872e6f	-0.26402614
104	0xbeaada47	-0.33369657
105	0xbe18e3a3	-0.14930587
106	0xbe4a8428	-0.19776976
107	0xbe784542	-0.2424517
108	0xbe08e6e8	-0.13369334
109	0xbe0a1a82	-0.13486674
110	0xbe04e2ff	-0.12977217
111	0xbe2a3576	-0.16621956
112	0xbe1a6d43	-0.15080743
113	0xbe4d166e	-0.20028087
114	0xbde5cc55	-0.11220614
115	0xbe36acf4	-0.17839414
116	0xbe20f2b0	-0.15717578
117	0xbe91115f	-0.28333566
118	0xbe55b86d	-0.20871134
119	0xbe25b58e	-0.16182539
120	0xbe1cf936	-0.15329441
121	0xbde70e1d	-0.11281989
122	0xbe86d655	-0.26335397
123	0xbddcdff0	-0.107849
124	0xbdf0f033	-0.11764564
125	0xbeb21d3d	-0.34787932
126	0xbe4bb117	-0.19891773
127	0xbe97a29f	-0.29616258
128	0xbdb84691	-0.089978345
129	0xbd24729f	-0.040148374
130	0xbe1ad587	-0.15120517
131	0xbe1ea0ee	-0.15491077
132	0xbe0cfec3	-0.13769059
133	0xbe1a0be2	-0.15043595
134	0xbd88a901	-0.0667286
135	0xbe511bf1	-0.20420815
136	0xbe8310a8	-0.25598645
137	0xbe8fbc7e	-0.28073496
138	0xbd95cfff	-0.07315063
139	0xbdbdb476	-0.09262936
140	0xbcb8f28c	-0.022576593
141	0xbe9b0427	-0.30276605
142	0xbe621aed	-0.22080584
143	0xbe430a63	-0.19046931
144	0xbe56cd84	-0.20976835
145	0xbe104704	-0.1408959
146	0xbea085b1	-0.31351998
147	0xbe558981	-0.20853235
148	0xbe0fc25b	-0.14038984
149	0xbe9b7481	-0.30362323
150	0xbe1c3e15	-0.15258057
151	0xbe5e3174	-0.21698552
152	0xbe867e10	-0.26268053
153	0xbe0194bb	-0.12654392
154	0xbe3bbd5d	-0.18333955
155	0xbe9582bb	-0.29201302
156	0xbe19177a	-0.14950362
157	0xbe082a6d	-0.13297434
158	0xbe8c208d	-0.27368584
159	0xbe227141	-0.15863515
160	0xbe4ab251	-0.19794585
161	0xbde77113	-0.11300864
162	0xbe115565	-0.14192732
163	0xbe1e2ae7	-0.15446053
164	0xbdf002a5	-0.117192544
165	0xbd8cebea	-0.068809345
166	0xbe059890	-0.13046479
167	0xbe839075	-0.2569615
168	0xbe371270	-0.17878127
169	0xbe7daee8	-0.24773753
170	0xbe572661	-0.21010734
171	0xbe05e278	-0.13074672
172	0xbe079cb7	-0.13243376
173	0xbe0efb8f	-0.1396315
174	0xbe4372d9	-0.1908678
175	0xbe7d77ea	-0.24752775
176	0xbdfc6a4e	-0.123249635
177	0xbdcebe90	-0.10094941
178	0xbef33738	-0.47503066
179	0xbe197514	-0.14986068
180	0xbde213ba	-0.11038919
181	0xbe3e7d38	-0.18602455
182	0xbe356841	-0.17715551
183	0x3b72387c	0.0036959937
184	0xbe564ccb	-0.20927732
185	0xbd589ff5	-0.052886922
186	0xbe423690	-0.18966126
187	0x3de53516	0.11191766
188	0xbe0c2d09	-0.13689055
189	0xbe59032c	-0.21192616
190	0xbe5d114d	-0.21588631
191	0xbe971897	-0.29510948
192	0xbde5efb5	-0.11227361
193	0xbe3b7713	-0.18307142
194	0xbdf2b09d	-0.118500926
195	0xbdb339b9	-0.08751244
196	0xbe80b607	-0.25138876
197	0xbe223a2f	-0.15842508
198	0xbc8e5d3d	-0.017378444
199	0xbe093cb8	-0.13402069
200	0xbeb6c167	-0.3569443
201	0xbe9a7802	-0.30169684
202	0xbe15cf33	-0.14629821
203	0xbe1cea94	-0.1532386
204	0xbe4f7991	-0.20261218
205	0xbe27c540	-0.16383839
206	0xbe612d3a	-0.21989909
207	0xbe32ee1a	-0.17473641
208	0xbe82b435	-0.25528112
209	0xbd903f61	-0.070433386
210	0xbe012d5f	-0.12614964
211	0xbe8cc890	-0.27496767
212	0xbdfdff56	-0.12402217
213	0xbe1d3477	-0.15352045
214	0xbe31773e	-0.17330644
215	0xbe6647ea	-0.2248837
216	0xbdf580e6	-0.11987476
217	0xbdd540f0	-0.104127765
218	0xbe43ea23	-0.19132285
219	0x3ce768cb	0.028248211
220	0xbddc61e9	-0.107608624
221	0xbe4483cf	-0.19190906
222	0xbe1f1b35	-0.15537722
223	0xbec21607	-0.3790743
224	0xbdebdd7a	-0.11516853
225	0xbe159bb0	-0.14610171
226	0xbdcd80ae	-0.10034309
227	0xbea9c0f1	-0.33155015
228	0xbe63a75c	-0.22231811
229	0xbe0e4a51	-0.13895537
230	0xbe023814	-0.12716705
231	0xbe9142c9	-0.28371266
232	0xbdea8fce	-0.1145321
233	0xbe3c1be1	-0.1837001
234	0xbe0b5596	-0.13606867
235	0xbe637973	-0.22214298
236	0xbe72384d	-0.2365429
237	0xbe226bd3	-0.15861444
238	0xbea72dc1	-0.32652095
239	0xbd2e51ce	-0.042558484
240	0xbdb4ab25	-0.08821706
241	0xbe54771b	-0.2074856
242	0xbe83f1f6	-0.2577054
243	0xbe6db2c1	-0.2321272
244	0xbdded452	-0.10880341
245	0xbe889f84	-0.266842
246	0xbe8f9647	-0.2804434
247	0xbe6b39aa	-0.22971216
248	0xbe1c7eac	-0.15282696
249	0xbe579010	-0.21051049
250	0xbe4698d4	-0.19394237
251	0xbdc9fd2b	-0.09862741
252	0xbda33e84	-0.07970908
253	0xbe089d9d	-0.13341375
254	0xbe1a23f8	-0.15052783
255	0xbdeb5acd	-0.11491928

fc3.weight f4 [1, 256]
0	0x3be61344	0.0070213396
1	0xbb7c1405	-0.003846408
2	0xbc94b822	-0.018154208
3	0xbb9028d1	-0.004399397
4	0xbc19b2bf	-0.009380995
5	0x3c7ad03c	0.015308436
6	0xbbb5baab	-0.005545934
7	0xbb4a27fe	-0.003084659
8	0x3a7e8cb6	0.00097102986
9	0xbafd0b2b	-0.0019305696
10	0x3be88b97	0.0070967185
11	0x3cea2108	0.028580204
12	0x3cb7436e	0.02237102
13	0x3a88d745	0.0010440132
14	0xbab6d185	-0.001394794
15	0xbc78fa9c	-0.015196469
16	0xbaf9926e	-0.0019040832
17	0xbc1ac498	-0.009446286
18	0xbc4f98a7	-0.0126706725
19	0xbb2ddd19	-0.002652949
20	0x3cb5a041	0.022171142
21	0xb9ec9195	-0.00045121895
22	0xbc892f87	-0.016746296
23	0x3c7fe1d4	0.015617806
24	0x3d0f166d	0.034933496
25	0x3bf74627	0.0075462046
26	0xbe060a40	-0.13089848
27	0xbcd4c5a9	-0.025973158
28	0x39b0fc55	0.00033757338
29	0x3bce10b0	0.0062886104
30	0x3b047b13	0.002021496
31	0xbc9dbacf	-0.019254116
32	0xbd44ee96	-0.048079096
33	0xbcbd1117	-0.023079438
34	0x3c2b4ab6	0.010454824
35	0xbb498aa6	-0.0030752807
36	0x3c6886b1	0.014192269
37	0x3ce1a783	0.027545696
38	0x3d18f374	0.03734155
39	0x3ac515ba	0.0015036382
40	0x3c9d06cd	0.019168282
41	0x3d866b86	0.06563477
42	0xbcaa7f1e	-0.020812567
43	0xbcb436e4	-0.02199883
44	0x3c994779	0.018710839
45	0xbc4a6928	-0.012354173
46	0x3c06f8ad	0.008238
47	0xbb815859	-0.0039472994
48	0xbe074a2e	-0.13211891
49	0x3c525ef6	0.012840023
50	0x3c036863	0.008020493
51	0xbcf6fea7	-0.030150725
52	0x3bdc8a0d	0.006730324
53	0xbcc40818	-0.02392964
54	0xbb4df9c8	-0.0031429399
55	0xbc6dfd22	-0.014525684
56	0xbc5d98d1	-0.013525204
57	0xb981e273	-0.00024773515
58	0xbd6bfd94	-0.057614878
59	0x3d32da80	0.04366541
60	0xbcc7be78	-0.024382815
61	0xbd1c4f0b	-0.03816132
62	0x3d501a7b	0.050806504
63	0xbc86dacf	-0.016461758
64	0x3b6a3f61	0.0035743343
65	0xbc8d6826	-0.017261576
66	0x3ca9d9f1	0.020733805
67	0x3d13ad74	0.03605409
68	0xbb405e85	-0.0029353213
69	0xbc960c76	-0.018316489
70	0xbbb45d6e	-0.0055043017
71	0x3ca2b822	0.019863192
72	0xbc4a2260	-0.012337297
73	0x3c37ee22	0.011226209
74	0x3c2d6f0b	0.010585557
75	0x3b95e770	0.0045747086
76	0xbbeab68c	-0.0071628746
77	0xbc311ece	-0.010810567
78	0x3c89b1a8	0.016808346
79	0xbc50ac06	-0.012736326
80	0x3c98cf60	0.018653572
81	0x3c7eebab	0.015559117
82	0xbc798cd8	-0.015231334
83	0x3c8c9feb	0.017166099
84	0x3cab6f36	0.020927053
85	0xbc4bac33	-0.012431192
86	0xbcc1c51a	-0.023653556
87	0xbcb88c09	-0.022527711
88	0xbcbeff3b	-0.023315063
89	0xbb2ba7ee	-0.0026192623
90	0xbaf1b7ae	-0.0018441582
91	0xbbe32d45	-0.006932887
92	0x3c1b4ef3	0.009479272
93	0x3c81496d	0.015782082
94	0x3c4a841a	0.012360597
95	0xbcc70406	-0.02429391
96	0x3c9d5ea0	0.01921016
97	0xbb4ee96c	-0.0031572236
98	0xbcfc80e0	-0.030823171
99	0x3caacd3b	0.020849815
100	0x3cc2a904	0.023762234
101	0xbd053ad7	-0.032526817
102	0x3c3585e1	0.0110792825
103	0x3b923655	0.0044620433
104	0x3cf06ee3	0.02934975
105	0xbd234d54	-0.039868668
106	0xbc2c5676	-0.010518661
107	0x3d4c863b	0.0499327
108	0xbc811a4d	-0.015759612
109	0xbc091b04	-0.008368257
110	0xbc8f0005	-0.017456064
111	0x3cae3000	0.021263123
112	0xbccb9cb7	-0.024855
113	0x3a800429	0.0009766865
114	0xbba96ea1	-0.0051706587
115	0xbc4ee9fe	-0.01262903
116	0xbca9ab61	-0.020711603
117	0x3c309c9d	0.010779527
118	0xbc651852	-0.013982849
119	0x3ada7175	0.0016665893
120	0xbc881ef4	-0.016616322
121	0x3ce8855e	0.028383907
122	0xbdb6639f	-0.0890572
123	0xbbd421ea	-0.0064737694
124	0xbce0387d	-0.027370686
125	0x3da57be7	0.08080273
126	0x3e8fa3f9	0.2805479
127	0x3c1928ba	0.009348089
128	0x3c443599	0.011975669
129	0xba858edd	-0.0010189671
130	0x3cc33bf2	0.023832295
131	0xbc854c49	-0.016271727
132	0x3c96b711	0.01839784
133	0x3cda76d4	0.02666799
134	0x3ca94ad9	0.020665573
135	0x3be26964	0.006909536
136	0x3cd282f6	0.025697213
137	0xbca8d97a	-0.020611513
138	0x3cfeb5c0	0.031092525
139	0xbc1a6552	-0.009423571
140	0x3d611abc	0.054957137
141	0x3c85e20b	0.016343137
142	0x38fc01d5	0.000120166376
143	0x3c5430b1	0.012951062
144	0x3cbbdd42	0.022932652
145	0xbc1ca501	-0.009560824
146	0xbcc669ef	-0.024220435
147	0xbc80fe1a	-0.015746165
148	0x3926eb08	0.0001591855
149	0xb9bd8672	-0.0003614906
150	0x3c9ba3c6	0.018998992
151	0x3cd8fc24	0.026487418
152	0xbc7b9eb6	-0.015357664
153	0x3ca792b0	0.020455688
154	0x3d90144d	0.07035122
155	0xbd1c0c3b	-0.0380976
156	0xbbb34aea	-0.005471577
157	0x3ba01ce7	0.004886258
158	0xbc8ab93c	-0.01693403
159	0x3c14edd1	0.009089903
160	0xbca59580	-0.020212889
161	0x3c41cd85	0.011828785
162	0xbb92a37d	-0.0044750557
163	0x3c9ad4b7	0.018900258
164	0xbc60c790	-0.013719454
165	0x3b1a41cf	0.002353776
166	0xbc8cef3e	-0.017203923
167	0xbb311294	-0.002701913
168	0xb9215a55	-0.00015387808
169	0x3cabdee4	0.020980306
170	0x3ccb6282	0.024827246
171	0xbc74fc3d	-0.014952716
172	0xbbfecea5	-0.007776099
173	0x3c3ecab1	0.011645005
174	0x3c6b5fdf	0.014366119
175	0xba44c23b	-0.0007505749
176	0x3abfb56d	0.0014626213
177	0xbc906caf	-0.01762995
178	0xbc937609	-0.01800062
179	0xbb1ab647	-0.002360718
180	0x3c8b806d	0.017029012
181	0xbc9b2883	-0.018940216
182	0xbb2a481b	-0.002598292
183	0x3d38c587	0.04511025
184	0xbd1d5407	-0.038410213
185	0xbcb47f0e	-0.02203324
186	0x3ca96705	0.020679006
187	0xbce4d553	-0.027933752
188	0x3d16ed23	0.036847245
189	0x3d693757	0.05693754
190	0xbbb923d4	-0.005650023
191	0x3c1807e8	0.009279229
192	0x3cf1df2d	0.029525364
193	0xbcd4dd15	-0.025984326
194	0x3c064f25	0.00819758
195	0x3c206dd4	0.00979181
196	0xbce5fe8e	-0.028075483
197	0x3c95e1a7	0.018296076
198	0xbd44ed0f	-0.04807764
199	0x3b1da64b	0.0024055417
200	0x3cf07813	0.02935413
201	0x3b8efb8d	0.0043634833
202	0xbbf76cb8	-0.007550802
203	0x3cd391e4	0.025826402
204	0xbc20cb2d	-0.009814066
205	0xba2a3c4b	-0.00064939697
206	0x3b8daa03	0.0043232455
207	0xbc716bb3	-0.01473515
208	0xbc646d89	-0.013942131
209	0xbbd0e247	-0.0063746306
210	0x3c9cd704	0.019145496
211	0xbbb0bc53	-0.0053935437
212	0x3c726b78	0.01479613
213	0xbc1cd9bc	-0.009573396
214	0xbbdec023	-0.006797807
215	0x3c982dc9	0.01857652
216	0xbe246e31	-0.1605766
217	0xbd0270a8	-0.03184572
218	0x3ca54807	0.020175947
219	0xbccd1d38	-0.025038347
220	0x3cee17d8	0.029064104
221	0xbccd208d	-0.025039935
222	0x3c88ec5d	0.01671427
223	0xbe09df67	-0.13464127
224	0x3c6e7fe0	0.014556855
225	0x3bc70450	0.006073512
226	0x3aa3237a	0.0012446486
227	0x3d037286	0.03209164
228	0xbbfa3101	-0.0076352363
229	0x3c9f3720	0.019435465
230	0x3ade18e3	0.0016944673
231	0xbc12d98d	-0.008963001
232	0xbc238aa8	-0.009981789
233	0xbb3e4e84	-0.0029038498
234	0x3a3bd96a	0.0007165881
235	0xbcaf20e8	-0.021377996
236	0xbc81f3fb	-0.01586341
237	0x3abe09f9	0.0014498822
238	0x3c50cebe	0.012744604
239	0x3bf5eab9	0.0075047878
240	0x3c0d8be8	0.008639313
241	0x3d050bf2	0.032482095
242	0xbd1038cf	-0.035210427
243	0x3b85bdd2	0.0040814662
244	0xbc320bb8	-0.010867052
245	0xbc87af6d	-0.016563142
246	0x3a77cc45	0.0009452741
247	0x3c1aecf4	0.009455908
248	0x3c24bbf5	0.010054578
249	0x3b19c01e	0.0023460458
250	0x3c995ccc	0.018721007
251	0xbc14f6b4	-0.009092022
252	0x3c3130ad	0.010814828
253	0x3cb98d99	0.022650527
254	0xbd21b196	-0.039476
255	0xbc769a44	-0.015051428

bn1.weight f4 [256]
0	0xbdc96c76	-0.098351404
1	0x3e854419	0.26028517
2	0x3ee79606	0.45231646
3	0x3f5401e8	0.8281541
4	0x3e107684	0.1410771
5	0x3e342264	0.17591244
6	0x3d1ab56a	0.037770666
7	0x3d613e4e	0.05499106
8	0x3d8e8227	0.06958418
9	0x3e1fcea1	0.15606166
10	0x3e643b00	0.22288132
11	0x3da390a4	0.079865724
12	0x3eac967b	0.33708557
13	0x3e563293	0.2091773
14	0x3de2a1dc	0.110660285
15	0x3ddee448	0.10883385
16	0x3c888956	0.01666705
17	0x3d13635a	0.03598342
18	0x3e65355a	0.22383633
19	0x3e8f6bc2	0.280119
20	0x3e725e55	0.23668797
21	0x3f08045b	0.53131646
22	0x3ea216e1	0.3165808
23	0x3f28bad3	0.6591007
24	0x3e240c23	0.16020255
25	0x3dcb1bf6	0.099174425
26	0x3f9308d0	1.1487064
27	0x3d466101	0.048432354
28	0x3d1d9466	0.038471602
29	0xbe079203	-0.13239293
30	0x3e5e1be1	0.21690322
31	0x3f1a60b8	0.6030383
32	0x3e2a6b89	0.16642584
33	0x3df47b38	0.119375646
34	0x3e184807	0.14871226
35	0xbbc60817	-0.006043445
36	0x3d9a00b4	0.07519665
37	0x3dcd692e	0.10029827
38	0xbce62cb1	-0.028097482
39	0x3e2be9c5	0.16788395
40	0x3e7666f8	0.24062717
41	0x3f0547d2	0.52062714
42	0x3d7394b4	0.059467986
43	0x3e585a49	0.21128191
44	0x3dec1384	0.1152716
45	0x3d95c830	0.07313573
46	0x3d0f011d	0.03491317
47	0x3eeabcc5	0.45847145
48	0x3ddb21bb	0.10699793
49	0x3dda8635	0.10670129
50	0x3daf63dd	0.08563969
51	0x3dd1c4fd	0.10242651
52	0x3e27f40e	0.16401693
53	0x3cc11d95	0.023573676
54	0x3e4e9108	0.20172513
55	0x3dd8c55a	0.10584517
56	0x3e2da385	0.16956909
57	0x3dd8ad14	0.10579887
58	0x3e3402b0	0.1757915
59	0x3dc0a44f	0.094063394
60	0x3e84efc4	0.25964177
61	0x3e1ce521	0.1532178
62	0x3e15282e	0.14566109
63	0xbdbc324a	-0.091892794
64	0xbdde24ef	-0.10846888
65	0x3e20601a	0.1566166
66	0x3e96b5e5	0.2943565
67	0x3d716e48	0.058943063
68	0xbe10e17d	-0.14148517
69	0x3d68fc9a	0.056881525
70	0x3e01bcee	0.12669727
71	0x3df245df	0.11829733
72	0x3e6d5103	0.23175435
73	0xbd8ca9a9	-0.068682976
74	0x3e7cb316	0.24677691
75	0x3e5f393a	0.21799174
76	0x3ea1bb20	0.31588078
77	0x3de8cabb	0.11366793
78	0x3eca69b0	0.39533758
79	0x3e9bad6e	0.30405754
80	0x3dcb2539	0.09919209
81	0x3e4e00c5	0.20117481
82	0x3e238696	0.15969309
83	0x3dee8f21	0.116483934
84	0x3e5b2e1e	0.21404311
85	0x3e8e5434	0.27798617
86	0x3d62767b	0.055288773
87	0x3d9c6301	0.07636071
88	0x3dcc60f5	0.099794306
89	0x3e49ff19	0.19726218
90	0xbdd9114f	-0.105990045
91	0xbbbff4c3	-0.0058580353
92	0x3da56263	0.080754064
93	0x3d7c2937	0.061562743
94	0x3edeaa6d	0.434894
95	0x3d79fd41	0.061032537
96	0x3e3d1bf4	0.18467695
97	0x3e0abf77	0.135496
98	0x3f0fed49	0.56221443
99	0x3e0c69d5	0.13712247
100	0x3ec44577	0.38334247
101	0x3e5e59ab	0.21713893
102	0x3e23afe6	0.15985069
103	0x3dc09cb7	0.09404891
104	0x3dd8f19b	0.105929576
105	0xbddfa2dd	-0.109197356
106	0x3e00ff25	0.1259733
107	0x3f28cd4b	0.6593825
108	0x3f1bb33c	0.60820365
109	0x3e150a72	0.14554766
110	0x3e3f3e8f	0.18676208
111	0x3dc65a80	0.0968523
112	0x3dc084c0	0.0940032
113	0x3f2e307e	0.68042743
114	0x3d9735e6	0.07383327
115	0xbdd1a035	-0.10235635
116	0x3eb73999	0.3578613
117	0x3f25315e	0.64528453
118	0x3e173ee5	0.14770086
119	0x3eaec194	0.34132063
120	0x3df30f5a	0.118681625
121	0x3d338ead	0.043837238
122	0x3ea07701	0.31340793
123	0xbe0d6d73	-0.13811283
124	0x3bedc13d	0.007255702
125	0x3e5f4052	0.2180188
126	0x3de19292	0.11014284
127	0x3da1873f	0.07887124
128	0x3e4d0930	0.20023036
129	0x3db4d5a1	0.08829809
130	0x3d58d7e1	0.052940253
131	0x3e6be665	0.23037107
132	0x3dd34d86	0.10317521
133	0x3e885fb4	0.26635516
134	0x3dfce338	0.12348026
135	0x3e2ee2c2	0.17078689
136	0x3e8b8451	0.27249387
137	0x3e25952e	0.16170189
138	0x3de5ec71	0.11226738
139	0x3e61fd8f	0.22069381
140	0x3e1c39c3	0.1525641
141	0x3e18becd	0.14916535
142	0x3e3c72c0	0.18403149
143	0xbde650c7	-0.11245876
144	0x3db755c6	0.08951907
145	0x3e1d398c	0.15353984
146	0x3d05218f	0.032502707
147	0xbdf991fc	-0.121860474
148	0x3d935272	0.071934596
149	0x3ec17bac	0.37789667
150	0xbe2c77cb	-0.16842572
151	0x3dacacb5	0.08431379
152	0x3e7e89c4	0.24857241
153	0xbb8e2892	-0.0043383325
154	0xbd9d42bb	-0.076787435
155	0x3e6a064a	0.22853962
156	0x3f0c7957	0.5487265
157	0x3e6905eb	0.22756164
158	0x3da1c690	0.07899201
159	0x3d9600e1	0.073243864
160	0x3e87a014	0.26489317
161	0x3e6d4c3f	0.23173617
162	0x3ddf09ce	0.10890542
163	0x3f10ed0f	0.5661172
164	0x3e39a38c	0.18128794
165	0x3d900db2	0.07033862
166	0x3ed6e401	0.41970828
167	0x3f3456e1	0.70445067
168	0x3db03007	0.086029105
169	0x3e95b475	0.2923924
170	0x3e1669a7	0.1468874
171	0x3d82c401	0.06385041
172	0x3d4ff4ae	0.050770454
173	0x3e8060d2	0.25073868
174	0x3f41b070	0.7565985
175	0x3e068008	0.13134778
176	0x3df6e79b	0.12055894
177	0x3f3d4961	0.7394009
178	0x3efd4a1b	0.494706
179	0x3e0bd6b6	0.13656124
180	0x3e9686fd	0.29399863
181	0x3ed6fc1b	0.41989216
182	0x3e2bc0e6	0.16772804
183	0x3f1e069b	0.6172883
184	0x3ed167e9	0.4089959
185	0x3d07c2c6	0.033144735
186	0x3e28c46c	0.16481179
187	0x3d2871cb	0.041124146
188	0x3e6463cb	0.22303693
189	0x3dc05879	0.09391875
190	0x3eb26a8e	0.3484692
191	0x3f0ece5e	0.5578364
192	0x3d91ad89	0.07113177
193	0x3e5eddde	0.21764323
194	0x3f1a8525	0.6035941
195	0x3e42b793	0.1901534
196	0x3e561ea7	0.2091013
197	0x3df1d3f3	0.11808004
198	0x3d819c22	0.06328608
199	0xbe164063	-0.14672999
200	0x3e7590fb	0.23981087
201	0x3d55a1b2	0.052156158
202	0x3e604a96	0.21903452
203	0x3de939ce	0.113879785
204	0x3ccfa23a	0.02534591
205	0xbbbe8687	-0.0058143768
206	0x3e614e10	0.22002435
207	0x3e147939	0.14499368
208	0xbdaea9fd	-0.085285164
209	0x3dc614bc	0.096719235
210	0x3e6298bd	0.22128578
211	0x3e4fd19c	0.20294803
212	0x3e6db88d	0.23214932
213	0x3d1bdede	0.03805434
214	0x3de1e53e	0.110300526
215	0x3e4bea19	0.1991352
216	0x3decb18e	0.11557303
217	0x3df02645	0.11726049
218	0x3de3e6a8	0.111279786
219	0x3da351e1	0.079746015
220	0x3dcf2361	0.1011417
221	0x3e037d49	0.12840761
222	0x3dc4c049	0.09606988
223	0x3e36f55e	0.17867038
224	0x3e85a83b	0.26104912
225	0x3ea03f0a	0.31298095
226	0x3e057552	0.13033035
227	0x3e0ec26b	0.13941352
228	0x3ddd8c2a	0.1081775
229	0x3f00d9ba	0.50332224
230	0xbd7f0959	-0.062264774
231	0x3e247c29	0.16062988
232	0x3d9eb33e	0.077490315
233	0x3e0861cd	0.13318558
234	0x3f47845b	0.77936333
235	0x3e9c0606	0.30473346
236	0xbd827950	-0.06370795
237	0x3ecd7f90	0.40136385
238	0xbd9347c8	-0.071914256
239	0x3e6481c0	0.2231512
240	0x3e1c6788	0.15273869
241	0x3dba28d2	0.09089817
242	0x3e83d935	0.25751653
243	0x3e466258	0.19373453
244	0x3e2c2655	0.16811498
245	0x3da71491	0.081582196
246	0x3e8b579c	0.27215278
247	0x3f382dc8	0.71944857
248	0x3e3f693e	0.1869249
249	0x3d8e9c17	0.069633655
250	0x3d30854f	0.043095883
251	0xbd74b45a	-0.05974231
252	0x3e10e535	0.14149936
253	0x3eb1ab17	0.34700844
254	0x3e388cb3	0.18022422
255	0x3e891039	0.2677019

bn1.bias f4 [256]
0	0xbcc27d04	-0.023741253
1	0x3db5f4d5	0.08884589
2	0x3e4780d2	0.19482735
3	0x3e92ce74	0.28673136
4	0x3da959f3	0.082691096
5	0x3d727144	0.05919005
6	0x3cb91625	0.022593567
7	0x3caaf72e	0.020869818
8	0x3c975f3f	0.018478034
9	0x3ce6cc2c	0.028173529
10	0x3dea2cfb	0.114343606
11	0x3d06fafe	0.03295421
12	0x3e25deb9	0.16198243
13	0x3b377ce2	0.002799802
14	0xbd490a46	-0.049082063
15	0x3c83bc3f	0.016080974
16	0x3c241579	0.010014885
17	0x3d43555c	0.047688827
18	0x3de900e7	0.11377125
19	0x3e16ff9a	0.14745942
20	0xb9ef6493	-0.00045660566
21	0x3e69ce22	0.2283254
22	0x3dcf7547	0.10129791
23	0x3ea0c732	0.31401974
24	0x3d1083aa	0.035281815
25	0xbb013377	-0.0019714513
26	0x3ef38497	0.47562096
27	0x3c7e0f1f	0.015506535
28	0xbd0486e0	-0.03235519
29	0xbc96ec5d	-0.018423254
30	0x3e0000e2	0.12500337
31	0x3e81c144	0.25342762
32	0x3d3e3d4b	0.046445172
33	0x3d33684d	0.04380064
34	0x3d5c86a1	0.05383933
35	0x3e9e1d1b	0.3088158
36	0x3b86fe3e	0.0041196635
37	0x3d1856b4	0.03719206
38	0xba43e25a	-0.00074723887
39	0x3d2e8bab	0.042613667
40	0x3dcf373c	0.10117957
41	0x3dddefe3	0.108367704
42	0x3c12756a	0.0089391265
43	0x3d36a2b5	0.044588763
44	0x3ce47792	0.027889047
45	0x3c8a875c	0.016910248
46	0x3c64649c	0.013940003
47	0x3dba95d8	0.09110612
48	0xbe73473b	-0.23757641
49	0x3ca3b90a	0.019985694
50	0xbddf23af	-0.10895478
51	0x3e500ede	0.20318171
52	0x3d41a970	0.04728073
53	0xbafcbd8c	-0.0019282564
54	0x3d9d9cb0	0.076959014
55	0x3cfd8f6e	0.030952182
56	0x3de596b9	0.11210389
57	0xbc936e93	-0.017997062
58	0x3d02a3f1	0.031894628
59	0x3d5e0cf0	0.054211557
60	0x3e02f39d	0.12788244
61	0x3d52f94a	0.05150727
62	0x3d36f819	0.044670198
63	0x3e0567b4	0.13027841
64	0xbcdc0b5c	-0.026860885
65	0x3cae4e68	0.021277621
66	0x3de26bf0	0.11055744
67	0x3d22abc2	0.039714582
68	0xbc58adf9	-0.013225072
69	0x3b916802	0.0044374475
70	0x3d7da9d6	0.061929546
71	0x3ce9427e	0.028474089
72	0x3ca0d9d4	0.019635119
73	0xbd184145	-0.03717162
74	0x3e0be5fe	0.13661954
75	0xbb5d12f3	-0.0033733218
76	0x3e3258ba	0.17416659
77	0x3d399cfc	0.045315728
78	0x3e5672d2	0.20942238
79	0x3d96a50b	0.07355698
80	0x3d5e0702	0.054205902
81	0x3ce55359	0.027993845
82	0x3d42189b	0.047386747
83	0x3b3539a5	0.0027652767
84	0x3d388a2a	0.04505364
85	0x3e4e5894	0.20150977
86	0x3c295e84	0.010337476
87	0x3c56d9af	0.013113423
88	0x3d4f58bd	0.050621737
89	0x3d91992b	0.071092926
90	0xbc4656ae	-0.012105627
91	0xbbc7ccbe	-0.006097405
92	0x3c328148	0.010895081
93	0x3a49ffa9	0.0007705638
94	0x3d5ba94f	0.053628262
95	0x3caa91c9	0.020821469
96	0x3d422dc4	0.047406927
97	0x3d8194c1	0.06327201
98	0x3e2909be	0.16507623
99	0x3ce35b32	0.027753446
100	0x3e339443	0.17537026
101	0x3d3e6a8b	0.046488326
102	0x3d83f0f2	0.06442441
103	0x3c89a500	0.016802311
104	0xbae661ac	-0.0017576716
105	0xbccc95ec	-0.024973832
106	0x3ccf15d2	0.02527896
107	0x3e56096d	0.20902033
108	0x3e15f47f	0.14644049
109	0x3cba9a1a	0.02277856
110	0x3d82e6b8	0.06391662
111	0x3cbdc1cd	0.0231637
112	0xbd4f8793	-0.050666403
113	0x3c60f8d6	0.013731202
114	0x3cd081a5	0.025452444
115	0xbb2cac2b	-0.0026347737
116	0x3e835591	0.2565122
117	0x3eb4bfe0	0.3530264
118	0x3db13099	0.086518474
119	0x3df45b54	0.11931482
120	0x3cee6206	0.029099476
121	0x3c620405	0.013794904
122	0x3e39e703	0.1815453
123	0xbd346ba6	-0.044047974
124	0x3ab87ce4	0.0014075306
125	0x3d5d59f3	0.05404086
126	0x3cbac286	0.022797834
127	0x3cc73e95	0.024321834
128	0x3dc24f02	0.09487726
129	0xba10bcf7	-0.0005521322
130	0xbbd1bbfb	-0.006400583
131	0x3db680b5	0.08911268
132	0x3d9efd33	0.07763138
133	0x3d1261b6	0.035737716
134	0x3c581367	0.01318822
135	0x3cb27aa9	0.021787005
136	0x3d8ed152	0.069735184
137	0x3d82eaab	0.063924156
138	0x3c2096dd	0.009801594
139	0x3df818fb	0.1211414
140	0x3d4f4572	0.050603338
141	0x3d376c3f	0.044780966
142	0x3d6749bf	0.056466814
143	0xbdd5e5f8	-0.10444254
144	0x3d249de8	0.040189654
145	0x3dd78686	0.10523705
146	0x3b405bad	0.0029351518
147	0xbbd4e847	-0.006497416
148	0x3ce7338a	0.028222818
149	0x3db74f80	0.0895071
150	0xbd864d3b	-0.06557699
151	0x3b992982	0.0046741376
152	0x3dc7b08f	0.09750473
153	0x3e575f16	0.21032366
154	0xbd42faa4	-0.04760231
155	0x3d85e521	0.065378435
156	0x3e8095d6	0.25114316
157	0x3dfb53c8	0.122718394
158	0x3d06e7f7	0.032936063
159	0xbcfa687c	-0.0305674
160	0x3d14ede2	0.036359675
161	0x3d2a8860	0.041633964
162	0xbb91bcd3	-0.0044475584
163	0x3ea06791	0.31329015
164	0x3d5a36b1	0.053274814
165	0x3d13932d	0.03602903
166	0x3e2b2048	0.16711533
167	0x3e4bbf58	0.1989721
168	0x3d2ca134	0.042145923
169	0x3d8b9c77	0.06816953
170	0xbd907ddf	-0.07055258
171	0x3a64e2d4	0.000873131
172	0x3d0e9dff	0.034818646
173	0x3da86e6d	0.08224187
174	0x3e23f899	0.16012801
175	0x3cd25929	0.02567728
176	0x3c900432	0.017580125
177	0x3e962edb	0.29332623
178	0x3e7e4024	0.24829155
179	0x3d30d22f	0.043169197
180	0x3d08e5ca	0.03342227
181	0x3e1eb22b	0.15497653
182	0x3d0d4335	0.03448792
183	0xbd933b79	-0.07189078
184	0x3d494a9c	0.04914342
185	0x3c7897cd	0.015172911
186	0x3d26bd07	0.040707614
187	0x3cd584f9	0.026064383
188	0x3c155508	0.009114511
189	0x3cf0ad2a	0.029379446
190	0x3dea65c9	0.11445195
191	0x3e9997b0	0.2999854
192	0x3cd98f2c	0.026557527
193	0x3d0ff527	0.035145905
194	0x3e7ba2fd	0.24573894
195	0x3da40962	0.08009602
196	0x3d54a16c	0.051911756
197	0x3c90aeff	0.01766157
198	0x3d49da9c	0.049280748
199	0xbd690919	-0.05689344
200	0x3dbec89f	0.09315609
201	0x3c31e81b	0.010858561
202	0x3d1e170d	0.0385962
203	0x3d6a5bba	0.057216384
204	0x3bb1e10d	0.0054284395
205	0x39d4af37	0.00040566336
206	0x3da5f78d	0.08103857
207	0x3cb430c5	0.021995911
208	0xbbed8173	-0.0072480976
209	0x3d22a54c	0.03970842
210	0x3d48fb83	0.049067985
211	0x3d536634	0.05161114
212	0x3d083ec2	0.033262976
213	0x3ab9f2ea	0.0014186774
214	0x3ce43e68	0.027861789
215	0x3d7e68c8	0.062111646
216	0x3d8488cf	0.06471407
217	0x3d289e7f	0.04116678
218	0x3c3c3914	0.011488218
219	0x3d45b4ee	0.04826825
220	0x3ce66602	0.028124813
221	0x3ddef73b	0.10886999
222	0x3c353323	0.011059555
223	0x3d8b4d6c	0.068018764
224	0x3d77ff5e	0.06054627
225	0x3db10db6	0.08645193
226	0x3c83f84b	0.016109606
227	0x3d97929d	0.07401011
228	0x3d0fe7fe	0.035133354
229	0x3e5f7b7f	0.21824454
230	0x3962d0df	0.0002163085
231	0x3ca7877c	0.020450346
232	0x3c96bf34	0.01840172
233	0x3c11fe6c	0.008910757
234	0x3e1cd605	0.15316017
235	0x3e5b7ea0	0.21435022
236	0xbc5638c7	-0.01307506
237	0x3de02aad	0.1094564
238	0xbc753188	-0.014965422
239	0x3da62a58	0.08113545
240	0x3ce41c39	0.027845489
241	0xbccec0aa	-0.025238354
242	0xbd461ce9	-0.048367415
243	0x3d4dffd5	0.05029281
244	0x3d768482	0.060184963
245	0xbc10caed	-0.008837444
246	0x3e21b976	0.15793404
247	0x3d802736	0.06257479
248	0x3e1a0354	0.15040332
249	0x3cc6b69c	0.024256997
250	0x3bde0448	0.0067754127
251	0xbd35bbda	-0.044368602
252	0x3d74137f	0.059588905
253	0x3e008421	0.12550403
254	0x3d90a076	0.070618555
255	0x3d37498d	0.044747878
